Results/anode_sine_500-3.pth (torch, 21697 bytes, 6 tensors)

net.0.weight f4 [64, 3]
0	0x3a0915bd	0.00052293745
1	0x3d8f0d5d	0.06984971
2	0xbe6228be	-0.22085854
3	0xbd802213	-0.06256499
4	0x3e25147f	0.161211
5	0x3d88fcc3	0.066888355
6	0x3cedb506	0.029016983
7	0x3d88ed0d	0.06685839
8	0xbdf6b206	-0.12045674
9	0xbe145ca1	-0.1448846
10	0x3c4938ff	0.012281655
11	0x3cc66b6e	0.024221148
12	0x3e6b5bb4	0.229842
13	0x3d6a1472	0.057148404
14	0xbc76e813	-0.015069979
15	0x3d952534	0.072824866
16	0xbd28f36f	-0.04124778
17	0x3dcdb0cc	0.10043487
18	0xbd912886	-0.07087807
19	0x3c1f8a69	0.009737589
20	0xbdb1a574	-0.08674136
21	0xbe5e470a	-0.21706787
22	0x3d61a779	0.055091355
23	0xbba9b6bb	-0.005179254
24	0x3e14bdb7	0.14525495
25	0xbd89f09a	-0.06735344
26	0xbc49e768	-0.012323238
27	0xbdb7dee5	-0.08978061
28	0xbdf878c1	-0.12132407
29	0x3ddf5f7a	0.109068826
30	0x3da6a003	0.081359886
31	0xbc97e569	-0.018542008
32	0xbe84346a	-0.2582124
33	0x3ce3e6c2	0.027819995
34	0x3e7896cf	0.24276279
35	0x3df4da88	0.11955744
36	0x3b0947ad	0.0020947263
37	0xbcdf8a13	-0.027287519
38	0xbd1f9550	-0.038960755
39	0xbde8fe13	-0.11376586
40	0x3dac1fc1	0.08404494
41	0x3d9f47fd	0.077774025
42	0xbdae53ed	-0.08512101
43	0x3d238b0d	0.03992753
44	0xbda8f380	-0.08249569
45	0x3c03dd93	0.008048433
46	0xbdcf4cae	-0.10122047
47	0x3d90854d	0.07056675
48	0x3e0511e9	0.12995113
49	0xbd16fc77	-0.036861863
50	0x3deff961	0.11717487
51	0x3d07a5f7	0.03311726
52	0x3dd3a031	0.103332885
53	0xbe001514	-0.1250804
54	0x3d883959	0.06651563
55	0xbd99543e	-0.07486771
56	0x3c81a02d	0.015823448
57	0xbd50f2f5	-0.051012952
58	0xbd010a44	-0.03150393
59	0x3d9e93c0	0.07743025
60	0x3ca1a1b0	0.019730419
61	0xbda9e640	-0.0829587
62	0x3daeae72	0.085293666
63	0xbd5b42b2	-0.053530402
64	0x3dd4257a	0.103587106
65	0xbaa362c1	-0.0012465344
66	0x3d3fc6fa	0.04682062
67	0x3e845867	0.25848696
68	0x3de03ef3	0.109495066
69	0xbd6a22a4	-0.057161942
70	0xbd3f4777	-0.046699014
71	0x3e84a9d5	0.25910822
72	0xbd01253e	-0.031529658
73	0x3d31ba6b	0.043390673
74	0xbd384c71	-0.044994775
75	0xbe301438	-0.17195213
76	0xbcffcf1f	-0.031226693
77	0x3e05c065	0.13061674
78	0xbd7fdc13	-0.06246574
79	0x3d972823	0.07380702
80	0xbd069ac3	-0.032862436
81	0x3dcd4cdb	0.10024425
82	0xbdb251dc	-0.0870702
83	0x3cb99878	0.02265571
84	0xbe083c50	-0.13304257
85	0x3e0f4f86	0.1399518
86	0x3e485b60	0.19566107
87	0xbdbe680f	-0.09297191
88	0xbdc0464f	-0.0938841
89	0xbc9d7768	-0.019221976
90	0xbd1b6b52	-0.037944146
91	0x3e487190	0.1957457
92	0x3cabc516	0.020968001
93	0x3db437d4	0.08799711
94	0x3e0e88ea	0.13919416
95	0x3df15963	0.11784627
96	0xbdb0e01c	-0.086364955
97	0xbc497d71	-0.012297974
98	0xbe129a55	-0.14316685
99	0xbe05e1da	-0.13074437
100	0x3cc66631	0.02421865
101	0x3e2aba9f	0.16672753
102	0x3e0f79af	0.14011262
103	0xbd30cdba	-0.043164946
104	0xbe21e577	-0.1581019
105	0xbde65a02	-0.112476364
106	0xbda18892	-0.07887377
107	0xbdc7d2c3	-0.097569965
108	0x3e0f2f65	0.13982923
109	0xbd385d27	-0.045010712
110	0xbe05f996	-0.1308349
111	0xbd55e490	-0.052219927
112	0xbd70aba4	-0.05875744
113	0xbd6ff45f	-0.05858266
114	0xbd1473f3	-0.03624339
115	0x3d218187	0.039430168
116	0x3e4b27a5	0.19839342
117	0xbe0f5e2b	-0.14000766
118	0x3cb5af00	0.022178173
119	0xbd592a83	-0.053019058
120	0xbded6546	-0.11591582
121	0x3d857e16	0.065181896
122	0x3e0e5173	0.13898258
123	0xbe1a1abd	-0.15049262
124	0xbd06cdab	-0.032910984
125	0xbd2264e9	-0.039647017
126	0xbdcfe560	-0.10151172
127	0x3cec7050	0.028862149
128	0x3cd09380	0.025460958
129	0xbe24a66d	-0.16079111
130	0x3de85c64	0.11345747
131	0x3e60c19c	0.21948856
132	0xbdb0bbc8	-0.086295664
133	0xbe4783f5	-0.19483931
134	0xbe51d919	-0.20492972
135	0x3d115068	0.035477072
136	0x3d2c3f05	0.042052288
137	0x3dbc4277	0.09192365
138	0xbd60c188	-0.054872066
139	0x3e24bd0b	0.16087739
140	0x3dfd42ce	0.123662576
141	0xbe37c42e	-0.1794593
142	0xbba99979	-0.005175766
143	0x3d6b8548	0.057500154
144	0xbe159057	-0.14605843
145	0xbd4f533a	-0.05061648
146	0xbe35fc32	-0.17771986
147	0xbd9fd558	-0.07804364
148	0x3d92fee9	0.071775265
149	0xbd184dcb	-0.037183564
150	0x3dbcedb2	0.09225024
151	0x3d9f44b1	0.07776774
152	0xbd39347b	-0.045216065
153	0xbdbc4090	-0.09192002
154	0xbdfc4e51	-0.12319625
155	0xbe06cfdc	-0.1316523
156	0xbdf816a1	-0.12113691
157	0x3bb0df3d	0.005397706
158	0xbdb19564	-0.08671072
159	0xbd424ec5	-0.0474384
160	0x3d93e554	0.07221475
161	0xbc7888f4	-0.015169371
162	0x3e2e07e6	0.169952
163	0x3da29fd7	0.07940643
164	0xbd2c0942	-0.042001016
165	0xbd4631f5	-0.048387486
166	0x3dc86e99	0.0978672
167	0x3e297ea1	0.16552211
168	0xbe2e18be	-0.17001626
169	0xbcf1aafc	-0.029500477
170	0x3d9a796d	0.075426914
171	0xbdae57ca	-0.08512838
172	0xbdcd141a	-0.100136
173	0xbdaaccb3	-0.083398245
174	0x3dc07c74	0.093987375
175	0xbd848cf3	-0.064721964
176	0xbe217b4c	-0.1576969
177	0xbc9c35c5	-0.019068608
178	0x3cfdaa43	0.030964976
179	0x3dd49a2f	0.10380971
180	0x3bfabbde	0.00765179
181	0xbdcacc67	-0.09902268
182	0xbc9e4be4	-0.019323297
183	0x3c8711c1	0.016487958
184	0x3e0083ec	0.12550324
185	0x3e600d74	0.21880132
186	0xbd8f671f	-0.07002091
187	0x3d5bc4f0	0.05365461
188	0xbdce2973	-0.100664996
189	0xbd6f08dc	-0.05835806
190	0xbe2d98d9	-0.16952838
191	0xbcb32d83	-0.021872288

net.0.bias f4 [64]
0	0x3ad55c34	0.0016278089
1	0xbd27c3db	-0.040958267
2	0x3b84a7f4	0.004048342
3	0xb9eb5025	-0.00044882405
4	0xbd39ec50	-0.04539138
5	0xbcfe55b8	-0.031046733
6	0xbb99f6a7	-0.0046985927
7	0xb9f3f550	-0.00046531344
8	0x3d152162	0.03640879
9	0xb9eef7e3	-0.00045579587
10	0x3ca2914c	0.019844674
11	0xbca31d41	-0.01991141
12	0x3a892167	0.0010462225
13	0xbb1022ab	-0.002199332
14	0xbc8e4cb7	-0.017370565
15	0x3c18fb21	0.009337218
16	0x3c099af9	0.008398765
17	0xb9e6159f	-0.00043885128
18	0x3b0bc422	0.002132662
19	0xbccdd607	-0.02512647
20	0x3c7a2e66	0.015269851
21	0x3c6cea66	0.014460182
22	0xbd9a5009	-0.07534797
23	0x3b8d2d36	0.004308368
24	0xbbca49fd	-0.006173371
25	0xba6d6d11	-0.00090570847
26	0xbbe5f969	-0.0070182574
27	0xbc257809	-0.010099419
28	0x3aeee31c	0.0018225643
29	0x3ba2cc95	0.0049682357
30	0xbc0899de	-0.008337466
31	0x3b821f83	0.0039710416
32	0x3c283ef4	0.010268915
33	0xbca0ce42	-0.019629601
34	0x3c074554	0.008256275
35	0x3d1a3e03	0.037656795
36	0x3d022093	0.031769346
37	0x3cad6711	0.02116731
38	0x3afa3646	0.0019089661
39	0x3ca3bb79	0.019986855
40	0xbd7ab8ea	-0.061211504
41	0x3bbf3f98	0.0058364384
42	0x3b3fa81e	0.0029244493
43	0x3c8b4054	0.016998447
44	0x3dac8103	0.084230445
45	0xbbd9fda1	-0.0066525494
46	0x3ad56b7d	0.0016282644
47	0x3c61b643	0.013776365
48	0x3d5d6f4b	0.054061215
49	0x3bd83f81	0.006599367
50	0x3ccd6bfe	0.025075909
51	0x3c9c5b0b	0.019086381
52	0x3c800f8f	0.015632419
53	0x3ba48591	0.005020805
54	0xbc0c9b43	-0.008581939
55	0xbc059f30	-0.008155629
56	0xbb88f165	-0.004179167
57	0x3bcea0ed	0.006305805
58	0xba225eb9	-0.00061939243
59	0x3c940a03	0.01807118
60	0xb98adcce	-0.00026485923
61	0xbc8946f2	-0.016757462
62	0x3c283e6e	0.010268791
63	0x3c5b8a82	0.013399722

net.2.weight f4 [64, 64]
0	0xbdc46e32	-0.095913306
1	0x3d947678	0.072491586
2	0xbcdaee0e	-0.026724841
3	0xbe0289fb	-0.12747948
4	0xbcdadd49	-0.026716845
5	0xbde5accc	-0.11214599
6	0x3e1c8073	0.15283374
7	0x3e7b5a98	0.24546278
8	0x3e025993	0.12729482
9	0x3e5df59f	0.21675728
10	0x3c8f81b1	0.017517896
11	0x3d1d16c6	0.038351797
12	0xbb5ebd68	-0.0033987407
13	0x3cca2932	0.024677847
14	0x3ca894cc	0.020578764
15	0xbce719a5	-0.02821047
16	0x3da0617f	0.07831096
17	0xbd014639	-0.03156111
18	0xbd46203e	-0.048370592
19	0x3d621d3b	0.055203658
20	0x3d9096a5	0.07059983
21	0x3e01ac37	0.12663351
22	0xbdacda73	-0.084401034
23	0x3d14bb29	0.036311302
24	0x3dc7c7ae	0.09754883
25	0xbc65cb61	-0.01402554
26	0xbdb53530	-0.08848035
27	0x3cc8443a	0.024446595
28	0x3db42e02	0.08797838
29	0x3ddb2dad	0.10702071
30	0xbe19ae8a	-0.15007988
31	0xbd9ec1e4	-0.077518255
32	0x3eba26ce	0.3635773
33	0xbd8a794c	-0.06761417
34	0xbe349e53	-0.17638521
35	0x3d91931b	0.07108136
36	0x3d13669a	0.03598652
37	0x3dea168c	0.11430082
38	0x3cfbe790	0.030750066
39	0xbcf75262	-0.03019065
40	0xbd1938a2	-0.037407525
41	0x3c6a0845	0.014284198
42	0xbe0deee5	-0.13860662
43	0xbd6e19d5	-0.058130104
44	0x3e0adaa1	0.13559963
45	0x3c3f342c	0.011670154
46	0xbdd9c247	-0.106327586
47	0xbc8b102b	-0.016975483
48	0x3e1b812d	0.15185995
49	0x3d3594c8	0.044331342
50	0xbba29c1d	-0.004962458
51	0xbd3923f5	-0.045200307
52	0x3d659fd7	0.05606064
53	0x3d8b3750	0.067976594
54	0xbd48eb8e	-0.049052767
55	0x3c824150	0.015900284
56	0xbcad68b8	-0.021168098
57	0x3d196681	0.03745127
58	0x3d2881a5	0.041139264
59	0x3d11351c	0.03545104
60	0xbd22ef90	-0.039779246
61	0xbd9e6e1a	-0.07735844
62	0x3e0b6698	0.13613355
63	0xbd152e00	-0.036420822
64	0x3d2862aa	0.04110972
65	0x3e2b20d0	0.16711736
66	0x3e05eff8	0.13079822
67	0x3cf8e2c2	0.030381564
68	0xbd2a4d86	-0.04157784
69	0x3c680884	0.0141621865
70	0xbe174be6	-0.14775047
71	0xbbb97563	-0.0056597455
72	0xbdf636d3	-0.12022176
73	0x3d197b2b	0.037470978
74	0xbd553413	-0.052051615
75	0xbe0b4df2	-0.13603953
76	0xbe1bff23	-0.15234046
77	0xbe171692	-0.14754704
78	0xbe6e088e	-0.23245451
79	0xbdbfa8d8	-0.09358376
80	0xbdc47541	-0.09592677
81	0xbdeeb78b	-0.11656102
82	0x3d9603da	0.073249534
83	0xbdefd7e7	-0.11711102
84	0xbd81032e	-0.062994346
85	0xbcd49464	-0.025949664
86	0xbd954457	-0.072884254
87	0xbdf66183	-0.12030318
88	0x3e29c7ee	0.16580173
89	0x3d4ed203	0.05049325
90	0xbd800d51	-0.0625254
91	0x3d982747	0.074293666
92	0x3b6a503b	0.0035753387
93	0xbe0eccf1	-0.13945366
94	0xbd897b06	-0.06712918
95	0xbd176f5a	-0.036971428
96	0xbd74ba8a	-0.05974821
97	0x3e1e5486	0.1546193
98	0x3d13844c	0.03601484
99	0x3ce5c641	0.028048636
100	0x3ce35877	0.027752144
101	0xbd82a7aa	-0.06379636
102	0x3c922f81	0.017844917
103	0x3c999527	0.01874788
104	0xbd5c32c9	-0.05375937
105	0xbe428a4f	-0.18998073
106	0x3da94ec6	0.08266978
107	0xbe10eae2	-0.141521
108	0xbe26f087	-0.16302691
109	0x3e6d83c5	0.23194797
110	0xbe224eee	-0.15850422
111	0xbdb54d73	-0.08852663
112	0xbe1ef162	-0.15521768
113	0xbd536178	-0.051606625
114	0x3e0d532c	0.13801259
115	0xbdc75238	-0.09732479
116	0xbbf307b6	-0.0074166907
117	0x3dfbbc1f	0.122917406
118	0x3c7424ec	0.014901381
119	0x3dcbf2f9	0.09958453
120	0x3d19018d	0.037354995
121	0xbd9a24c8	-0.07526547
122	0x3d38cbaf	0.045116123
123	0xbd5d601a	-0.054046728
124	0x3dc90c8e	0.09816848
125	0x3e078b13	0.13236646
126	0x3c5c2b0b	0.013437997
127	0xbd24fcb3	-0.040280055
128	0xbdc07e66	-0.093991086
129	0x3bace2c0	0.005276054
130	0x3e139f27	0.1441618
131	0x3cf91ad6	0.030408304
132	0x3e07c95e	0.13260409
133	0xbcd3ead9	-0.02586882
134	0x3e1fea44	0.15616709
135	0x3e4715e6	0.19441947
136	0x3cee1607	0.029063238
137	0x3df2325b	0.11826011
138	0xbdd69cc8	-0.104791224
139	0x3ccebcdd	0.025236541
140	0xbdf8e91a	-0.121538356
141	0x3de9a400	0.11408234
142	0x3c0aca5d	0.008471099
143	0xbe1deadc	-0.15421623
144	0xbe3f7313	-0.18696241
145	0xbaba9c64	-0.0014237282
146	0x3bbf4290	0.0058367923
147	0x3e3480d0	0.17627263
148	0xbe618535	-0.2202347
149	0xbc025364	-0.007954452
150	0xbd3b66af	-0.045752224
151	0x3d8d1622	0.06888987
152	0xbdeeb456	-0.1165549
153	0xbd8bcb22	-0.06825854
154	0xbd9df234	-0.07712212
155	0xbd7e4740	-0.062079668
156	0x3d8e1f41	0.06939555
157	0xbe8be61e	-0.27324003
158	0x3e7759b0	0.24155307
159	0x3e137fb8	0.1440419
160	0xbe0a36b0	-0.13497424
161	0xbdcc15f5	-0.099651255
162	0xbd42ace0	-0.047528148
163	0xbdaeb3f5	-0.08530418
164	0x3e19ff12	0.15038708
165	0xbe60d34b	-0.21955602
166	0x3d7eb29c	0.062182054
167	0x3c915e4f	0.017745165
168	0x3d29bc14	0.04143913
169	0x3e1ce813	0.15322904
170	0xbe79086b	-0.24319617
171	0xbe2361ff	-0.15955351
172	0x3d2f2dff	0.042768475
173	0x3c060d38	0.0081818625
174	0x3e28655a	0.16444913
175	0x3ca5d10c	0.020241283
176	0x3df258f7	0.11833375
177	0x3d6661ed	0.056245733
178	0x3db3f0c2	0.08786155
179	0xbc4d4d67	-0.012530661
180	0xbdee5d8c	-0.116389364
181	0x3cb05fea	0.02153011
182	0x3df5cab8	0.12001556
183	0xbe0fa617	-0.14028202
184	0xbe0c4afe	-0.13700482
185	0x3d0c9612	0.034322806
186	0x3e2f8d84	0.17143828
187	0xbe892d39	-0.26792315
188	0xbd945102	-0.072420135
189	0x3cb7eb52	0.022451077
190	0xbd68fb86	-0.056880496
191	0xbd33a600	-0.04385948
192	0xbd4c4d9e	-0.04987871
193	0x3d526b1d	0.051371682
194	0xbdb73551	-0.08945716
195	0xbde031dd	-0.10947011
196	0x3e506689	0.20351614
197	0x3c974e6b	0.01847001
198	0xbd470db2	-0.048597045
199	0x3de455de	0.1114919
200	0x3e1b054a	0.15138736
201	0xbd79c2a8	-0.060976654
202	0xbd90f295	-0.07077519
203	0x3d2769ce	0.040872388
204	0x3dbf8da9	0.093531914
205	0x3b5622d1	0.003267456
206	0xbd3d6acc	-0.046244428
207	0x3c8f2725	0.01747472
208	0x3d4bb88b	0.04973654
209	0xbc6a827b	-0.0143133355
210	0x3d96472c	0.07337794
211	0xbd90cb9a	-0.07070084
212	0x3c6f655b	0.014611567
213	0xbe7faab2	-0.24967459
214	0xbde29c50	-0.110649705
215	0xbd63538c	-0.0554996
216	0xba83bbd4	-0.0010050484
217	0x3cba1720	0.022716105
218	0x3e10e9f0	0.1415174
219	0x3e5a75d2	0.21334007
220	0x3d650af8	0.055918664
221	0x3cb93b5d	0.022611314
222	0xbcfd71b8	-0.030938014
223	0x3b828b86	0.0039839176
224	0xbe06dab3	-0.13169365
225	0xbc5698bb	-0.013097937
226	0xbbe0fa3b	-0.0068657673
227	0xbe31672e	-0.17324516
228	0x3db0b967	0.08629113
229	0x3dac43fd	0.08411405
230	0x3e61b3c9	0.22041239
231	0x3cb94add	0.022618705
232	0x3d81b09b	0.06332513
233	0xbd9df481	-0.07712651
234	0x3d21fa6d	0.039545465
235	0x3d42e127	0.047578003
236	0x3dd320b8	0.10308975
237	0xbe69ae85	-0.2282048
238	0x3d853732	0.06504668
239	0xbe144eeb	-0.1448323
240	0xbc92be25	-0.017912934
241	0xbd249ee1	-0.04019058
242	0xbc75025e	-0.014954178
243	0x3e1b57c5	0.151702
244	0xbd90877b	-0.07057091
245	0xbd4df6ee	-0.05028432
246	0x3d473b15	0.04864033
247	0xbe2e6903	-0.17032246
248	0xbce1fd43	-0.027586585
249	0xbe34cf8f	-0.17657302
250	0x3e00d904	0.12582785
251	0x3cddcfac	0.027076565
252	0x3e3c3f9d	0.18383642
253	0xbcafd83f	-0.021465419
254	0xbdf23c8a	-0.11827953
255	0x3d55a255	0.052156765

net.2.bias f4 [64]
0	0xbc9d332b	-0.019189438
1	0x3d2688b5	0.040657718
2	0x3bd4b53f	0.006491333
3	0xbb908fd9	-0.004411679
4	0x3c3fe22c	0.011711638
5	0x3b2116b0	0.0024580173
6	0xba008f80	-0.00049041957
7	0xbc5a23fa	-0.013314242
8	0xbbe0382f	-0.006842635
9	0x3b504986	0.0031782105
10	0x3a7197e3	0.00092160533
11	0x3b96b580	0.004599273
12	0xbcc100a5	-0.023559878
13	0xbc1ac1d4	-0.009445626
14	0x3ca0707a	0.019584883
15	0xba65c0dc	-0.0008764395
16	0x3cfa0cf1	0.030523749
17	0xbc58dfe6	-0.013236975
18	0x3bbac147	0.00569931
19	0xbc58cc50	-0.013232306
20	0xbbc724fa	-0.006077406
21	0xbc9a3aba	-0.018826831
22	0xbc1fb2ce	-0.00974722
23	0xbc148478	-0.009064786
24	0xbcb96814	-0.022632636
25	0xbcfcfcba	-0.030882228
26	0xbb5639aa	-0.003268818
27	0x39332b13	0.00017086817
28	0x3cdc7130	0.02690944
29	0xbc6cba58	-0.014448725
30	0x3ca702d8	0.020387098
31	0xbc1d0032	-0.009582566
32	0x3cc995eb	0.02460762
33	0x3b952160	0.0045510978
34	0xbbbc937d	-0.0057548867
35	0x3c1c206d	0.009529215
36	0x3cade634	0.021227933
37	0xbcd4ffd0	-0.026000887
38	0xbc3a9223	-0.011387381
39	0x3af20485	0.0018464482
40	0x3b684989	0.003544422
41	0xbc8387b3	-0.016055917
42	0x3c35cc03	0.011096003
43	0xbbaf7d1e	-0.0053554913
44	0x3d18f19d	0.037339795
45	0xb92b9103	-0.00016361852
46	0x3c5d6772	0.013513433
47	0xbc35bb64	-0.011092041
48	0x3c361377	0.011113039
49	0x3b523501	0.003207505
50	0x3c212a2d	0.009836716
51	0x3c9a8385	0.018861542
52	0x3c9fe30a	0.01951744
53	0xb7b1c6d4	-2.119263e-05
54	0xbcba73db	-0.022760322
55	0x3c837814	0.016048469
56	0x3c353783	0.011060598
57	0x3c37b679	0.011212938
58	0x3c30b96e	0.010786397
59	0x3b4d6ef7	0.0031346658
60	0xbb2ac373	-0.0026056438
61	0xbc394d94	-0.01131
62	0x3b6da6bb	0.003626271
63	0x3ce8ec8b	0.028433105

net.4.weight f4 [3, 64]
0	0xbe03118d	-0.12799664
1	0x3d817540	0.06321192
2	0x3e42a4f3	0.19008236
3	0xbe2b9b27	-0.16758405
4	0x3dc968dd	0.09834454
5	0xb9f0f5aa	-0.000459594
6	0xbe3016e2	-0.17196229
7	0x3dccfd2c	0.10009226
8	0x3d6f8abb	0.058481913
9	0x3e78ed08	0.2430917
10	0xbdb1ed00	-0.08687782
11	0x3e58c006	0.21167001
12	0xbd81a541	-0.06330348
13	0xbe569126	-0.20953807
14	0x3e854f58	0.26037097
15	0x3cd1c33b	0.025605788
16	0x3d9d33b1	0.07675875
17	0xbe51bdab	-0.20482509
18	0x3da9e0c2	0.08294822
19	0xbe828c57	-0.25497696
20	0xbd064e9e	-0.03278982
21	0xbd8eeb37	-0.069784574
22	0x3dc61738	0.096723974
23	0xbd47dc00	-0.048793793
24	0xbdf08942	-0.1174493
25	0xbe095696	-0.13411936
26	0x3c851b2a	0.016248304
27	0x3e58fa7a	0.21189299
28	0x3d47fb62	0.04882372
29	0xbe2b86b4	-0.16750604
30	0x3d2255af	0.039632495
31	0xbe1ee8cd	-0.15518494
32	0x3e774ce9	0.24150433
33	0x3e4d413e	0.20044419
34	0x3e1eebdf	0.15519665
35	0x3e94c120	0.29053593
36	0x3df3598a	0.118823126
37	0xbe3b3055	-0.18280156
38	0xbe9a2ae8	-0.3011086
39	0xbc497e0c	-0.012298118
40	0xbe500be9	-0.20317043
41	0xbe1c8eab	-0.15288799
42	0xbe39bb4c	-0.18137854
43	0x3e0abedb	0.13549368
44	0xbdbd4d31	-0.09243239
45	0x3df1ed0f	0.118127935
46	0xbe1472cb	-0.14496915
47	0x3d267024	0.04063429
48	0x3e129532	0.14314726
49	0xbe6a9eb1	-0.22912098
50	0xbcfe698d	-0.03105619
51	0xbe46e179	-0.19421948
52	0x3d888fde	0.066680655
53	0x3c89dded	0.016829455
54	0xbde9138b	-0.11380681
55	0x3e3d8ace	0.18509981
56	0x3e6d347d	0.23164554
57	0x3d2a9444	0.041645303
58	0x3e445188	0.19171727
59	0xbd00e820	-0.03147137
60	0xbd9d3221	-0.07675577
61	0x3ddbe89a	0.107377246
62	0xbd00b7e4	-0.03142537
63	0x3d9bb85b	0.076035224
64	0x3dddf561	0.10837818
65	0xbda89900	-0.082323074
66	0xbd4641b7	-0.048402514
67	0xbe2e8d07	-0.17045985
68	0xbe2ccb28	-0.16874373
69	0xbdc10eb8	-0.094266355
70	0xbd8f5c3c	-0.07000014
71	0x3db7bc38	0.08971447
72	0xbe28243d	-0.16420074
73	0x3e528b2b	0.20560901
74	0xbbabb872	-0.0052404935
75	0x3b2c6e2c	0.0026310785
76	0x3d6ef124	0.05833544
77	0xbe3335a2	-0.17500928
78	0x3dfe7d5a	0.12426253
79	0x3e8812ce	0.26576847
80	0xbd85e50c	-0.06537828
81	0x3caae82b	0.02086266
82	0x3dcf4dcf	0.10122263
83	0xbd005f92	-0.031341143
84	0x3dcf34db	0.10117503
85	0x3e055fc9	0.1302482
86	0x3dfd1460	0.12357402
87	0xbdbc0a51	-0.09181655
88	0xbb753edc	-0.00374215
89	0x3d7f5353	0.062335324
90	0xbd6e1947	-0.058129575
91	0x3d085449	0.033283506
92	0xbd8e12ca	-0.069371775
93	0x3de58dc0	0.11208677
94	0xbd59e7b6	-0.053199492
95	0x3d3d1ef6	0.046172105
96	0xbdd1b58c	-0.102397054
97	0xbc95197f	-0.018200634
98	0xbcc1713e	-0.023613568
99	0x3d987921	0.074449785
100	0xbe7ba279	-0.24573697
101	0x3e062550	0.13100171
102	0x3d321474	0.043476537
103	0xbdd37547	-0.10325103
104	0x3dde57d4	0.10856596
105	0x3e04a158	0.12952173
106	0xbb0e3c81	-0.0021703544
107	0x3db7bc6f	0.08971488
108	0x3cf3a180	0.029740095
109	0xbdf35a4f	-0.11882459
110	0x3e6612c2	0.22468093
111	0xbda3b872	-0.079941645
112	0xbe25947f	-0.16169928
113	0xbd8508fb	-0.064958535
114	0xbd98c045	-0.074585475
115	0xbc947197	-0.01812057
116	0xbdb62c89	-0.08895213
117	0x3e399568	0.181234
118	0x3e2c9e1e	0.16857192
119	0xbcfa971a	-0.030589629
120	0x3d743630	0.05962199
121	0xbe0aa124	-0.13538033
122	0x3d84d179	0.06485266
123	0xbd7df0b8	-0.061997145
124	0xbe7408ae	-0.23831436
125	0xbd23b195	-0.039964277
126	0xbe2b3cac	-0.16722363
127	0xbd596573	-0.053075265
128	0x3d2f8618	0.04285249
129	0x3d9d42f8	0.07678789
130	0x3e8e0925	0.27741352
131	0xbe7a7326	-0.24457988
132	0x3cb5190b	0.022106668
133	0xbe37e79a	-0.17959443
134	0x3d4c83de	0.049930446
135	0x3d4a5a90	0.049402773
136	0x3e0a87d4	0.13528377
137	0xbdfcc735	-0.12342683
138	0xbdcd5377	-0.10025685
139	0x3dd842c8	0.105596125
140	0x3d4130ce	0.047165684
141	0x3d9934bb	0.07480761
142	0x3df24bdd	0.11830876
143	0x3de452b9	0.111485906
144	0xbd3f484a	-0.0466998
145	0x3cb0b5de	0.021571096
146	0xbe20c14b	-0.15698735
147	0xbd273a5b	-0.040827136
148	0xbd8f032e	-0.06983028
149	0x3d257dd0	0.040403187
150	0x3bd80bca	0.0065932022
151	0x3d2130a5	0.03935303
152	0x3e7a5117	0.24444996
153	0x3e2894b2	0.16462973
154	0x3e7144e7	0.2356144
155	0x3d73c9a2	0.059518464
156	0xbe62a883	-0.22134595
157	0xbe051589	-0.12996496
158	0xbe41e602	-0.18935397
159	0xbe7ed1ce	-0.24884722
160	0x3dd25c35	0.10271493
161	0xbdd4484f	-0.10365354
162	0x3e6a9f59	0.22912349
163	0x3e373ccd	0.17894287
164	0x3cbbfb0d	0.022946859
165	0xbc41c77c	-0.011827346
166	0xbda81b80	-0.0820837
167	0x3e10e4d2	0.14149788
168	0xbd1bd26f	-0.038042482
169	0xbdf08967	-0.117449574
170	0xbdf50ca5	-0.119653024
171	0x3d081df1	0.03323168
172	0xbd34ddb9	-0.044156764
173	0x3e822d9e	0.25425428
174	0x3e5c57d4	0.21517879
175	0x3e8e34b3	0.2777458
176	0xbd3ba1bc	-0.04580854
177	0x3dbf5a17	0.09343355
178	0x3d45dca7	0.048306134
179	0xbe4d9a3f	-0.20078371
180	0x3dfdbdb7	0.12389701
181	0x3c8f4e29	0.017493324
182	0x3d26e7b4	0.040748313
183	0x3d63a7dd	0.05558001
184	0x3da6dd7f	0.08147716
185	0x3d4729a7	0.048623707
186	0xbb642961	-0.0034814703
187	0xbde6f275	-0.11276714
188	0xbcc08e45	-0.02350534
189	0x3ddbc9cf	0.10731851
190	0x3e888847	0.2666647
191	0xbd8b97ce	-0.06816064

net.4.bias f4 [3]
0	0x3c51c94f	0.012804343
1	0xbd0a3002	-0.03373719
2	0x3cb7975c	0.022411041
