Results/anode_sine_500-3-reg-0.5.pth (torch, 21857 bytes, 6 tensors)

net.0.weight f4 [64, 3]
0.13648841 -0.09612448 -0.07538168 0.0074588973 0.03518705 0.03296185 0.10669525 -0.031166859
0.081021905 -0.15145004 0.111435555 0.07861125 0.04841521 0.085039906 -0.09294295 0.027435195
-0.12012068 0.0447349 0.06336734 0.16361599 0.1425351 -0.032435257 -0.16265039 -0.012305017
0.033245564 0.10476384 -0.049235396 0.1450492 0.07428873 -0.030793594 0.13642104 -0.13775136
-0.11381092 -0.21854626 -0.09030756 -0.075333565 0.095410004 0.020917669 0.11634922 -0.076628685
-0.116319835 0.022598175 -0.010179755 0.18207681 0.033534955 0.04618596 -0.21975307 -0.100195445
-0.00680841 -0.08046293 0.057608742 0.107589655 -0.20894788 -0.11235773 -0.110512 0.019073471
0.07011572 -0.009835348 -0.076916814 -0.12619433 0.19589406 0.09715289 -0.027543532 0.19228445
0.08945059 0.040899538 0.08394765 0.08328487 -0.19116254 0.1424476 -0.0034492305 0.097432226
-0.029615784 0.26740503 0.13878235 -0.12836091 -0.0456356 -0.27615073 -0.042156667 -0.037828192
-0.23949727 -0.088418916 0.08712349 0.14633796 0.17713597 -0.025454238 -0.13267383 -0.030111197
0.19882083 0.04850031 0.03546916 0.10716719 0.08622978 0.07114877 0.067175664 0.102223426
-0.1193993 0.029398097 -0.015945425 -0.059336882 0.15156792 0.12995076 0.080709994 -0.020064121
0.041636992 -0.14770074 -0.055048835 0.018727526 0.025013821 -0.2332632 -0.008553864 -0.12348925
-0.16524048 -0.10900421 0.12989101 0.0832569 -0.13233519 0.09119309 -0.08801344 0.012512876
-0.12272725 -0.01741551 0.06715944 0.17051509 0.12351745 0.05040259 0.13354172 0.109549195
-0.06914858 0.09066597 0.015383826 -0.19787924 0.059188485 -0.10062608 0.07632676 -0.038101494
-0.11100215 -0.08049144 -0.16662794 0.0015978769 0.107295305 -0.089542285 0.12298732 0.07432548
-0.1676283 0.069568805 -0.12763776 0.24415763 -0.052214928 0.025200615 -0.08991328 0.005140546
0.05267635 0.055333994 -0.050042458 -0.0021672917 -0.21029148 0.0052607274 -0.04440984 0.12168815
0.067207165 0.16389425 0.07427146 -0.029245345 0.17700621 -0.08204775 -0.11537396 -0.13594043
-0.12068607 -0.09833217 -0.12995118 -0.00078966276 -0.053210102 -0.064839385 0.0056160185 0.21462338
-0.14597173 -0.15271837 -0.02583702 -0.046912022 0.083759174 -0.013754944 0.11152856 -0.024736082
-0.05733681 -0.22371961 0.06540613 0.12750879 0.063869685 0.091209605 0.10773373 -0.09035655
00000000: 9ec3 0b3e e9dc c4bd b661 9abd c469 f43b
00000010: 4c20 103d 0103 073d 0a83 da3d a451 ffbc
00000020: d0ee a53d b815 1bbe 5338 e43d effe a03d
00000030: 074f 463d 6729 ae3d e058 bebd c6bf e03c
00000040: d501 f6bd f13b 373d bcc6 813d f38a 273e
00000050: b9f4 113e d5da 04bd d38d 26be fb9a 49bc
00000060: 802c 083d 6d8e d63d 0eab 49bd c787 143e
00000070: b124 983d d942 fcbc f5b1 0b3e b10e 0dbe
00000080: b315 e9bd 97ca 5fbe 2cf3 b8bd 7c48 9abd
00000090: 5266 c33d 885b ab3c 8048 ee3d 80ef 9cbd
000000a0: 1839 eebd cf1f b93c fdc8 26bc 5872 3a3e
000000b0: f35b 093d 7d2d 3d3d f306 61be 4533 cdbd
000000c0: 1519 dfbb c0c9 a4bd 25f7 6b3d f757 dc3d
000000d0: 6ff6 55be cf1b e6bd 1e54 e2bd f83f 9c3c
000000e0: d598 8f3d 7124 21bc 9086 9dbd 1639 01be
000000f0: 7498 483e 18f8 c63d f9a2 e1bc 37e6 443e
00000100: df31 b73d 4686 273d bfec ab3d 4291 aa3d
00000110: 1dc0 43be c9dd 113e 7c0c 62bb 8c8a c73d
00000120: cd9c f2bc 50e9 883e f61c 0e3e 0b71 03be
00000130: 65ec 3abd a163 8dbe 78ac 2cbd bcf1 1abd
00000140: c63e 75be fa14 b5bd cd6d b23d 9ed9 153e
00000150: 2263 353e 6885 d0bc a6db 07be c2ab f6bc
00000160: b097 4b3e 43a8 463d 1c48 113d 797a db3d
00000170: 3d99 b03d 72b6 913d 6593 893d 845a d13d
00000180: 9f87 f4bd 47d4 f03c fb9f 82bc 3b0b 73bd
00000190: 9f34 1b3e d011 053e 484b a53d 835d a4bc
000001a0: 8d8b 2a3d dd3e 17be e37a 61bd 786a 993c
000001b0: c9e9 cc3c 8cdc 6ebe 8225 0cbc efe7 fcbd
000001c0: cd34 29be 993d dfbd 2602 053e 9882 aa3d
000001d0: e082 07be 71c3 ba3d 6440 b4bd ce02 4d3c
000001e0: 6d58 fbbd f9aa 8ebc e38a 893d 829b 2e3e
000001f0: b8f6 fc3d f272 4e3d 29bf 083e 545b e03d
00000200: c59d 8dbd 15af b93d 710c 7c3c dba0 4abe
00000210: a06f 723d 0c15 cebd 3451 9c3d 5010 1cbd
00000220: 1855 e3bd b2d8 a4bd 84a0 2abe da6f d13a
00000230: a4bd db3d f261 b7bd c7e0 fb3d f537 983d
00000240: c1a6 2bbe 177a 8e3d 79b3 02be 7504 7a3e
00000250: 52df 55bd 8571 ce3c 7424 b8bd 0672 a83b
00000260: 28c3 573d e6a5 623d 52f9 4cbd 1f09 0ebb
00000270: a656 57be 2e62 ac3b 18e7 35bd a337 f93d
00000280: e9a3 893d e5d3 273e a31b 983d ef93 efbc
00000290: 1e41 353e a708 a8bd 2f49 ecbd f833 0bbe
000002a0: 422a f7bd 6062 c9bd ec11 05be 5f01 4fba
000002b0: d6f2 59bd 83ca 84bd 9406 b83b 3bc6 5b3e
000002c0: 9d79 15be 3462 1cbe 28a8 d3bc d226 40bd
000002d0: ee89 ab3d 6b5c 61bc 1669 e43d 53a3 cabc
000002e0: 01da 6abd c116 65be a6f3 853d aa91 023e
000002f0: 1cce 823d 1acc ba3d 80a3 dc3d db0c b9bd

net.0.bias f4 [64]
-0.026839357 -0.00620349 0.011457839 0.023501001 -0.0025771435 0.054858927 0.016182989 0.008196303
-0.018057784 -0.009788584 -0.05577319 0.021151587 0.008328013 0.028332962 -0.013054332 -0.016715277
0.012110617 -0.0035755248 0.025886055 0.010654093 -0.014183105 -0.015973987 -0.0009131977 0.040225156
-0.006141438 -0.05711438 -0.010658305 -0.0006745212 -0.06733838 -0.011697326 0.009709864 0.0014064119
0.000862393 -0.0062107723 0.025261963 0.019813724 0.04589858 0.017189967 0.013561164 -0.0077802665
0.015482534 -0.010369193 -0.0067259897 0.011165768 0.0031433168 0.013883929 0.053958412 0.014836086
0.08222684 0.018403327 0.021153456 0.002928721 0.091806605 0.0052043423 -0.027024463 0.0059639714
0.009115447 0.02776744 -0.025164604 0.049547233 0.018227017 0.011081833 -0.01997797 -0.007939674
00000000: 36de dbbc a546 cbbb a9b9 3b3c 2c85 c03c
00000010: 4be5 28bb c1b3 603d 3092 843c c949 063c
00000020: ebed 93bc 4c60 20bc 6e72 64bd 1846 ad3c
00000030: 3872 083c 871a e83c d6e1 55bc 7aee 88bc
00000040: 9c6b 463c 5a53 6abb fe0e d43c 818e 2e3c
00000050: 4160 68bc e1db 82bc a963 6fba 22c3 243d
00000060: 1e3e c9bb c5f0 69bd 2ca0 2ebc 5ad2 30ba
00000070: b4e8 89bd 24a6 3fbc 1f16 1f3c 5a57 b83a
00000080: 3712 623a bc83 cbbb 2df2 ce3c 6450 a23c
00000090: 2600 3c3d f9d1 8c3c a52f 5e3c 9bf1 febb
000000a0: 74aa 7d3c 8ce3 29bc b165 dcbb a0f0 363c
000000b0: 1b00 4e3b 6b79 633c 7f03 5d3d 0e13 733c
000000c0: 8c66 a83d 93c2 963c 034a ad3c c9ef 3f3b
000000d0: 1a05 bc3d 3089 aa3b 6862 ddbc 6b6d c33b
000000e0: f558 153c 8b78 e33c 0026 cebc 0af2 4a3d
000000f0: d350 953c 9490 353c d7a8 a3bc 6815 02bc

net.2.weight f4 [64, 64]
-0.019519968 -0.07361241 -0.03385888 0.031456437 -0.073028274 -0.027787767 -0.21403806 -0.020578777
-0.08031585 -0.04044246 -0.063791595 -0.0949904 0.0050370917 0.029018788 -0.06860514 0.056792673
0.06652187 -0.09054163 0.061844297 -0.03169512 -0.10384959 -0.0024348726 0.0043653464 -0.056517594
0.00901623 -0.08465657 0.045017846 0.1225873 -0.05081774 0.07255674 -0.012501815 0.07670574
0.038493443 0.17240313 -0.11928692 0.14317255 0.08836388 -0.055724163 -0.13023828 -0.16554861
0.10813193 0.14069049 0.025720242 0.18201782 -0.14222376 -0.08283536 0.16019225 -0.042529244
0.16842155 -0.11601988 -0.16338871 -0.03783741 -0.078074254 -0.11762516 -0.016022606 0.085778914
-0.03138182 0.063786164 0.018388141 0.023205018 -0.24326827 0.034120437 0.03339127 -0.0033692159
-0.10252097 0.055093743 0.004466218 -0.032221086 0.028201148 0.025851551 0.17177097 -0.020399783
0.18980041 0.022321617 0.116718024 -0.12366019 0.2554092 -0.12781331 0.13727587 -0.11805907
-0.1524552 -0.028289739 -0.033371903 0.10307689 0.041646253 0.13417204 -0.074292615 -0.034924377
0.009943348 -0.07395096 -0.018525178 -0.015846463 -0.18358372 0.041858707 0.102540195 -0.01580651
0.07434133 0.03276438 -0.00308249 -0.06961466 0.111084335 0.022764476 0.0042222105 -0.11521131
-0.018974386 0.104803026 0.15647031 -0.15935835 0.0023532088 -0.10910897 -0.118963756 0.0154939955
0.05565084 0.1602639 0.02532759 0.07787721 0.0061388584 0.13278452 -0.05968128 -0.18172939
0.06633565 -0.29857746 -0.14568506 -0.18526477 -0.060252182 -0.09735899 0.1521858 0.123257905
-0.04180236 -0.02236096 -0.004453498 -0.054853063 -0.05927959 0.11711367 -0.13793847 0.07524946
-0.042067938 0.014856662 0.02535075 -0.17225248 -0.00015443622 0.02316853 0.07964814 0.0060224715
-0.20726474 0.004427518 0.008190141 0.0023859525 -0.062367536 -0.012058619 0.010819697 0.22903277
-0.044304747 0.0549032 -0.09067152 -0.11115465 0.07763267 -0.023864673 0.047075603 -0.019660676
-0.14687492 -0.0471413 -0.1895578 0.061766956 0.078065924 0.14337388 -0.22941741 -0.13017707
0.0025271773 -0.1440445 -0.056265768 -0.1381587 0.12692502 0.07297392 -0.012166514 0.049587145
-0.021677464 0.14176275 -0.18556328 0.13360189 -0.20883538 -0.05693248 -0.013520965 0.0130119575
0.07757686 0.03966387 -0.12227632 -0.12018419 0.085527144 0.13254923 -0.052113526 0.0036960484
0.035913754 -0.11031343 0.15211262 0.057908665 -0.18455674 0.2100471 -0.06479986 0.1776436
-0.00020996302 -0.121723205 -0.07339602 0.18533061 -0.03344308 0.17490226 0.0068155187 -0.20594351
0.14757924 0.09638333 0.00041536035 0.09525812 -0.07723797 -0.17341143 -0.0641145 0.115540326
0.16279508 0.02057546 -0.10130206 0.019139254 0.013228338 0.043502722 -0.039080836 -0.11120808
-0.04036726 0.031416878 0.028968994 -0.08924431 0.036010396 -0.060271535 0.0013832478 0.09330172
-0.03443278 -0.024116287 -0.21000904 -0.03952511 -0.0116425 -0.06675402 -0.087861896 0.085715115
0.08223142 0.023859292 -0.024692511 -0.10630694 0.04487183 -0.30437878 0.0068738395 0.07631115
0.014088881 -0.09604476 0.13878171 -0.069368094 -0.12634736 0.060034283 -0.068923436 -0.018495532
00000000: 57e8 9fbc 1ac2 96bd 9caf 0abd 77d8 003d
00000010: d98f 95bd 2ca3 e3bc cb2c 5bbe d394 a8bc
00000020: a37c a4bd fea6 25bd 2ba5 82bd 548a c2bd
00000030: 300e a53b cfb8 ed3c da80 8cbd 6f9f 683d
00000040: 9e3c 883d e46d b9bd 7250 7d3d bed2 01bd
00000050: 18af d4bd 6292 1fbb 2e0b 8f3b fe7e 67bd
00000060: cfb8 133c 6c60 adbd a264 383d 0d0f fb3d
00000070: 4326 50bd a198 943d 6ad4 4cbc e617 9d3d
00000080: 4dab 1d3d 728a 303e b34c f4bd d39b 123e
00000090: 1ff8 b43d 053f 64bd 2f5d 05be 9385 29be
000000a0: 4674 dd3d 2b11 103e 42b3 d23c e162 3a3e
000000b0: 1ba3 11be 96a5 a9bd 7009 243e 2533 2ebd
000000c0: b376 2c3e d59b edbd 5f4f 27be 66fb 1abd
000000d0: 65e5 9fbd 76e5 f0bd d741 83bc dbac af3d
000000e0: 398a 00bd 52a2 823d baa2 963c 7318 be3c
000000f0: 511b 79be dfc1 0b3d 49c5 083d 10ce 5cbb
00000100: 84f6 d1bd faa9 613d 5a59 923b 42fa 03bd
00000110: 1806 e73c a2c6 d33c bbe4 2f3e 721d a7bc
00000120: 0a5b 423e d3db b63c dc09 ef3d 8e41 fdbd
00000130: ffc4 823e 7ee1 02be 0c92 0c3e f4c8 f1bd
00000140: 371d 1cbe e2bf e7bc fab0 08bd fa19 d33d
00000150: 4395 2a3d 6564 093e ba26 98bd dd0c 0fbd
00000160: 6de9 223c 9a73 97bd 1dc2 97bc 71d0 81bc
00000170: 5ffd 3bbe 0974 2b3d 9800 d23d a77c 81bc
00000180: 4440 983d f133 063d 9a03 4abb 2292 8ebd
00000190: 2f80 e33d 917c ba3c 785a 8a3b e8f3 ebbd
000001a0: 2c70 9bbc f8a2 d63d c139 203e d62e 23be
000001b0: 4b38 1a3b 8674 dfbd 45a3 f3bd 87da 7d3c
000001c0: 23f2 633d 381c 243e ce7b cf3c 167e 9f3d
000001d0: 7a28 c93b aaf8 073e 5c74 74bd 4517 3abe
000001e0: fcda 873d 25df 98be 772e 15be 0cb6 3dbe
000001f0: feca 76bd 2664 c7bd 98d6 1b3e a46e fc3d
00000200: f438 2bbd 552e b7bc a6ee 91bb 9bad 60bd
00000210: 28cf 72bd 4bd9 ef3d be3f 0dbe 641c 9a3d
00000220: 6e4f 2cbd 5b69 733c 60ac cf3c f462 30be
00000230: 28f0 21b9 eecb bd3c 901e a33d 2758 c53b
00000240: 353d 54be b714 913b f12f 063c a45d 1c3b
00000250: 1a75 7fbd 8491 45bc 1945 313c 9187 6a3e
00000260: e578 35bd 2ee2 603d fdb1 b9bd 0da5 e3bd
00000270: e1fd 9e3d d97f c3bc 59d2 403d 6d0f a1bc
00000280: 6166 16be 3c17 41bd 711b 42be 59ff 7c3d
00000290: 07e1 9f3d 9ad0 123e 66ec 6abe 234d 05be
000002a0: 009f 253b 6780 13be ef76 66bd 7979 0dbe
000002b0: a2f8 013e 5a73 953d 0f56 47bc e41b 4b3d
000002c0: f094 b1bc 412a 113e 4d04 3ebe efce 083e
000002d0: f1d8 55be 0832 69bd 0a87 5dbc 1b30 553c
000002e0: 9ee0 9e3d 9576 223d 026c fabd 2123 f6bd
000002f0: db28 af3d fcba 073e fe74 55bd 6739 723b
00000300: 4d1a 133d 02ec e1bd 69c3 1b3e a331 6d3d
00000310: 71fc 3cbe 9616 573e cab5 84bd 34e8 353e
00000320: 8529 5cb9 044a f9bd a750 96bd 4fc7 3d3e
00000330: 9cfb 08bd 9419 333e b754 df3b dbe2 52be
00000340: 031f 173e a064 c53d b9c4 d939 b016 c33d
00000350: f12e 9ebd c492 31be 774e 83bd 68a0 ec3d
00000360: c1b3 263e de8d a83c 7477 cfbd edc9 9c3c
00000370: acbb 583c e92f 323d 3a13 20bd 10c1 e3bd
00000380: 2458 25bd fcae 003d 6250 ed3c b9c5 b6bd
00000390: a37f 133d 49df 76bd 184e b53a f914 bf3d
000003a0: 6309 0dbd 858f c5bc 9c0c 57be 15e5 21bd
000003b0: 2fc0 3ebc 55b6 88bd f0f0 b3bd 688b af3d
000003c0: f268 a83d 9074 c33c f347 cabc 74b7 d9bd
000003d0: 86cb 373d 89d7 9bbe f23d e13b 0549 9c3d
000003e0: 0dd5 663c 1db3 c4bd cb1c 0e3e dc10 8ebd
000003f0: 3461 01be 82e6 753d bb27 8dbd f183 97bc

net.2.bias f4 [64]
0.0041251816 0.0048716883 0.03538554 -0.011123164 -0.004737713 -0.0054550623 0.013651147 -0.02918419
-0.019719744 0.0063202884 0.0028885843 0.003540584 0.0059091807 0.0056041307 0.0083988095 -0.019920675
0.016728321 -0.019592652 0.004103667 0.009680533 -0.013865581 -0.012057337 0.010545026 0.0076181595
0.04171325 0.021008374 0.010773948 0.013998567 0.002857849 0.014805032 -0.022924313 -0.0055404585
0.02035433 0.024209742 -0.0343803 0.0037808781 0.014673424 -0.012476528 -0.020106625 -0.0056297393
0.053114034 -0.01317466 0.011858819 0.049071543 0.0012861193 0.009071448 0.02170824 -0.024095275
-0.007866926 0.0076053217 0.018394265 -0.0030522575 0.0103238 0.010973736 -0.0038919523 -0.01651448
0.004050554 0.002121307 0.023679264 0.01935583 0.010160176 0.02220482 -0.014609643 0.02523481
00000000: 882c 873b afa2 9f3b 6ef0 103d ee3d 36bc
00000010: d13e 9bbb 61c0 b2bb 0fa9 5f3c af13 efbc
00000020: 4d8b a1bc 6c1a cf3b 674e 3d3b 2409 683b
00000030: cda1 c13b dba2 b73b 299b 093c af30 a3bc
00000040: d509 893c c580 a0bc 0e78 863b 199b 1e3c
00000050: 762c 63bc 238c 45bc 0bc5 2c3c c1a1 f93b
00000060: 83db 2a3d c119 ac3c 3785 303c 3f5a 653c
00000070: c04a 3b3b ce90 723c c5cb bbbc bc8c b5bb
00000080: 20be a63c 8253 c63c 5cd2 0cbd 9cc8 773b
00000090: cd68 703c 5a6a 4cbc a6b6 a4bc ad79 b8bb
000000a0: 1a8e 593d 87da 57bc 7e4b 423c 3eff 483d
000000b0: 0193 a83a 69a0 143c 7bd5 b13c 7463 c5bc
000000c0: 47e4 00bc 1036 f93b 92af 963c 6208 48bb
000000d0: 2825 293c 2fcb 333c 2010 7fbb 6049 87bc
000000e0: 82ba 843b a005 0b3b 04fb c13c 1e90 9e3c
000000f0: de76 263c e2e6 b53c 495d 6fbc 3bb9 ce3c

net.4.weight f4 [3, 64]
0.054041535 0.18259145 -0.19176589 -0.10003274 0.03455127 -0.063213855 0.035199746 0.11742362
-0.037984 0.079625465 0.1383815 -0.21016803 -0.04773848 0.080068804 0.07800488 -0.13777943
-0.0155625325 0.057203155 -0.033239 0.013402847 0.1031093 -0.034315776 0.045421887 0.2669624
-0.107565686 -0.08273933 -0.016093524 -0.23638022 -0.09356733 -0.0019825173 0.1968483 -0.025609225
-0.020642139 0.008259993 0.09481716 -0.22164495 -0.16118337 0.046494845 0.08868111 0.12608984
0.042626526 -0.107892275 0.11714723 -0.058464058 -0.19341631 -0.0043005208 -0.12447054 0.14401843
0.15662722 -0.15728235 -0.046901934 0.1363592 0.0627197 0.05041921 0.22079353 -0.10813063
-0.030863311 -0.009842188 -0.0627384 0.048417464 0.06408017 0.12352771 -0.16578625 0.18564834
0.25839683 -0.001474292 -0.1099911 0.19778514 0.102770396 0.038872477 -0.09130574 0.015287816
0.073984325 0.16375297 -0.08154224 0.0716927 -0.067835264 -0.081085786 -0.0875272 0.17927577
-0.11508951 0.070747875 0.055863716 -0.18495703 -0.040574886 0.28976172 0.07561432 -0.031847168
-0.03208137 -0.11791682 -0.19104026 0.06111234 0.040781204 -0.10920756 0.08206408 0.16880986
-0.077135645 -0.101794794 0.07572135 0.098952614 0.058808926 0.22224702 0.039991267 0.17993672
0.19249855 0.115596294 -0.1189624 -0.14816041 0.087818794 -0.18556845 -0.04919875 0.08919689
-0.0048605865 -0.10256243 -0.10275539 -0.08717836 -0.13704133 -0.0768536 -0.078345366 0.027303198
-0.03708501 0.048044227 -0.123210415 -0.088153884 0.17143777 -0.34957 0.10456039 0.15156281
0.06602875 0.10087576 0.023524025 -0.05303079 0.02583949 0.117104985 0.057789024 -0.039414488
0.1633273 0.13623151 0.055121526 0.07288844 -0.14930491 -0.117373355 0.047119837 -0.11347481
-0.007790792 -0.08483284 -0.09942908 -0.04997725 0.047803737 -0.044918496 0.006413114 0.1835059
-0.0077519496 -0.19046123 -0.0051898747 0.020496039 -0.03576044 0.10735957 -0.044918254 -0.09476422
-0.050654016 0.21752866 -0.1514758 -0.0035163115 -0.07271823 -0.13022433 0.033631664 0.12128869
0.058342032 0.1253113 0.0076650092 0.0058049127 0.14017539 -0.1077363 -0.345363 -0.10253814
-0.059870232 -0.015718464 0.013386983 0.041705616 0.05349531 0.0064017447 -0.028366216 0.1583903
-0.008609089 -0.09164847 0.08545092 -0.10088296 0.009743919 -0.018107638 -0.09899304 0.08335714
00000000: a85a 5d3d 41f9 3a3e 475e 44be f7dd ccbd
00000010: a285 0d3d 4476 81bd 9c2d 103d cb7b f03d
00000020: 1c95 1bbd ad12 a33d e1b3 0d3e 4a36 57be
00000030: 6d89 43bd 1dfb a33d 06c1 9f3d 0d16 0dbe
00000040: fef9 7ebc db4d 6a3d 9e25 08bd 9d97 5b3c
00000050: f82a d33d b38e 0cbd 4d0c 3a3d 4caf 883e
00000060: 664b dcbd 3d73 a9bd 91d6 83bc a80d 72be
00000070: 3aa0 bfbd 1fed 01bb 9a92 493e 70ca d1bc
00000080: b419 a9bc ec54 073c 802f c23d e5f6 62be
00000090: 410d 25be 6171 3e3d 719e b53d b21d 013e
000000a0: 2799 2e3d a0f6 dcbd e3ea ef3d 0278 6fbd
000000b0: ed0e 46be 62eb 8cbb 69ea febd 9179 133e
000000c0: e362 203e a00e 21be 3e1c 40bd bfa1 0b3e
000000d0: 3073 803d 6084 4e3d b317 623e 9773 ddbd
000000e0: 0ed5 fcbc 2141 21bc fe7c 80bd 6451 463d
000000f0: 773c 833d 19fc fc3d dfc3 29be 991a 3e3e
00000100: 974c 843e 083d c1ba 0443 e1bd 3088 4a3e
00000110: 4979 d23d bf38 1f3d 81fe babd bf79 7a3c
00000120: 1885 973d dcae 273e 9eff a6bd 9fd3 923d
00000130: 37ed 8abd 4e10 a6bd 7641 b3bd 1194 373e
00000140: 0db4 ebbd 43e4 903d 5ad1 643d 6065 3dbe
00000150: da31 26bd a65b 943e aedb 9a3d 2d72 02bd
00000160: c167 03bd 607e f1bd 0fa0 43be ef50 7a3d
00000170: 310a 273d 37a8 dfbd 3611 a83d 7edc 2c3e
00000180: 4bf9 9dbd ca79 d0bd cc13 9b3d aba7 ca3d
00000190: a1e1 703d b994 633e e2cd 233d 5541 383e
000001a0: 571e 453e c0bd ec3d 8fa2 f3bd 5db7 17be
000001b0: 57da b33d a805 3ebe a184 49bd dcac b63d
000001c0: 8e45 9fbb 400c d2bd 6b71 d2bd 918a b2bd
000001d0: 9054 0cbe 6c65 9dbd 8973 a0bd f5aa df3c
000001e0: 74e6 17bd 06ca 443d be55 fcbd 068a b4bd
000001f0: 628d 2f3e d7fa b2be c223 d63d 4833 1b3e
00000200: 153a 873d f397 ce3d 75b5 c03c d036 59bd
00000210: 57ad d33c bdd4 ef3d 2fb4 6c3d 1671 21bd
00000220: 463f 273e 4680 0b3e 1cc7 613d 8946 953d
00000230: 63e3 18be 7161 f0bd bb00 413d 7b65 e8bd
00000240: e649 ffbb d7bc adbd 79a1 cbbd f2b4 4cbd
00000250: dacd 433d 75fc 37bd 1925 d23b f8e8 3b3e
00000260: 1104 febb 4508 43be d30f aabb 4fe7 a73c
00000270: 8a79 12bd 56df db3d 34fc 37bd be13 c2bd
00000280: 967a 4fbd d5bf 5e3e 791c 1bbe eb71 66bb
00000290: 4ced 94bd 8759 05be 5bc1 093d 3466 f83d
000002a0: 0ef8 6e3d 9b51 003e c22a fb3b 2337 be3b
000002b0: 238a 0f3e d9a4 dcbd 6bd3 b0be 84ff d1bd
000002c0: 7d3a 75bd 02c4 80bc 1455 5b3c 82d3 2a3d
000002d0: e61d 5b3d bac5 d13b 4460 e8bc 1131 223e
000002e0: 230d 0dbc 31b2 bbbd e400 af3d ba9b cebd
000002f0: f5a4 1f3c 7856 94bc ddbc cabd 26b7 aa3d

net.4.bias f4 [3]
-0.028451102 -0.021622872 -0.023329463
00000000: 4912 e9bc 7322 b1bc 6e1d bfbc
