Results/anode_sine_250.pth (torch, 22185 bytes, 6 tensors)

net.0.weight f4 [64, 4]
0	0x3de89e22	0.113582864
1	0xbdcb508c	-0.099274725
2	0x3ddc1a99	0.107472606
3	0x3b226934	0.0024781944
4	0xbbc39b12	-0.0059694136
5	0x3d237703	0.03990842
6	0x3df9d09c	0.12197992
7	0xbc3d3f22	-0.011550697
8	0xbd4342ad	-0.04767101
9	0x3c91a6c6	0.01777972
10	0xbe1072f7	-0.14106356
11	0xbd7389da	-0.059457637
12	0xbd946343	-0.07245495
13	0xbd1db540	-0.03850293
14	0xbae3a3e0	-0.0017367564
15	0x3daa8306	0.08325772
16	0x3d385b68	0.045009047
17	0xbe1bb1c3	-0.1520453
18	0xbbb45d70	-0.0055043027
19	0xbc8657f8	-0.016399369
20	0xbe0d2fdf	-0.13787793
21	0xbe45a59d	-0.19301458
22	0xbdadb655	-0.08482043
23	0x3d33d35a	0.043902732
24	0x3d769bd0	0.060207188
25	0x3e553911	0.2082255
26	0x3dea249e	0.114327654
27	0xbdd913d7	-0.10599487
28	0xbdc126a8	-0.09431201
29	0x3e2e924c	0.17047995
30	0x3d0f5f0e	0.03500276
31	0x3df2e096	0.118592426
32	0x3d37c168	0.04486218
33	0x3d3e69c1	0.046487574
34	0xbc79df7f	-0.0152510395
35	0xbb01f28e	-0.0019828412
36	0xbde393d5	-0.11112181
37	0xbd764c85	-0.06013157
38	0xbd930c31	-0.0718006
39	0xbe17f225	-0.14838465
40	0xbc247448	-0.010037489
41	0xbdefbf21	-0.11706377
42	0xbc532059	-0.01288613
43	0xbdecd8a3	-0.11564758
44	0x3d482b6b	0.04886953
45	0x3d347ad7	0.04406246
46	0x3d4eb345	0.050463933
47	0x3d11c936	0.03559228
48	0xbc3c851d	-0.011506346
49	0xbc95a736	-0.018268209
50	0x3e1ec7de	0.15505931
51	0x3bcccfe2	0.0062503675
52	0x3d0bc2a3	0.034121167
53	0x3e310017	0.1728519
54	0x3d0f0c3e	0.034923784
55	0xbd8c41a0	-0.068484545
56	0x3de11ac8	0.10991436
57	0x3cbe4de3	0.023230499
58	0xbc52ae70	-0.012858972
59	0xbe583fc7	-0.21118079
60	0xbe0aa8f6	-0.13541016
61	0x3cc46ca9	0.023977594
62	0x3da83c68	0.082146466
63	0x3e44ec56	0.1923078
64	0x3dd46f6c	0.103728145
65	0x3c656230	0.0140004605
66	0xbe4592ce	-0.19294283
67	0xbc207def	-0.00979565
68	0x3dc60546	0.096689746
69	0x3e0772f4	0.13227445
70	0xbe15573e	-0.14584062
71	0xbdbf7754	-0.09348932
72	0xbcacd892	-0.021099363
73	0x3e807df9	0.2509611
74	0x3d7a02a1	0.061037663
75	0x3e09b8c0	0.13449383
76	0xbd3fa118	-0.04678449
77	0x3e0593eb	0.13044707
78	0x3e043900	0.12912369
79	0xbd83c06d	-0.06433187
80	0x3dde4389	0.10852725
81	0xbe0f591f	-0.13998841
82	0x3ccf3266	0.025292587
83	0xbd93623f	-0.07196473
84	0xbdf555c0	-0.11979246
85	0xbd75f370	-0.060046613
86	0x3e987eaa	0.29784137
87	0x3d4c0f40	0.04981923
88	0xbd83bbce	-0.06432305
89	0xbe03ba99	-0.1286415
90	0xbc120b12	-0.008913772
91	0x3e0225bb	0.12709706
92	0xbb2afa41	-0.0026089104
93	0xbc982d39	-0.018576251
94	0xbd8691a0	-0.065707445
95	0x3c04bc09	0.008101472
96	0x3e6d2e88	0.23162282
97	0x3c898b2e	0.016789999
98	0x3e5fb37c	0.21845812
99	0x3d413062	0.047165282
100	0x3dd7e4da	0.10541697
101	0xbd49501b	-0.04914866
102	0x3c74d267	0.014942742
103	0xbd2a701f	-0.041610833
104	0xbcea49f3	-0.028599715
105	0xbe1a78de	-0.1508517
106	0xbdbf0638	-0.09327358
107	0x3bd32263	0.006443308
108	0x3cc02c7b	0.02345871
109	0xbe15a7a7	-0.14614736
110	0xbe06aa58	-0.13150918
111	0xbcc93453	-0.024561083
112	0xbd26ca56	-0.040720306
113	0x3dbe1878	0.09282011
114	0x3c9af84d	0.018917227
115	0x3da0b6a3	0.07847335
116	0x3e2f9cf1	0.17149712
117	0x3d89d2de	0.06729673
118	0x3cfd1a56	0.030896347
119	0x3d25c91e	0.040475003
120	0x3cb27300	0.021783352
121	0xbe161c6a	-0.14659277
122	0x3cde8e64	0.027167507
123	0x3dfd094e	0.1235529
124	0xbdc01248	-0.09378487
125	0x3c830cbb	0.015997281
126	0x3cbf51d8	0.023354456
127	0x3dbec447	0.09314781
128	0xbdcf1faa	-0.10113461
129	0xbc90912e	-0.017647352
130	0x3db1278c	0.08650121
131	0xbe132919	-0.14371146
132	0x3c356ade	0.011072842
133	0xbdca221d	-0.09869788
134	0xbd75942a	-0.059955753
135	0x3dd8fe2c	0.105953544
136	0xbd6bd448	-0.057575494
137	0xbd9616a3	-0.07328536
138	0xbd025247	-0.031816747
139	0x3e0b4bab	0.13603084
140	0xbe3a8d57	-0.1821798
141	0x3da76a6f	0.081745975
142	0x3be33ea9	0.00693496
143	0x3e1ac458	0.15113962
144	0x3dd4f5a9	0.103984185
145	0xbe170031	-0.14746167
146	0xbcd5d9aa	-0.026104767
147	0xbd664b40	-0.056224108
148	0x3d6856e9	0.05672351
149	0x3b602848	0.0034203697
150	0x3e0e1308	0.13874447
151	0x3dfd44b5	0.123666205
152	0xbe003dcd	-0.12523575
153	0xbe1f9207	-0.15583049
154	0x3e36af57	0.17840324
155	0xbe3de899	-0.1854576
156	0x3e26191a	0.16220513
157	0xbdcaaa7d	-0.09895799
158	0x3e08ab39	0.13346566
159	0x3cbe823b	0.023255458
160	0x3ddfdbb4	0.10930577
161	0x3cdd2bde	0.026998457
162	0xbe96c271	-0.29445222
163	0x3d8ebf63	0.06970098
164	0xbd84a69a	-0.06477089
165	0x3dc148cb	0.09437712
166	0x3e0449c0	0.12918758
167	0xbddda96f	-0.108233325
168	0x3d6be12d	0.05758779
169	0x3e0f1704	0.13973624
170	0x3c46aee9	0.012126663
171	0xbdb0f22f	-0.08639943
172	0x3d14c32e	0.03631895
173	0xbe86fbe5	-0.26364055
174	0xbdabe25a	-0.083927825
175	0x3c6e28e6	0.014536118
176	0xbdcfcec2	-0.10146858
177	0xbe531419	-0.20613135
178	0x3de83933	0.11339035
179	0xbc3c0e76	-0.011478057
180	0xbdccfe4a	-0.10009439
181	0xbcdfa8bb	-0.027302137
182	0xbdfd7da9	-0.123774834
183	0xbcccf167	-0.025017453
184	0xbe2476bb	-0.16060917
185	0x3d2a0542	0.04150892
186	0xbe13527d	-0.14386936
187	0xbcb19391	-0.02167681
188	0xbd8cb3f1	-0.068702586
189	0xbcaba621	-0.02095324
190	0x3e36d195	0.17853387
191	0xbdba24bd	-0.090890385
192	0xbd9360e8	-0.07196218
193	0x3cc6d4e8	0.024271443
194	0xbdb92cd6	-0.09041755
195	0xbd614240	-0.05499482
196	0x3d9e7545	0.07737211
197	0x3dbd4319	0.092413135
198	0xbddca64e	-0.107739076
199	0xbd205622	-0.039144643
200	0x3da2f3dc	0.07956669
201	0xbd101e84	-0.035185352
202	0xbd637296	-0.0555292
203	0x3e3dc288	0.18531239
204	0x3da3bbcb	0.07994803
205	0x3dc488d0	0.095964074
206	0xbdebe927	-0.1151908
207	0xbe1d7fcc	-0.15380782
208	0xbe12813d	-0.14307113
209	0xbdc09ea7	-0.094052605
210	0xbc53b4e5	-0.012921547
211	0x3c82916b	0.015938481
212	0x3e31b893	0.17355566
213	0x3d8392cb	0.06424483
214	0x3e0596ac	0.13045758
215	0x3da1c09e	0.07898067
216	0xbd7da80a	-0.061927833
217	0x3dd6fbe6	0.104972646
218	0xbe95d186	-0.29261416
219	0xbe0ef50f	-0.1396067
220	0x3dde5fce	0.10858117
221	0x3debb29b	0.11508676
222	0x3cf0fdd9	0.029417919
223	0x3b5e5463	0.003392481
224	0xbd62f656	-0.055410706
225	0x3dc0f071	0.094208606
226	0xbbad567b	-0.0052898503
227	0x3cd89dd0	0.026442438
228	0x3e0d004e	0.13769647
229	0x3cb7d5e1	0.022440853
230	0xbe79f09c	-0.24408191
231	0x3ddb04be	0.10694264
232	0xbcdeed64	-0.027212806
233	0xbe4c745b	-0.19966261
234	0x3dbac74d	0.09120045
235	0xbe6225e7	-0.22084771
236	0xbdb7a817	-0.089676075
237	0x3db7765d	0.08958123
238	0xbbc1526d	-0.0058997185
239	0x3da6bbf5	0.08141319
240	0x3e36b442	0.178422
241	0xbdfdf9af	-0.12401139
242	0x3cf6b86b	0.030117234
243	0x3bea3a0d	0.0071480335
244	0xbe054fd7	-0.13018738
245	0xbd41b3a4	-0.04729046
246	0x3e35aece	0.17742464
247	0xbd179b96	-0.037013613
248	0x3e342a06	0.17594156
249	0x3c9d7dad	0.019224966
250	0x3bef0885	0.007294717
251	0xbdf923d2	-0.12165035
252	0xbd97f9f1	-0.074207194
253	0x3cd52e9b	0.0260232
254	0x3d76e88c	0.060280368
255	0xbde298a3	-0.110642694

net.0.bias f4 [64]
0	0xbbeb31be	-0.0071775606
1	0x3b20947b	0.0024502564
2	0x3a86c564	0.0010282216
3	0xbbe6562a	-0.0070293145
4	0xbb02eac0	-0.0019976348
5	0xbbb4d230	-0.0055182204
6	0x3c3dd669	0.011586764
7	0x3ad8e9c2	0.0016549157
8	0xbacdc415	-0.0015698696
9	0x3b80e95d	0.003934069
10	0x3c81f597	0.015864177
11	0xbb71fe35	-0.00369252
12	0xbbead8f9	-0.0071669784
13	0xb9639a4a	-0.00021705884
14	0xbb35f462	-0.0027764072
15	0x3c0fdf8e	0.008781327
16	0xbbfe9700	-0.0077694654
17	0x3b980574	0.004639322
18	0xbbe5894a	-0.0070048915
19	0xbb12310a	-0.0022307062
20	0xbba2ed12	-0.0049721086
21	0xbb65bdeb	-0.0035055827
22	0x3a8acc66	0.001058948
23	0x3b190dce	0.0023354176
24	0x3aaac0b5	0.0013027402
25	0x3a27d7fa	0.00064027274
26	0xbb182b6b	-0.0023219239
27	0xbbfcbca6	-0.0077129183
28	0x3c0d1aab	0.008612315
29	0x3bcf1865	0.0063200467
30	0x3c0dcb12	0.008654373
31	0x3b6d503d	0.0036211156
32	0x3a8c2203	0.0010691289
33	0x3966a433	0.00021995678
34	0xbc075585	-0.008260136
35	0x3a272c21	0.000637712
36	0x3b9ba9a6	0.0047504483
37	0x3ad02e71	0.0015882981
38	0xbbaf377f	-0.005347192
39	0xbbd5ec33	-0.0065284013
40	0x3c266620	0.010156184
41	0xba515ac6	-0.00079862436
42	0x3c46e5fd	0.012139794
43	0xb991a87b	-0.00027782083
44	0xbb7e3a58	-0.00387921
45	0xbbb0d8b6	-0.0053969277
46	0xbbd69d13	-0.0065494864
47	0xbb5a939d	-0.0033352145
48	0xbbbe2373	-0.0058025657
49	0x39670406	0.00022031376
50	0x3c7a2637	0.0152679
51	0xba658d39	-0.00087567006
52	0x39a1b3f6	0.00030842394
53	0x3ba81833	0.005129838
54	0x3b7fdc48	0.003904121
55	0x3bb062de	0.0053828796
56	0xbbb8a4e4	-0.005634891
57	0x3c40ee43	0.011775556
58	0x3b62dd2f	0.00346167
59	0x3bc754ec	0.0060831215
60	0xbbb5c4fa	-0.005547163
61	0xb9252a24	-0.00015751325
62	0x3c0dc84a	0.00865371
63	0xbbd8022e	-0.0065920567

net.2.weight f4 [64, 64]
0	0xbd94fda1	-0.072749384
1	0xbc07ed01	-0.008296252
2	0xbcb24022	-0.021759097
3	0xbc367a5f	-0.011137574
4	0xbde707ad	-0.11280761
5	0x3d418020	0.04724133
6	0xbd8ede99	-0.06976051
7	0x3dee8492	0.116463795
8	0x3db21bb8	0.08696693
9	0xbd887d9a	-0.066645816
10	0xbe49f6bd	-0.1972303
11	0x3dc9dc14	0.0985643
12	0xbbf9ef66	-0.0076274155
13	0xbdb8cfba	-0.09023996
14	0xbdd8a026	-0.10577421
15	0x3da5468c	0.080700964
16	0xbdfe4a5a	-0.12416525
17	0xbd87c090	-0.06628525
18	0x3db0d283	0.08633902
19	0x3d876f29	0.06612999
20	0xbeaa6d9f	-0.3328676
21	0x3bca01b9	0.006164756
22	0xbd6117e7	-0.054954436
23	0x3e08cdbd	0.13359733
24	0xbd6b7590	-0.057485163
25	0xbd5cc0d0	-0.053894818
26	0x3d63830f	0.05554491
27	0xbded0055	-0.11572329
28	0xba6d7860	-0.000905877
29	0x3c505c14	0.012717266
30	0x3e2617c0	0.16219997
31	0x3d4480a8	0.04797426
32	0x3d93ecef	0.07222926
33	0x3dbc69f9	0.091999
34	0xbe528f7c	-0.20562547
35	0x3e38fe19	0.1806568
36	0xbe53c25e	-0.20679614
37	0x3deaba61	0.1146133
38	0xbd08e4f1	-0.03342146
39	0xbd7c00f2	-0.06152434
40	0xbd34525c	-0.044023857
41	0xbdc8e4be	-0.09809254
42	0xbcc14e53	-0.023596918
43	0xbd02117a	-0.03175495
44	0x3c50672f	0.012719913
45	0xbd62ebb8	-0.05540058
46	0x3ddffb54	0.10936609
47	0x3d50d185	0.050981063
48	0x3cda0e84	0.02661825
49	0xbc9311aa	-0.017952759
50	0x3c675b97	0.014120958
51	0xbba1e364	-0.004940437
52	0x3d92099a	0.071307376
53	0xbcc6474a	-0.024203915
54	0x3d6475e2	0.055776484
55	0xbc48b866	-0.012250995
56	0x3e1ddc2c	0.1541602
57	0xbd0132ae	-0.031542473
58	0x3dfd68e7	0.12373524
59	0x3c91a2ad	0.017777765
60	0xbdca40c4	-0.09875634
61	0xbddefc15	-0.108879246
62	0xbdc65ee3	-0.09686067
63	0x3c5b488e	0.013383998
64	0x3d8fa01b	0.070129596
65	0xbc9ac5c5	-0.018893132
66	0xbde97355	-0.11398951
67	0xbd4aef08	-0.049544364
68	0x3e4af2e9	0.19819225
69	0xbdf4653d	-0.11933372
70	0xbcf14d1e	-0.029455718
71	0x3d763f24	0.06011881
72	0x3e2be4d9	0.16786517
73	0x3e670e6d	0.22564097
74	0xbce85805	-0.028362283
75	0xbe71733d	-0.23579116
76	0xbd4dfd2c	-0.05029027
77	0xbc8a296f	-0.01686546
78	0x3de521fd	0.111881234
79	0xbe4bf04d	-0.19915886
80	0xbbf10ce2	-0.007356272
81	0xbe74cd53	-0.2390645
82	0x3c8ec294	0.017426766
83	0xbe64d0e4	-0.2234531
84	0x3ca2868f	0.019839553
85	0xbda9aa03	-0.0828438
86	0xbe02fd21	-0.12791874
87	0xbdba5435	-0.090980925
88	0xbd3701d2	-0.04467947
89	0xbd2f0692	-0.042730875
90	0x3d42892f	0.04749411
91	0x3d8681c0	0.065677166
92	0x3cf97a29	0.030453758
93	0x3df43e98	0.11926001
94	0x3d5af9ef	0.05346101
95	0xbda330b0	-0.07968271
96	0xbda1fd3c	-0.07909629
97	0x3cf5fb1c	0.030026965
98	0x3e23ebe8	0.1600796
99	0x3e619d20	0.22032595
100	0x3e5e7881	0.21725656
101	0xbbc48baa	-0.0059980946
102	0xbdb9f1e6	-0.090793416
103	0x3e1ebba9	0.15501274
104	0x3d07a0e1	0.03311241
105	0xbc4e8451	-0.012604789
106	0xbd00a566	-0.031407736
107	0xbca88420	-0.020570815
108	0xbe20320b	-0.1564409
109	0x3c291041	0.010318817
110	0xbd71ba4b	-0.059015553
111	0xbd854c7a	-0.06508727
112	0x3dc64d22	0.09682681
113	0xbe4b256f	-0.19838499
114	0x3d30a25f	0.0431236
115	0x3c6eaf33	0.014568138
116	0x3dcdf369	0.100561924
117	0x3d462b2a	0.04838101
118	0xbc29ca16	-0.010363122
119	0xbafce85c	-0.0019295323
120	0xbc8acd91	-0.016943725
121	0x3db65fb0	0.0890497
122	0x3e0e7fed	0.13915987
123	0xbe8423f6	-0.25808686
124	0x3dd4566a	0.10368045
125	0xbd94a7f4	-0.07258597
126	0x3e5d0ac1	0.21586134
127	0xbdca2e41	-0.098721035
128	0x3d5243e2	0.05133427
129	0x3dd72c2b	0.10506471
130	0xbb8523ed	-0.0040631206
131	0xbcca1572	-0.024668429
132	0xbdcd12c2	-0.100133434
133	0xbd82ba3f	-0.0638318
134	0xbce6e248	-0.028184071
135	0xbd4604b3	-0.048344325
136	0xbce8613b	-0.028366676
137	0x3e329592	0.17439869
138	0xbd43ef23	-0.04783548
139	0xbd8f0c9c	-0.06984827
140	0x3e3a3023	0.18182425
141	0xbe1d8507	-0.15382777
142	0x3d271969	0.040795717
143	0xbde72349	-0.11286027
144	0x3cf72688	0.03016974
145	0x3c53d3ed	0.012928945
146	0xbd81efa7	-0.06344538
147	0xbe590178	-0.21191967
148	0x3deedb30	0.116629004
149	0x3b8fc490	0.0043874457
150	0xbd1fff41	-0.03906179
151	0xbd25f6a5	-0.04051842
152	0x3d9a21a7	0.0752595
153	0xbcc9e1f5	-0.024643878
154	0x3b93d0f3	0.0045109927
155	0xbd5712b4	-0.05250807
156	0xbe09b8c8	-0.13449395
157	0xbe0ac8d4	-0.13553172
158	0xbce582bd	-0.028016442
159	0xbe66fe1f	-0.22557877
160	0xbd581778	-0.052756757
161	0xbc394d5e	-0.01130995
162	0x3d1e6b29	0.038676415
163	0x3dcb42ba	0.099248365
164	0xbc041fbf	-0.0080642095
165	0xbdaff165	-0.08590964
166	0x3e362bd0	0.1779015
167	0x3e8d17d7	0.2755725
168	0xbe252150	-0.16125989
169	0xbc85c1ac	-0.016327702
170	0xbd0c179a	-0.034202196
171	0x3db31b0a	0.08745392
172	0xbc82d63c	-0.015971296
173	0xbe1f74cc	-0.15571898
174	0xbdb1159c	-0.086467
175	0x3e2ed0c0	0.1707182
176	0xbd0f588b	-0.03499655
177	0x3d8dcf91	0.06924356
178	0xbb093bd2	-0.0020940197
179	0xbc2ad50e	-0.010426773
180	0xbdf1aa75	-0.1180009
181	0xbdbe394b	-0.092882715
182	0xbd97fd68	-0.0742138
183	0xbcb9ecd3	-0.022695934
184	0xbe211341	-0.15730001
185	0x3d2d4bbf	0.042308565
186	0x3e70d94b	0.2352039
187	0xbe6b2082	-0.2296162
188	0x3d059604	0.03261377
189	0xbd02e190	-0.031953394
190	0xbdaaa344	-0.08331922
191	0x3e6c4224	0.23072106
192	0x3dd270d2	0.10275425
193	0x3e44448d	0.19166775
194	0x3ea8b54c	0.3295082
195	0x3dccc380	0.09998226
196	0xbdb091cf	-0.08621561
197	0xbd8622cd	-0.065496065
198	0xbc80a033	-0.015701389
199	0x3e6f0d80	0.23344994
200	0xbe75f431	-0.24018933
201	0x3c9b8ea7	0.01898892
202	0xbd815aa4	-0.063161165
203	0x3e0e611f	0.13904236
204	0xbd8c27c5	-0.06843523
205	0xbdb38bdf	-0.08766913
206	0x3dab9393	0.08377757
207	0x3d619a82	0.05507899
208	0x3e4d7cc6	0.20067129
209	0x3c7be5a4	0.015374575
210	0x3d635c20	0.05550778
211	0xbc24cabb	-0.0100581
212	0xbda99b31	-0.082815535
213	0x3e107d8d	0.14110394
214	0x3d852eaa	0.06503041
215	0x3e145e1f	0.1448903
216	0x3cecfdd2	0.028929625
217	0xbbe8d4b1	-0.007105433
218	0xbe092145	-0.13391598
219	0xbdcd2ee5	-0.1001871
220	0x3de68272	0.11255349
221	0x3bd851ff	0.0066015716
222	0xbd6e451c	-0.058171377
223	0x3d6bf49c	0.057606325
224	0x3d9b1eb9	0.07574219
225	0x3e2eda49	0.17075457
226	0x3d9c469c	0.07630655
227	0xbc92f22c	-0.017937742
228	0x3d981943	0.07426693
229	0x3dd09783	0.101851486
230	0x3e0155bf	0.12630366
231	0xbd888be7	-0.06667309
232	0xbd86b3e3	-0.065772794
233	0xbdb8ed40	-0.09029627
234	0x3d16f6d8	0.036856502
235	0x3ce1cfc7	0.027564896
236	0xbdcc5571	-0.09977234
237	0x3d9947a7	0.0748437
238	0xbd02666d	-0.031835962
239	0xbcf080fa	-0.029358376
240	0xbe1f617a	-0.15564528
241	0xbe035069	-0.12823643
242	0x3e16b4ac	0.14717358
243	0xbe4abccb	-0.19798581
244	0x3e317345	0.17329128
245	0xbdc91a27	-0.09819441
246	0x3e01a71a	0.126614
247	0x3d233da5	0.03985371
248	0x3dfa3cd8	0.12218636
249	0xbd3f5eb0	-0.04672116
250	0xbe4d152f	-0.20027612
251	0x3cf735e2	0.03017706
252	0x3b96eebf	0.0046060975
253	0xbd519241	-0.05116487
254	0x3cc27b94	0.023740567
255	0x3dbd1f6f	0.09234511

net.2.bias f4 [64]
0	0x3a791c31	0.0009502797
1	0xbb02cb9b	-0.0019957784
2	0xbba0b492	-0.004904338
3	0x3ba86f9d	0.0051402585
4	0xbc3a887d	-0.01138508
5	0xbbca12b0	-0.0061667785
6	0xbbaef7aa	-0.0053395825
7	0x3c1223c7	0.008919663
8	0x3bd75386	0.006571236
9	0xbbcba8aa	-0.0062151747
10	0xbbbedf75	-0.005824978
11	0xbc410e62	-0.011783214
12	0x3c387570	0.011258468
13	0x3b07c554	0.0020716982
14	0x3b562c9b	0.0032680396
15	0x3b5ee91c	0.0034013456
16	0xbba9fb6e	-0.0051874435
17	0x3b804b21	0.003915206
18	0xbab266f7	-0.0013611008
19	0x3ae05a98	0.0017116843
20	0x3a5113f2	0.00079756894
21	0xb9ec4db6	-0.00045071327
22	0x3b87cd47	0.004144344
23	0xbbc15a7a	-0.005900678
24	0x3c449bc2	0.012000026
25	0xbb388689	-0.002815636
26	0x3aba2527	0.0014201746
27	0x3b22e9ae	0.0024858522
28	0xbbaa9dad	-0.0052067847
29	0x3bc08043	0.005874665
30	0x3b2f93b6	0.0026790923
31	0x3c04ed45	0.00811321
32	0xbbe4f042	-0.006986649
33	0xbb4a0b76	-0.0030829585
34	0xbbaa19e9	-0.005191077
35	0x3c2932e6	0.010327077
36	0x3c2e50da	0.010639394
37	0x3b937100	0.0044995546
38	0x3beaf38d	0.007170147
39	0x3bf7a777	0.007557805
40	0x3aafab97	0.0013402578
41	0xbbcde719	-0.0062836525
42	0xbab4ae5a	-0.0013784871
43	0xbbcda4fe	-0.006275772
44	0xbb936aaa	-0.0044987993
45	0xbb373244	-0.0027953545
46	0x3b175936	0.0023093945
47	0xbae2a1f4	-0.0017290697
48	0x3b3ee67a	0.0029129074
49	0xbbf0a311	-0.007343658
50	0xbbe7d99a	-0.0070755007
51	0xbbf69af3	-0.0075257956
52	0xbbb20879	-0.005433139
53	0x3b5fccea	0.0034149238
54	0x3c01683c	0.007898387
55	0xbaf2878d	-0.0018503532
56	0xbbc59e5d	-0.0060308413
57	0x3bb87a78	0.005629834
58	0xbb9c1294	-0.004762957
59	0xbb826264	-0.003979014
60	0x3ba25b36	0.004954721
61	0x3b6cc528	0.0036128256
62	0xbbf404fe	-0.007446884
63	0xbb9208e3	-0.004456626

net.4.weight f4 [4, 64]
0	0x3b344d67	0.0027511956
1	0xbe11111f	-0.14166687
2	0xbddb1c50	-0.106987596
3	0xbb109b23	-0.0022065125
4	0x3cdb078c	0.026736997
5	0x3c260069	0.010131934
6	0xbd5cc7cd	-0.053901482
7	0x3e868650	0.26274347
8	0x3dba3bed	0.09093461
9	0xbd4b4e84	-0.049635425
10	0xbda0c47d	-0.07849977
11	0xbe549062	-0.20758203
12	0x3d06b329	0.032885704
13	0x3e0f2eb2	0.13982657
14	0xbcbc1db3	-0.02296338
15	0x3df9de72	0.12200631
16	0xbddf5044	-0.10903981
17	0x3dddef14	0.10836616
18	0x3d6394dd	0.05556189
19	0xbd173292	-0.036913462
20	0x3e60c4e4	0.21950108
21	0x3ce10966	0.027470302
22	0xbd4a7c5c	-0.049435005
23	0xbe391216	-0.18073305
24	0x3e1254e6	0.14290199
25	0xbe52b72b	-0.20577686
26	0x3e153e68	0.14574587
27	0x3e5e5c05	0.2171479
28	0x3e01ea52	0.12687042
29	0x3d5ab09d	0.053391088
30	0x3e2cf1b5	0.16889079
31	0x3e226bb5	0.158614
32	0xbdb90c07	-0.09035497
33	0xbe1163a3	-0.14198165
34	0x3b979650	0.004626073
35	0x3e0ac3b4	0.13551217
36	0x3e39b2fc	0.18134683
37	0x3cfe7ced	0.031065429
38	0x3ce534d4	0.027979292
39	0x3e0537ba	0.13009539
40	0x3e2b200e	0.16711447
41	0xbe3f4d71	-0.18681885
42	0x3d251eb5	0.040312488
43	0xbd7c6aa3	-0.061625134
44	0xbe2461fa	-0.16053
45	0xbd71e909	-0.05906013
46	0x3df86b3a	0.12129827
47	0xbc8ef225	-0.017449448
48	0xbd022eb7	-0.031782832
49	0xbc80018b	-0.015625736
50	0xbe4fc3f4	-0.20289594
51	0x3e1fd8f4	0.15610105
52	0x3d377148	0.044785768
53	0xbd516193	-0.051118445
54	0x3d797c17	0.060909357
55	0xbdca8261	-0.09888149
56	0xbd7a6645	-0.061132688
57	0xbdd4c7b9	-0.103896566
58	0xbe1227ca	-0.14272991
59	0xbe11300b	-0.14178483
60	0xbbe16da1	-0.006879524
61	0x3de0c805	0.10975651
62	0xbd97dccc	-0.074151605
63	0xbdae9824	-0.08525112
64	0x3e0ba03e	0.13635346
65	0xbdd86c2e	-0.10567509
66	0x3bd7cc50	0.0065856352
67	0x3d96071f	0.07325577
68	0xbe8e630f	-0.2780995
69	0xbe556169	-0.2083794
70	0x3d5deb51	0.054179493
71	0x3d8b913c	0.06814811
72	0xbdc3a04d	-0.09552059
73	0xbe15f072	-0.14642504
74	0xbd36b2eb	-0.044604223
75	0x3de8c427	0.11365538
76	0x3dbbb6d9	0.09165735
77	0xbcad2b70	-0.021138877
78	0x3d8aff40	0.06786966
79	0xbe281e24	-0.16417748
80	0x3b2380ae	0.0024948525
81	0x3de70001	0.112792976
82	0xbdd8e130	-0.10589826
83	0x3e89885b	0.26861843
84	0x3e4707a2	0.19436505
85	0xbe5466f9	-0.20742406
86	0x3e397b3f	0.18113421
87	0x3e764492	0.24049595
88	0x3a2f2e34	0.0006682605
89	0x3e0336bb	0.12813847
90	0xbd7d2c83	-0.061810028
91	0xbd4ddc02	-0.050258644
92	0xbd9990c2	-0.074983135
93	0xbd184d1d	-0.037182916
94	0x3b912bd2	0.0044302726
95	0xbd593b99	-0.053035352
96	0xbce89dc1	-0.028395535
97	0xbd8bd31c	-0.06827375
98	0xbe0b9b8e	-0.13633558
99	0x3ddcb275	0.107762255
100	0xbcbd6e7d	-0.023123974
101	0xbe4be131	-0.19910122
102	0x3e0df8c3	0.13864426
103	0x3e0ff117	0.14056812
104	0xbe3014b4	-0.17195398
105	0xbe4fc39c	-0.20289463
106	0x3d4964bb	0.04916833
107	0xbe6b8958	-0.23001611
108	0x3c8c69c3	0.017140275
109	0xbe0d4ca1	-0.13798763
110	0x3e838e6b	0.25694594
111	0xbe185025	-0.14874323
112	0x3e20979b	0.15682833
113	0xbd8b9cda	-0.068170264
114	0x3a21a681	0.00061664736
115	0xbe0c86f5	-0.13723357
116	0xbda3465f	-0.079724066
117	0x3dd33934	0.10313645
118	0x3dc09b10	0.09404576
119	0xbe2e422a	-0.17017427
120	0xbd7b51b7	-0.061357226
121	0x3d8046fb	0.062635385
122	0xbe165001	-0.14678957
123	0x3e1c5e45	0.15270336
124	0x3cba5a4c	0.022748135
125	0x3e3a2cea	0.18181196
126	0x3d4fdb44	0.050746217
127	0xbe006079	-0.12536801
128	0x3e3fbc9f	0.18724297
129	0xbdacc936	-0.084368154
130	0xbd8e7dc5	-0.069575824
131	0x3d8c6fda	0.068572715
132	0xbc3d1284	-0.011540059
133	0x3e07bb9d	0.13255163
134	0xbd240b4e	-0.040049843
135	0x3d3e3733	0.04643936
136	0x3d370715	0.04468449
137	0x3cd51b6e	0.026014056
138	0x3e21a171	0.15784241
139	0x3d2b93f7	0.041889157
140	0xbcdcc7ec	-0.026950799
141	0x3e858a00	0.26081848
142	0x3dffc623	0.124889635
143	0x3c59bb40	0.013289273
144	0x3d809714	0.06278816
145	0x3ded84b3	0.11597576
146	0x3dc39cef	0.09551417
147	0xbe1ae5b7	-0.15126692
148	0xbd780c41	-0.06055856
149	0xbe05a3c4	-0.13050753
150	0x3dda7141	0.10666133
151	0xbd0b8812	-0.034065314
152	0x3c9717f9	0.018444048
153	0x3ca9cb4b	0.02072682
154	0xbbdbd231	-0.0067084064
155	0xbda8905f	-0.082306616
156	0x3de9f319	0.1142332
157	0xbd7f7749	-0.06236962
158	0x3dcf9664	0.101361066
159	0xbe03d443	-0.1287394
160	0x3e336bf6	0.17521653
161	0xbe48bbf6	-0.19602951
162	0xbc070485	-0.008240824
163	0xbd3a0246	-0.045412324
164	0xbd2991f9	-0.041398976
165	0x3e66069b	0.22463457
166	0xbe81eadc	-0.25374496
167	0xba79ee1a	-0.0009534076
168	0x3dc16bf4	0.094444185
169	0xbcfbb95b	-0.030728033
170	0x3d71581e	0.058921926
171	0xbd641a57	-0.055689182
172	0x3e0b84ce	0.1362488
173	0x3be4f007	0.0069866213
174	0xbc36af48	-0.011150189
175	0xbe37222d	-0.17884131
176	0xbe5443d3	-0.20728998
177	0x3d8b9202	0.06814958
178	0xbd4a8685	-0.049444694
179	0xbc4c91b3	-0.012485909
180	0x3cb3e131	0.021957966
181	0x3d7f9074	0.06239362
182	0xbe2dd38c	-0.1697523
183	0x3cadc546	0.021212231
184	0x3d22f8a4	0.039787903
185	0xbbdeaf05	-0.0067957663
186	0xbd9a867f	-0.07545184
187	0x3dad41a2	0.08459784
188	0xbe1c0227	-0.15235196
189	0xbd1ccf72	-0.038283773
190	0x3e428c13	0.18998747
191	0x3dac0126	0.083986565
192	0x3e3decc4	0.1854735
193	0x3e5b18a8	0.21396124
194	0xbe25f0a8	-0.16205084
195	0x3e2986b8	0.16555297
196	0x3e12e1bb	0.14343922
197	0xbd0ce691	-0.034399573
198	0xbd37efda	-0.044906475
199	0xbd922810	-0.071365476
200	0x3dbf26d2	0.09333576
201	0xbe2cc0e4	-0.16870457
202	0xbc597659	-0.013272845
203	0xbd0e5f15	-0.034758646
204	0x3d3578fc	0.044304833
205	0x3e31cfad	0.17364378
206	0x3cab3fa8	0.020904377
207	0x3db34932	0.08754195
208	0x3cbcb8d1	0.023037346
209	0x3e2e68a5	0.17032106
210	0xbe3da256	-0.18518957
211	0xbd4c291e	-0.0498439
212	0xbd58c81c	-0.052925214
213	0xbd717dfe	-0.058958046
214	0xbe0c0eab	-0.1367747
215	0x3d8d76c4	0.06907418
216	0xbc1c16aa	-0.009526888
217	0x3d926c98	0.07149619
218	0xbe544e74	-0.20733052
219	0xbe3756c6	-0.17904195
220	0x3c0e7c01	0.008696557
221	0x3d30d02e	0.043167286
222	0xbe6b0d6d	-0.2295434
223	0x3dfd19cb	0.12358435
224	0xbd1c1b32	-0.038111873
225	0x3c6112f4	0.013737429
226	0xbcf1c93d	-0.029514903
227	0x3d924cc4	0.07143548
228	0x3d7abaa2	0.061213143
229	0xbccd37cd	-0.025051022
230	0x3c654ee6	0.013995862
231	0x3e03f7ee	0.12887546
232	0x3d49dd29	0.04928318
233	0xbde48306	-0.11157803
234	0xbe45e8b9	-0.19327058
235	0x3e0aa0a4	0.13537842
236	0x3ccb9a6a	0.024853904
237	0x3c014c24	0.0078916885
238	0xbd982b25	-0.07430104
239	0x3e2598f2	0.16171625
240	0x3d5611d1	0.052263085
241	0xbce2253b	-0.027605643
242	0xbdaad8eb	-0.08342155
243	0xbdf13f96	-0.11779706
244	0x3dc56a0e	0.09639369
245	0x3e1baf0e	0.15203497
246	0x3de9a944	0.11409238
247	0x3dcadd52	0.09905495
248	0x3caa307d	0.020775074
249	0xbda0574c	-0.078291506
250	0x3d2806c0	0.041022062
251	0xbca11430	-0.019662946
252	0xbe242cad	-0.16032667
253	0xbd182c39	-0.03715155
254	0xbd31836a	-0.043338217
255	0x3df1e738	0.118116796

net.4.bias f4 [4]
0	0x3c7bdd8d	0.015372646
1	0x3cd4cc68	0.025976375
2	0x3a987291	0.0011630823
3	0xbba68768	-0.0050820597
