Results/latent_ode_spiral.pth (torch, 28929 bytes, 14 tensors)

encoder.i2h.weight f4 [25, 27]
0.1576326 0.11774645 0.16674113 0.08369049 0.08315793 0.16252667 -0.10965527 -0.16518012
0.090146095 -0.2336591 -0.01993441 -0.0019085992 -0.042809054 -0.12302384 0.00082673 0.33117744
-0.19612719 0.046187263 -0.061020702 -0.16177753 0.20154783 -0.16337062 0.0180763 0.011847838
-0.04797393 -0.09645572 0.042448707 -0.107121885 -0.070092276 -0.010256328 -0.089252815 0.0741584
0.3002323 -0.0064624613 -0.18064445 0.058356058 -0.014087799 0.00026934408 -0.13160841 0.077126876
-0.18226653 -0.09517316 -0.17212793 0.030268004 -0.08307895 -0.09872143 -0.27103797 -0.13988523
-0.07516731 0.027074892 0.21416686 0.02652914 -0.19276828 0.050663166 -0.22821264 0.16896285
0.16269764 -0.07465915 -0.0046401774 0.18380778 -0.08324327 0.16374971 -0.033909205 -0.028387496
0.08626691 -0.018933637 -0.07355182 0.1482639 0.13007459 -0.07733727 0.045222808 0.16554184
-0.11353233 0.13722911 0.010992878 -0.018896565 0.20206605 0.1743366 -0.0684371 0.20583105
-0.15469445 -0.05071801 0.23461086 -0.087638445 0.029507285 -0.107103005 -0.046407808 0.21610422
-0.11956284 -0.023325486 0.04411391 -0.18033436 0.007795862 0.13666457 0.0013974422 -0.20515221
0.17469475 -0.14647022 0.106034644 -0.26700312 -0.0022828816 -0.07478794 -0.09059726 0.03746702
0.039575316 -0.19616032 -0.114454426 0.14716634 -0.2091198 0.18490766 -0.12688754 -0.18234245
-0.022460375 0.15481696 -0.12511902 -0.12657306 -0.06987677 0.065456405 -0.1098725 -0.12982458
0.04943082 0.11234652 0.017597588 0.045533635 0.0010702537 -0.16394071 0.09409065 0.07621468
0.06850918 -0.0071646646 0.079074904 -0.003532312 -0.18665545 0.14786977 -0.015818313 -0.1853953
-0.04977323 -0.15521596 0.042535134 -0.102798276 0.088715255 0.03974985 0.29278952 0.0071833236
-0.17881872 0.015744315 0.032004725 0.09518928 -0.2083826 0.08475124 0.23170567 -0.12217753
0.04418634 0.20628896 0.18418197 0.070884176 0.16967891 0.09121688 -0.074716 0.21933569
0.17325535 -0.21445487 -0.1917133 0.33888537 -0.07479377 0.035572365 0.1464223 0.03384101
0.23935683 0.052728277 0.29229382 -0.1940984 -0.064820684 0.0738498 0.14907128 0.115474634
0.071716785 -0.055828247 0.086557634 0.13836186 -0.09130538 -0.14202501 0.1209874 0.11992375
0.16635896 -0.16960439 0.011649813 0.17386502 -0.043893192 0.1624664 -0.0808723 0.089710206
0.14003979 -0.13721602 -0.017028527 0.023746647 -0.19716945 -0.24022709 0.14687572 0.07003554
0.17954575 0.14680296 -0.054971267 -0.12328155 -0.053427942 -0.1469184 -0.04668275 -0.2498085
-0.13658772 -0.3419838 -0.12962288 -0.31832418 0.10828866 -0.1843925 0.13016286 -0.104988076
0.022918439 -0.08744483 -0.027429804 -0.20003988 0.005644183 -0.15055321 -0.02810735 0.08461686
-0.22750358 0.004975791 0.2064519 -0.024688352 0.06721536 -0.13064156 -0.08753417 -0.19777595
0.07132743 0.2659953 0.10915563 0.045842107 -0.2451454 0.04608947 -0.022448806 -0.2548434
-0.110050246 0.11987944 0.118230425 0.03387755 -0.1703679 -0.1813918 0.094175115 -0.04021681
0.026509413 -0.0058904113 -0.08192443 -0.02212857 0.030601118 0.1553222 -0.007979506 -0.097424984
00000000: 716a 213e 0d25 f13d 30be 2a3e eb65 ab3d
00000010: b44e aa3d 646d 263e f192 e0bd fa24 29be
00000020: 849e b83d 5544 6fbe 7d4d a3bc f629 faba
00000030: 8c58 2fbd ecf3 fbbd e9b8 583a 1790 a93e
00000040: 91d5 48be db2e 3d3d d8f0 79bd 02a9 25be
00000050: 8e62 4e3e a14a 27be c014 943c 6f1d 423c
00000060: 5080 44bd 948a c5bd b2de 2d3d b862 dbbd
00000070: 8a8c 8fbd 280a 28bc 2eca b6bd 5ce0 973d
00000080: 0cb8 993e 0ec3 d3bb dcfa 38be c306 6f3d
00000090: 83d0 66bc c036 8d39 5bc4 06be b2f4 9d3d
000000a0: 14a4 3abe 25ea c2bd 4e42 30be 9bf4 f73c
000000b0: 4c25 aabd 762e cabd 7dc5 8abe 133e 0fbe
000000c0: 52f1 99bd 2acc dd3c 8f4e 5b3e a453 d93c
000000d0: 0c65 45be 2e84 4f3d 93b0 69be 9904 2d3e
000000e0: 369a 263e e5e6 98bd a10c 98bb 1b38 3c3e
000000f0: 737b aabd 01ae 273e 61e4 0abd e58c e8bc
00000100: b5ac b03d b71a 9bbc 56a2 96bd 7ed2 173e
00000110: 4632 053e 0163 9ebd 8d3b 393d cd83 293e
00000120: a383 e8bd ca85 0c3e 791b 343c f8cc 9abc
00000130: 67ea 4e3e 4b85 323e c028 8cbd 60c5 523e
00000140: 3968 1ebe b0bd 4fbd d43d 703e c97b b3bd
00000150: 43b9 f13c d258 dbbd 1d16 3ebd 6d4a 5d3e
00000160: 5ddd f4bd 1715 bfbc cab0 343d 92a9 38be
00000170: 6e74 ff3b ccf1 0b3e 612a b73a 6c13 52be
00000180: 2ee3 323e 4afc 15be b128 d93d a2b4 88be
00000190: 669c 15bb 6b2a 99bd 0e8b b9bd 0577 193d
000001a0: ba19 223d 40de 48be 1567 eabd c6b2 163e
000001b0: 8023 56be 6f58 3d3e cfee 01be fbb7 3abe
000001c0: d2fe b7bc 5688 1e3e 331f 00be 5e9c 01be
000001d0: 8d1b 8fbd 020e 863d d504 e1bd bcf0 04be
000001e0: f977 4a3d ef15 e63d d128 903c 7a81 3a3d
000001f0: c147 8c3a 13e0 27be 99b2 c03d 7116 9c3d
00000200: 8a4e 8c3d 90c5 eabb 06f2 a13d 5d7e 67bb
00000210: 9b22 3fbe 2c6b 173e 6895 81bc 44d8 3dbe
00000220: 04df 4bbd eff0 1ebe 5239 2e3d e787 d2bd
00000230: 58b0 b53d bdd0 223d 82e8 953e 1662 eb3b
00000240: 411c 37be 39fa 803c 6317 033d 99f2 c23d
00000250: 4062 55be 0f92 ad3d 4044 6d3e 3638 fabd
00000260: bcfc 343d 6a3d 533e 339a 3c3e b92b 913d
00000270: 4fc0 2d3e eacf ba3d b404 99bd 8999 603e
00000280: da69 313e 0f9a 5bbe 7e50 44be 6282 ad3e
00000290: 7a2d 99bd 54b4 113d baef 153e df9c 0a3d
000002a0: f519 753e 9bf9 573d 89a7 953e bbc1 46be
000002b0: b5c0 84bd 903e 973d 24a6 183e f77d ec3d
000002c0: 40e0 923d 29ac 64bd 2145 b13d bbae 0d3e
000002d0: 51fe babd 016f 11be 3ec8 f73d 959a f53d
000002e0: 015a 2a3e c6ac 2dbe dbde 3e3c ac09 323e
000002f0: 59c9 33bd 985d 263e 60a0 a5bd fcb9 b73d
00000300: 9766 0f3e 5b82 0cbe 697f 8bbc 5488 c23c
00000310: cae6 49be 17fe 75be 9766 163e cb6e 8f3d
00000320: d7da 373e 8453 163e 8d29 61bd 0a7b fcbd
00000330: 42d7 5abd c771 16be 6936 3fbd cdcd 7fbe
00000340: a7dd 0bbe 8018 afbe dcbb 04be 63fb a2be
00000350: 72c6 dd3d 63d1 3cbe 6a49 053e fd03 d7bd
00000360: 73bf bb3c 4616 b3bd 78b4 e0bc 41d7 4cbe
00000370: d7f2 b83b 9f2a 1abe 6341 e6bc 9b4b ad3d
00000380: b3f6 68be f60b a33b 2068 533e 3a3f cabc
00000390: 35a8 893d e7c6 05be 1d45 b3bd c785 4abe
000003a0: 1e14 923d 8930 883e fd8c df3d efc4 3b3d
000003b0: 6507 7bbe 50c8 3c3d 8fe6 b7bc d67a 82be
000003c0: 0662 e1bd 5a83 f53d cb22 f23d 30c3 0a3d
000003d0: ec74 2ebe c6be 39be e2de c03d 62ba 24bd
000003e0: 452a d93c 5a04 c1bb ffc7 a7bd fa46 b5bc
000003f0: 32af fa3c c80c 1f3e 79bc 02bc c086 c7bd

encoder.i2h.bias f4 [25]
0.36764485 -0.21641222 -0.13926093 -0.043918803 0.09804425 0.17776473 0.08264967 -0.2694608
0.032794483 -0.22582443 -0.2801214 0.0010496149 0.15909132 0.28650972 -0.1729138 -0.052465662
0.13639776 0.27341646 0.19095719 0.11604227 0.17908153 -0.13281047 0.26858693 -0.022628998
0.10560805
00000000: f23b bc3e 2a9b 5dbe 6b9a 0ebe 34e4 33bd
00000010: 6ccb c83d f507 363e 3b44 a93d c4f6 89be
00000020: 8253 063d 853e 67be 126c 8fbe 3b93 893a
00000030: d6e8 223e 67b1 923e 5110 31be 3ce6 56bd
00000040: dbab 0b3e 3efd 8b3e 488a 433e 92a7 ed3d
00000050: 2661 373e 78ff 07be 3a84 893e 7360 b9bc
00000060: 0949 d83d

encoder.h2o.weight f4 [8, 25]
0.055566624 -0.12774952 0.094401516 0.21133387 -0.10704536 -0.20408198 0.018153543 0.15419447
-0.13210052 -0.24401811 -0.22370404 0.1360022 -0.2913918 -0.11531742 -0.15923 0.064828925
0.09525449 -0.19492836 -0.3206826 -0.2811992 -0.32716787 -0.26870918 0.23336838 -0.21074983
0.4001424 0.06695901 0.02330682 0.22111231 0.20222643 0.32047242 -0.10538519 0.40585905
-0.04381246 -0.1713046 -0.27827454 0.14061111 0.037322424 -0.02807019 0.26582298 -0.038808852
-0.26235402 -0.12108497 -0.21467878 0.41261697 0.06164739 -0.09295187 -0.07440776 -0.43047568
0.04153219 -0.21730192 0.19767234 0.16006193 -0.24864331 -0.07383914 -0.04330935 -0.0020148118
-0.2709741 0.13727778 -0.15115465 0.021967433 -0.121784724 -0.3727273 0.023824058 -0.025075397
0.21555741 -0.28383714 -0.07581694 -0.07082511 0.018014137 0.0658507 0.1083146 0.4745957
0.23001646 -0.07310689 -0.3181925 0.29150212 0.15106852 -0.32726407 0.09180357 0.050311845
-0.13650021 -0.48035896 0.23443604 -0.12622681 -0.05956475 -0.096124806 -0.32135698 -0.10036366
0.19010846 0.05168582 -0.49039525 -0.2690767 0.17501964 -0.037551872 0.02267114 0.032891434
0.5704742 0.25174513 -0.33473343 -0.20733269 -0.43143532 0.4240342 0.070595816 0.117197
-0.09136995 -0.38217953 0.13918768 0.44496277 -0.01143724 0.31624645 0.40289322 0.09227018
-0.1764686 -0.57137376 0.20431964 -0.08608026 -0.1429957 -0.32934007 -0.47331533 0.12134243
-0.46394026 0.3029547 -0.20193487 0.276128 -0.20719491 -0.43172336 0.17911968 -0.026703712
0.25176442 -0.09018715 -0.35650334 0.03127361 0.45073372 0.25002876 0.29631442 0.26486585
0.30022043 -0.09786605 -0.5445144 -0.012574733 0.027178396 -0.1946907 -0.3673663 -0.105836794
-0.026431538 -0.3061318 0.3110168 -0.3475481 0.06467338 -0.2336341 0.107034676 0.12056146
-0.08048767 0.041076645 -0.13833448 -0.20416017 -0.1931995 0.2292484 0.13458025 0.1388936
0.14521776 -0.074167445 -0.02074586 -0.028681323 0.032269076 -0.019052505 0.082827374 -0.17232992
-0.062442232 -0.13143982 -0.037447304 -0.008218256 -0.27425268 0.10497667 -0.1132395 -0.18931396
0.06604246 0.083258174 -0.014720461 0.05961667 -0.23223971 -0.07119994 0.46756768 -0.0074824006
0.052303154 0.50798607 0.3487853 -0.111115545 -0.52097905 -0.08268824 0.017245844 -0.1571841
-0.09922472 -0.3209888 0.20889105 -0.46800697 0.2625773 -0.3962772 0.076880656 0.033663914
00000000: d499 633d c5d0 02be 9555 c13d e867 583e
00000010: 993a dbbd defa 50be bdb6 943c 28e5 1d3e
00000020: 5c45 07be e2df 79be ac12 65be 2944 0b3e
00000030: 4e31 95be 8a2b ecbd 300d 23be 07c5 843d
00000040: c914 c33d 4d9b 47be 8230 a4be 57f9 8fbe
00000050: 8c82 a7be 4094 89be 1ff8 6e3e cece 57be
00000060: 77df cc3e ce21 893d f2ed be3c 446b 623e
00000070: 7214 4f3e f614 a43e 31d4 d7bd c2cc cf3e
00000080: b274 33bd 796a 2fbe 007a 8ebe 5cfc 0f3e
00000090: 66df 183d 75f3 e5bc f319 883e 08f6 1ebd
000000a0: 4453 86be 66fb f7bd c1d4 5bbe 8842 d33e
000000b0: f981 7c3d 8d5d bebd 1863 98bd 4f67 dcbe
000000c0: a81d 2a3d 6584 5ebe 9e6a 4a3e 46e7 233e
000000d0: 5a9c 7ebe fa38 97bd 2565 31bd ef0a 04bb
000000e0: 1ebd 8abe 8c92 0c3e 49c8 1abe 0cf5 b33c
000000f0: 456a f9bd 1dd6 bebe ac2a c33c eb6a cdbc
00000100: 15bb 5c3e 1a53 91be e945 9bbd c10c 91bd
00000110: 6292 933c bbdc 863d 0cd4 dd3d 35fe f23e
00000120: 6f89 6b3e 11b9 95bd 21ea a2be c43f 953e
00000130: b5b1 1a3e 288f a7be 8303 bc3d cb13 4e3d
00000140: b6c6 0bbe 9cf1 f5be 0010 703e 9a41 01be
00000150: 2bfa 73bd 15dd c4bd e788 a4be 768b cdbd
00000160: cbab 423e 83b4 533d 1615 fbbe 6cc4 89be
00000170: 5938 333e fecf 19bd d4b8 b93c 2bb9 063d
00000180: 990a 123f bde4 803e 2e62 abbe 054f 54be
00000190: 17e5 dcbe 031b d93e 8a94 903d fb04 f03d
000001a0: 2b20 bbbd 09ad c3be 3787 0e3e 29d2 e33e
000001b0: 4363 3bbc 0eeb a13e 0548 ce3e 26f8 bc3d
000001c0: 2fb4 34be 8d45 12bf 2b39 513e d94a b0bd
000001d0: 776d 12be 439f a8be 6356 f2be 6182 f83d
000001e0: 9489 edbe e11c 9b3e 04c8 4ebe a660 8d3e
000001f0: e72a 54be d80a ddbe 266b 373e bec1 dabc
00000200: 44e7 803e 0ab4 b8bd 9b87 b6be c218 003d
00000210: 92c6 e63e c503 803e 86b6 973e 7f9c 873e
00000220: 7eb6 993e ff6d c8bd 4c65 0bbf 4106 4ebc
00000230: 3aa5 de3c 005d 47be 7017 bcbe f6c0 d8bd
00000240: f486 d8bc 4fbd 9cbe 983d 9f3e d3f1 b1be
00000250: 7a73 843d c73d 6fbe ff34 db3d ede8 f63d
00000260: b8d6 a4bd fc3f 283d 8ea7 0dbe 5d0f 51be
00000270: 17d6 45be 18c0 6a3e 68cf 093e 203a 0e3e
00000280: f7b3 143e 1ae5 97bd 39f3 a9bc 18f5 eabc
00000290: 942c 043d 0014 9cbc 66a1 a93d 4177 30be
000002a0: 6dc3 7fbd 2998 06be 5862 19bd dda5 06bc
000002b0: d96a 8cbe 02fe d63d 1cea e7bd 85db 41be
000002c0: 4541 873d 4383 aa3d 172e 71bc 9c30 743d
000002d0: 3fd0 6dbe 46d1 91bd 0865 ef3e ed2e f5bb
000002e0: d53b 563d 600b 023f fd93 b23e 8c90 e3bd
000002f0: e25e 05bf 7458 a9bd 2847 8d3c def4 20be
00000300: 5436 cbbd a558 a4be 89e7 553e 9c9e efbe
00000310: 8870 863e d8e4 cabe 9b73 9d3d 2ce3 093d

encoder.h2o.bias f4 [8]
0.061696317 0.12400571 0.17372613 -0.018169729 -0.42335743 -0.56971437 -0.055589728 -0.25061533
00000000: 47b5 7c3d b5f6 fd3d 43e5 313e afd8 94bc
00000010: 4ec2 d8be cdd8 11bf 0eb2 63bd a750 80be

ode_func.net.0.weight f4 [64, 4]
0.038364965 -0.03338544 -0.085330375 0.18605034 0.0020314944 0.0419641 0.092067 0.08459984
-0.21620356 -0.059516586 0.035746906 -0.046558615 0.04819215 0.03828365 -0.0065890495 0.056294862
0.17054889 0.036343664 0.07333401 -0.09006153 -0.06747639 -0.11925318 0.0812592 -0.13454556
-0.045471746 0.02828527 0.014582311 -0.14833786 -0.09892272 0.06984149 0.071116984 -0.08914807
0.0019182917 0.00679999 -0.12772632 0.17082587 0.044060275 -0.06476201 0.061511487 -0.071321025
0.0105845295 -0.06823529 0.022451935 0.029534249 -0.09765556 0.043359153 -0.027822109 -0.10007802
0.1323021 -0.065360375 0.12830704 -0.01056625 0.015188901 -0.22220302 -0.013560954 -0.01032856
0.23304611 -0.018542856 0.14819716 -0.019742254 0.0148291215 -0.07564123 0.09896874 0.062173452
0.1150995 -0.063948475 -0.052149475 0.0731384 0.015463568 0.08089808 -0.0389729 0.07097321
0.14203183 -0.012710808 0.06704738 0.062600605 -0.08325901 -0.08069285 -0.018755944 0.110776395
-0.0853269 -0.08036183 -0.021221085 0.09785193 -0.2425268 -0.010819749 -0.18644495 0.11352377
0.15659495 -0.034601454 0.11221154 -0.12617661 -0.061782386 0.110328786 -0.08037203 0.03911452
0.087568186 -0.008643369 0.0929382 0.06468602 0.13441247 -0.048323307 0.010594859 0.12622929
-0.021388557 -0.108924635 0.024956062 0.10450954 -0.05384676 -0.07924234 0.17067368 0.11412582
0.034916304 -0.0975755 0.08730895 -0.01273688 0.055617113 0.02254331 -0.08311172 0.027534988
-0.00108714 -0.124616094 0.016813181 0.11852846 0.04866384 0.149147 -0.21463078 -0.10629037
-0.056758072 -0.15439256 0.014829036 0.079852134 -0.0890927 -0.18544629 0.1707729 -0.1572334
-0.012217146 -0.18827114 0.055594865 0.18957713 -0.08041788 0.048348315 0.12683389 -0.10486444
0.09003751 -0.041008715 -0.00833457 0.12663512 0.14591369 0.10492873 0.11437519 -0.058400117
-0.0059332494 0.08077487 0.033154726 -0.04083673 0.16513848 0.1134548 0.07351473 -0.07267501
0.026062002 0.15976849 0.123276584 0.049857967 0.06765767 0.006577798 -0.06794537 -0.06467541
-0.018519737 -0.036488783 -0.04838551 0.17600839 -0.041777078 0.17973189 -0.044609576 0.057026844
0.032056343 -0.043360528 0.07738951 -0.111917876 0.032711294 0.087369755 -0.014877017 -0.044450726
-0.11326776 0.19210471 0.03557511 -0.14181443 0.028389862 0.009430316 -0.14018075 0.097810395
-0.06795696 0.04020631 -0.0428396 -0.0813709 -0.08204683 -0.05830701 -0.09214093 0.13513985
-0.056382686 0.18316278 -0.027017526 0.12259003 0.029298244 0.06946425 0.014988558 0.079635546
-0.14150433 0.15186982 0.17171976 0.13222297 0.038082026 -0.03433136 -0.013196336 -0.07821939
-0.12980695 -0.1966022 -0.12136032 0.03428029 0.27758485 0.10205054 0.060875032 -0.11401709
0.015403836 -0.08257159 0.0014233408 0.013282985 -0.16361687 -0.025772465 -0.019785237 -0.11769038
0.069933265 -0.08856141 -0.010237866 0.079324745 0.11969492 0.27867463 -0.12407568 -0.025508424
-0.015685122 0.22312507 -0.07150696 -0.056739252 0.035061643 -0.13397788 -0.007328184 0.044829752
0.018573016 0.0027777802 0.1285729 -0.1725459 0.008359729 -0.057293404 0.13165018 -0.004060704
00000000: 9524 1d3d 2cbf 08bd b1c1 aebd fb83 3e3e
00000010: d222 053b 8ce2 2b3d a08d bc3d ae42 ad3d
00000020: 7764 5dbe aac7 73bd 596b 123d 3fb4 3ebd
00000030: 2265 453d 51cf 1c3d f4e8 d7bb 7195 663d
00000040: 5ea4 2e3e 18dd 143d 2430 963d 2e72 b8bd
00000050: 1031 8abd 033b f4bd 396b a63d 50c6 09be
00000060: 9540 3abd 83b6 e73c a5ea 6e3c e1e5 17be
00000070: ff97 cabd 0e09 8f3d c8a5 913d 4393 b6bd
00000080: 306f fb3a 73d2 de3b b0ca 02be faec 2e3e
00000090: 8c78 343d f2a1 84bd 78f3 7b3d c210 92bd
000000a0: bc6a 2d3c f2be 8bbd 1fed b73c cff1 f13c
000000b0: a3ff c7bd 5e99 313d 31eb e3bc b4f5 ccbd
000000c0: 347a 073e a9db 85bd ec62 033e 111e 2dbc
000000d0: deda 783c 3089 63be c32e 5ebc 1f39 29bc
000000e0: a4a3 6e3e 30e7 97bc ffc0 173e 82ba a1bc
000000f0: d8f5 723c cae9 9abd 1fb0 ca3d 97a9 7e3d
00000100: 49b9 eb3d 6bf7 82bd b09a 55bd 96c9 953d
00000110: e85a 7d3c e4ad a53d 0ca2 1fbd 675a 913d
00000120: cb70 113e fe40 50bc 2350 893d bf34 803d
00000130: b383 aabd 4b42 a5bd 11a6 99bc bcde e23d
00000140: dfbf aebd be94 a4bd d7d7 adbc 9866 c83d
00000150: f258 78be 5145 31bc 6deb 3ebe 267f e83d
00000160: 6d5a 203e 41ba 0dbd 2acf e53d 7134 01be
00000170: 870f 7dbd 0ff4 e13d 179a a4bd 8c36 203d
00000180: f356 b33d eb9c 0dbc 6256 be3d 1b7a 843d
00000190: 6ca3 093e a9ee 45bd 0f96 2d3c 4042 013e
000001a0: 0e37 afbc e113 dfbd a870 cc3c 1909 d63d
000001b0: 6c8e 5cbd cf49 a2bd 15c5 2e3e ccba e93d
000001c0: 6604 0f3d aad5 c7bd 09cf b23d 59ae 50bc
000001d0: c5ce 633d bfac b83c 7a36 aabd 0e91 e13c
000001e0: 5d7e 8eba b936 ffbd ccbb 893c 0dbf f23d
000001f0: bc53 473d feb9 183e 2cc8 5bbe c4ae d9bd
00000200: 277b 68bd 1519 1ebe 7cf5 723c 8489 a33d
00000210: 3c76 b6bd a2e5 3dbe 17df 2e3e cb01 21be
00000220: 6d2a 48bc 26ca 40be 71b7 633d 8220 423e
00000230: 21b2 a4bd e208 463d bee0 013e 2bc3 d6bd
00000240: 9665 b83d c1f8 27bd b88d 08bc a3ac 013e
00000250: 666a 153e e0e4 d63d 8a3d ea3d f634 6fbd
00000260: b46b c2bb 4c6d a53d 40cd 073d 6a44 27bd
00000270: 101a 293e fd5a e83d e48e 963d a3d6 94bd
00000280: fb7f d53c 5a9a 233e 6f78 fc3d de37 4c3d
00000290: 1b90 8a3d 928a d73b f126 8bbd 8b74 84bd
000002a0: b4b6 97bc 4375 15bd e22f 46bd 8b3b 343e
000002b0: 711e 2bbd a30b 383e 88b8 36bd fb94 693d
000002c0: 834d 033d cf9a 31bd 647e 9e3d 3335 e5bd
000002d0: 47fc 053d eaee b23d bbbe 73bc f711 36bd
000002e0: edf8 e7bd 19b7 443e 35b7 113d cd37 11be
000002f0: db91 e83c 9d81 1a3c 8b8b 0fbe d150 c83d
00000300: 052d 8bbd 5faf 243d 9478 2fbd c9a5 a6bd
00000310: 2b08 a8bd 55d3 6ebd 62b4 bcbd 1a62 0a3e
00000320: 88f1 66bd 068f 3b3e dc53 ddbc 7b10 fb3d
00000330: df02 f03c 4643 8e3d 9292 753c f617 a33d
00000340: 83e6 10be c383 1b3e 4ed7 2f3e 7565 073e
00000350: e6fb 1b3d 0a9f 0cbd 7235 58bc 7d31 a0bd
00000360: 1dec 04be 1652 49be c28b f8bd 7d69 0c3d
00000370: 9a1f 8e3e e0ff d03d 1958 793d cb81 e9bd
00000380: 5f60 7c3c 4b1b a9bd 648f ba3a e1a0 593c
00000390: 2e8b 27be c720 d3bc a614 a2bc a707 f1bd
000003a0: 2c39 8f3d af5f b5bd b9bc 27bc 0375 a23d
000003b0: 9c22 f53d 71ae 8e3e 641b febd 0bf7 d0bc
000003c0: 167e 80bc e67a 643e 3e72 92bd 6b67 68bd
000003d0: cc9c 0f3d 7f31 09be 4321 f0bb 679f 373d
000003e0: 7026 983c 6b0b 363b 9da8 033e dfaf 30be
000003f0: 3ff7 083c 7dac 6abd 4ecf 063e a70f 85bb

ode_func.net.0.bias f4 [64]
0.019866947 -0.0022412736 0.008142284 -0.001344639 -0.03102747 0.0327421 -0.08329032 -0.05186145
0.048821066 -0.0037514407 0.016165497 -0.017578466 0.021850357 -0.00823808 -0.0026340517 0.018863587
0.03971093 0.0055267485 0.0856867 0.009099478 0.0155382315 -0.016378097 0.004274622 0.014268759
0.035113264 0.08634407 0.029060215 0.01254632 -0.0008156764 -0.0065138326 0.03753337 -0.059466083
0.0017600063 0.020974824 0.028767882 -0.00706646 0.043752365 -0.02661778 -0.012254752 -0.05812001
0.00040075427 -0.003896849 0.027780846 -0.026995644 -0.047274753 -0.04278522 -0.08782222 0.029403478
-0.042548187 0.039741952 0.033977557 -0.012189324 0.015429034 0.023268003 -0.012528189 -0.0408936
0.010877 -0.03205168 0.026786204 0.008511528 0.031063076 -0.009232722 -0.043437086 0.018869553
00000000: 02c0 a23c 55e2 12bb 3767 053c 993e b0ba
00000010: 522d febc 951c 063d 1e94 aabd ac6c 54bd
00000020: 99f8 473d bbda 75bb 816d 843c b700 90bc
00000030: 85ff b23c 03f9 06bc 0ea0 2cbb cf87 9a3c
00000040: eea7 223d ba19 b53b 827c af3d fa15 153c
00000050: 1194 7e3c 5c2b 86bc 2112 8c3b 83c7 693c
00000060: edd2 0f3d 29d5 b03d b00f ee3c 158f 4d3c
00000070: 1ed3 55ba fd71 d5bb 97bc 193d b592 73bd
00000080: 03b0 e63a 65d3 ab3c 9faa eb3c c38d e7bb
00000090: ae35 333d 880d dabc 28c8 48bc 3f0f 6ebd
000000a0: 541c d239 4762 7fbb a894 e33c f825 ddbc
000000b0: 2ca3 41bd 8e3f 2fbd 23dc b3bd 90df f03c
000000c0: 0247 2ebd 75c8 223d 0d2c 0b3d bbb5 47bc
000000d0: 0fca 7c3c 8a9c be3c 0943 4dbc 0c80 27bd
000000e0: 7235 323c 9f48 03bd be6e db3c f073 0b3c
000000f0: fe77 fe3c d844 17bc 16eb 31bd 5294 9a3c

ode_func.net.2.weight f4 [64, 64]
0.21073389 -0.03397205 -0.0034918156 -0.030997893 -0.27301544 -0.007620959 -0.11902052 -0.081935816
0.24706136 0.028311476 -0.042211685 0.049650643 -0.06868134 0.011588274 -0.19668019 -0.017921763
0.31919938 0.088324636 0.18763195 0.09085214 0.21995755 0.2355107 -0.30970818 0.05873922
0.123011254 0.0029285336 0.18650787 0.103022136 -0.12775417 0.04180607 -0.12862588 0.03238645
0.10271556 -0.15406254 -0.21918078 -0.12936136 0.10556894 -0.16098297 0.08047728 -0.2645161
-0.22379524 -0.19467968 0.16937543 -0.0059582205 -0.21903177 -0.15202004 0.031000838 0.18018742
0.08660867 0.15252233 0.12403079 0.01924494 -0.008264433 -0.15008084 0.08192725 -0.11594583
-0.12929983 -0.09306822 0.14380783 0.10636452 0.11616326 0.15561202 0.013513406 -0.097353704
-0.0008525817 -0.11799359 0.023916917 -0.04530746 -0.057488296 -0.07322226 0.11729491 0.046302214
-0.080471955 -0.011069433 0.09757787 0.2569199 -0.17530887 0.027062075 -0.031551763 0.17401585
0.029780254 0.008165319 0.10197127 -0.020135125 -0.124795936 -0.05044856 -0.030644074 -0.12732261
0.028066449 -0.06259394 0.27670655 -0.0061463634 -0.01450948 -0.010976954 0.18313938 0.035417087
-0.014850815 -0.011398324 0.04084388 0.11616334 -0.09020355 -0.056019917 -0.32687798 -0.16509287
-0.049817108 -0.14813206 -0.033346012 -0.11287448 0.15881866 0.036578245 -0.0681599 0.05637892
-0.06898788 -0.06785529 0.038018815 0.0693049 0.034586716 0.07985096 -0.04327673 0.033538494
0.1967892 0.18742195 -0.06443704 0.14722733 -0.15032218 0.19755149 0.07472052 0.05428814
-0.06969644 -0.024403755 -0.13042931 -0.072664805 -0.03359865 0.06636434 0.137925 0.11659618
-0.037017565 0.16373587 0.016002817 -0.10302496 0.053102907 -0.065127656 -0.15026642 0.081630275
-0.24394834 -0.012835787 0.06481784 -0.012633596 0.03669161 0.0076857335 0.15316612 0.19596036
-0.24617115 -0.074311934 0.09791715 -0.12197468 0.020657515 -0.032935873 0.06789776 -0.09130139
0.1867097 -0.04577755 0.05342484 -0.04081201 -0.119517416 0.09984895 0.023048986 -0.12666196
-0.08542634 0.06604611 0.06545553 -0.000749937 -0.13336778 -0.0025139933 0.1480982 -0.015718475
0.16203365 -0.17847987 -0.007531236 -0.01757596 0.03573589 0.06886583 -0.13456556 -0.0034407647
-0.11065695 0.10733438 -0.03545345 0.034375813 -0.015425535 0.030026974 0.024085443 -0.15676613
0.02764023 -0.27180076 0.099799134 0.155557 -0.23900212 -0.14338024 0.07906304 0.09981996
0.07860558 -0.18008254 -0.0029074405 -0.0075681573 -0.23659258 -0.08509852 0.11196542 -0.035806607
-0.0077394187 -0.01539131 0.004996969 -0.013148572 0.022393113 0.08167501 -0.09410424 0.14631887
-0.05445365 -0.020023922 -0.045995932 -0.0084748035 0.032626376 0.016681701 -0.0018086365 0.030074758
0.07707655 -0.11650503 -0.002300199 -0.036927752 -0.024149561 0.06314325 0.12238394 0.046108883
-0.09476746 -0.0087246485 -0.027759442 -0.07078462 -0.0530291 0.11922239 -0.05351106 0.031000448
0.056411445 -0.048997488 -0.089397125 -0.023783498 -0.08740867 0.12916113 0.085983686 -0.24194822
-0.16564961 0.010576708 -0.1979781 -0.11744331 0.122456655 -0.15997307 -0.103292964 -0.17603827
00000000: a0ca 573e 4726 0bbd f2d6 64bb 4bef fdbc
00000010: aec8 8bbe 3db9 f9bb 08c1 f3bd f7cd a7bd
00000020: a7fd 7c3e 78ed e73c 29e6 2cbd 795e 4b3d
00000030: cda8 8cbd bedc 3d3c 8866 49be a9d0 92bc
00000040: 1a6e a33e 8ce3 b43d 9722 403e b010 ba3d
00000050: 8d3c 613e b829 713e 1292 9ebe 8998 703d
00000060: 53ed fb3d a4ec 3f3b ebfb 3e3e 45fd d23d
00000070: fdd1 02be d73c 2b3d 81b6 03be a7a7 043d
00000080: 895c d23d 92c2 1dbe ed70 60be 4e77 04be
00000090: 8734 d83d b8d8 24be 46d1 a43d a76e 87be
000000a0: 942a 65be 1c5a 47be c170 2d3e 2d3d c3bb
000000b0: dd49 60be 24ab 1bbe 78f5 fd3c 0d83 383e
000000c0: e35f b13d d02e 1c3e db03 fe3d 90a7 9d3c
000000d0: 8b67 07bc cbae 19be 79c9 a73d 0275 edbd
000000e0: 2d67 04be 8d9a bebd 5c42 133e a4d5 d93d
000000f0: 01e7 ed3d c258 1f3e 5567 5d3c 6161 c7bd
00000100: ca7f 5fba a0a6 f1bd 69ed c33c 5194 39bd
00000110: d978 6bbd 8df5 95bd 5038 f03d 64a7 3d3d
00000120: 7bce a4bd 915c 35bc e8d6 c73d 018b 833e
00000130: 2b84 33be 49b1 dd3c 6c3c 01bd 3631 323e
00000140: b8f5 f33c d5c7 053c 50d6 d03d 6bf2 a4bc
00000150: 0395 ffbd 26a3 4ebd 4809 fbbc dc60 02be
00000160: 9ceb e53c 4031 80bd 7bac 8d3e 6f67 c9bb
00000170: 2cb9 6dbc afd8 33bc e488 3b3e 8211 113d
00000180: d550 73bc 09c0 3abc ea4b 273d 0ce7 ed3d
00000190: a4bc b8bd 2475 65bd 8d5c a7be 1b0e 29be
000001a0: 060d 4cbd eeaf 17be d495 08bd bc2a e7bd
000001b0: 5ca1 223e 12d3 153d 6b97 8bbd 95ed 663d
000001c0: 8549 8dbd b7f7 8abd 9eb9 1b3d baef 8d3d
000001d0: cdaa 0d3d e688 a33d f142 31bd a95f 093d
000001e0: 1c83 493e 8aeb 3f3e 91f7 83bd c3c2 163e
000001f0: 0fee 19be f04a 4a3e 1207 993d 3e5d 5e3d
00000200: 02bd 8ebd 62ea c7bc 438f 05be 49d1 94bd
00000210: bd9e 09bd 07ea 873d 363c 0d3e fac9 ee3d
00000220: bb9f 17bd 60aa 273e 5718 833c c0fe d2bd
00000230: 6f82 593d a661 85bd 71df 19be c62d a73d
00000240: 98cd 79be 314d 52bc 37bf 843d 24fd 4ebc
00000250: f149 163d 9bd8 fb3b 94d7 1c3e d5a9 483e
00000260: 4a14 7cbe db30 98bd c988 c83d dccd f9bd
00000270: f339 a93c c4e7 06bd fb0d 8b3d 39fc babd
00000280: d430 3f3e 3e81 3bbd 01d4 5a3d 7f2a 27bd
00000290: 8cc5 f4bd 9b7d cc3d 3ad1 bc3c acb3 01be
000002a0: 01f4 aebd 2f43 873d 8d0d 863d 6c97 44ba
000002b0: 9091 08be cfc1 24bb 0ea7 173e 08c4 80bc
000002c0: 26ec 253e 6dc3 36be 96c8 f6bb 76fb 8fbc
000002d0: cc5f 123d 8709 8d3d 8ecb 09be 747e 61bb
000002e0: 1ca0 e2bd 21d2 db3d a337 11bd a7cd 0c3d
000002f0: 62bb 7cbc 21fb f53c d64e c53c 4d87 20be
00000300: c36d e23c 7829 8bbe 7d63 cc3d 564a 1f3e
00000310: f9bc 74be 45d2 12be ceeb a13d 686e cc3d
00000320: f6fb a03d 8f67 38be c28a 3ebb 4efe f7bb
00000330: 5345 72be 2248 aebd 204e e53d f3a9 12bd
00000340: f39a fdbb d52b 7cbc 9dbd a33b 1c6d 57bc
00000350: c371 b73c 3a45 a73d b9b9 c0bd 9dd4 153e
00000360: ca0a 5fbd 3509 a4bc 3b66 3cbd e7d9 0abc
00000370: 3ca3 053d 10a8 883c c50f edba 575f f63c
00000380: 4fda 9d3d 309a eebd efbe 16bb 8e41 17bd
00000390: 4dd5 c5bc 4051 813d 6ea4 fa3d abdc 3c3d
000003a0: 7115 c2bd d4f1 0ebc c567 e3bc 87f7 90bd
000003b0: 0b35 59bd de2a f43d 6a2e 5bbd a7f4 fd3c
000003c0: b00f 673d 97b1 48bd d715 b7bd 9cd5 c2bc
000003d0: 5103 b3bd d142 043e 3718 b03d 46c1 77be
000003e0: 0da0 29be ee49 2d3c c5ba 4abe 1e86 f0bd
000003f0: 8eca fa3d fbcf 23be 438b d3bd 6043 34be

ode_func.net.2.bias f4 [64]
0.049854007 -0.0034456193 -0.0015062896 0.0051390706 -0.050145127 -0.014743633 -0.014144492 -0.002001218
-0.00019465093 0.006222803 -0.003345767 -0.0060831597 0.05202797 -0.0020686574 -0.03937543 -0.021864083
0.008317802 0.049267836 -0.008828258 -0.0079993475 -0.044431172 -0.037719674 -0.01719914 -0.015141282
-0.005573125 0.046498902 -0.00937921 0.0395019 -0.026073076 0.02154163 -0.025044443 -0.02505537
0.00071085355 0.004948569 0.0039991564 0.00096156896 0.025007967 -0.0067617777 0.0066163163 0.0005842461
-0.03257473 -0.026253618 0.02010085 0.0008163892 0.0055848933 0.015034572 -0.008904629 0.011144376
-0.0047805985 -0.0022726632 -0.009624116 -0.012323772 0.0071427547 0.03206577 -0.006680465 0.027918713
-0.041120254 0.0015633235 -0.014996661 -0.0029118357 -0.020655248 -0.021885362 -0.011181186 -0.0017849498
00000000: b733 4c3d e6cf 61bb b16e c5ba a665 a83b
00000010: fa64 4dbd 478f 71bc 4dbe 67bc de26 03bb
00000020: 361b 4cb9 a8e8 cb3b a844 5bbb 3e55 c7bb
00000030: 481b 553d 5092 07bb 2248 21bd 4e1c b3bc
00000040: 6447 083c 12cd 493d 66a4 10bc b20f 03bc
00000050: 76fd 35bd f27f 1abd 36e5 8cbc 2413 78bc
00000060: c39e b6bb a275 3e3d 42ab 19bc bfcc 213d
00000070: 3497 d5bc 1378 b03c 012a cdbc eb40 cdbc
00000080: 9358 3a3a 9b27 a23b 5b0b 833b cd11 7c3a
00000090: 82dd cc3c e791 ddbb afcd d83b 1828 193a
000000a0: 156d 05bd d411 d7bc 8aaa a43c f402 563a
000000b0: 7b01 b73b 9153 763c b9e4 11bc e796 363c
000000c0: 91a6 9cbb f6f0 14bb 78ae 1dbc a5e9 49bc
000000d0: c50d ea3b 6657 033d cde7 dabb c9b5 e43c
000000e0: b66d 28bd 6fe8 cc3a 8eb4 75bc 7fd4 3ebb
000000f0: 3235 a9bc ee48 b3bc 4b31 37bc faf4 e9ba

ode_func.net.4.weight f4 [4, 64]
0.032025024 0.15453944 -0.062429834 -0.04558001 -0.059660427 -0.080528624 0.0801229 0.13353151
-0.09212501 0.022523781 0.122675486 -0.3036004 -0.09985707 -0.09282239 -0.09679306 -0.010422481
-0.1363682 -0.03840426 0.1236838 0.084560744 -0.06020373 0.057898417 0.21625066 0.0548223
-0.14233187 0.06929562 0.14781173 0.022368504 -0.030688992 0.028169291 0.023949929 -0.052573126
-0.09013241 0.037843876 -0.12829643 -0.06990334 -0.07069167 0.11831584 -0.08174133 0.18548606
-0.034042493 -0.023901435 0.046446215 0.16037832 -0.06095067 -0.24394996 0.13719968 -0.121718444
-0.24118002 -0.17273606 0.20342039 -0.19973394 0.18300894 0.23157418 0.24534096 0.0700271
-0.061383225 -0.015590537 0.05380095 -0.15146925 -0.035444587 0.11905528 -0.19853596 0.14624715
0.12589148 0.008564167 -0.05385176 -0.23360285 0.06668585 -0.25701004 0.17329805 0.045210645
-0.09656162 0.23325984 0.029257191 -0.03204912 0.06215653 -0.1909435 0.17760114 -0.22871867
0.11659271 0.05048306 -0.072636105 -0.018313076 0.06734665 -0.043181065 -0.0018261026 0.122146696
-0.16392922 0.16238499 -0.0052128388 -0.038298283 0.13341425 -0.029185088 -0.24860431 0.117021985
-0.1772029 0.1637184 0.03343272 0.100951456 0.21941583 0.003590181 -0.067458354 0.02628271
-0.14276475 -0.067706615 -0.1357079 0.006864805 -0.05740916 0.16824542 -0.1549044 0.29825407
-0.031767756 -0.15757364 0.008697484 0.09988573 -0.1537702 -0.009600183 0.041025188 -0.023547603
-0.07950755 0.26852882 0.0538046 -0.20711872 -0.015201444 0.09977286 -0.039193828 0.0046263533
0.4113976 0.04833645 0.036791734 0.11539817 -0.2774219 -0.109886765 -0.22073647 -0.022592401
0.011204481 0.20481555 -0.07937452 -0.1445075 0.28290957 0.0058175074 -0.20653307 0.12587169
0.016818538 0.26181713 -0.14842416 -0.0120726405 0.053637847 -0.24511415 0.022076793 -0.11118553
0.048021093 0.028895613 -0.0077979043 0.20037292 -0.16320272 0.25913334 -0.0214839 -0.075805396
0.11575554 -0.041147597 0.019084666 -0.065130584 -0.01313391 -0.12867093 0.107516244 -0.19838564
-0.09068361 0.06641375 0.1991992 0.12258929 0.09364772 0.042931553 0.07503733 0.15171365
-0.053716794 -0.016718414 -0.080951706 -0.16271049 0.0671243 -0.00804851 -0.0847941 -0.115181185
0.025360512 0.105697595 -0.28059086 -0.010282334 0.0011571802 -0.47163248 -0.012314011 0.16069786
-0.021611044 0.07110118 0.12078726 0.029839605 -0.07812261 -0.0023151236 -0.09524848 0.08042399
-0.041930374 0.060630515 0.17661516 -0.072497524 0.22421558 0.14026985 -0.018150361 0.16001418
-0.04249791 -0.025969557 0.018026864 0.27418157 0.17507955 0.02182437 0.2167999 -0.043294445
0.021271188 -0.049685895 0.04138683 0.070574075 -0.051050182 -0.09941861 0.07764857 0.052982878
-0.059624743 -0.06966294 -0.10413536 -0.027275627 -0.0036014775 -0.24350552 -0.049873937 -0.21683201
0.029334314 0.19754353 -0.043498 0.11673889 -0.034545187 -0.10838991 0.14529078 0.11975528
-0.07427113 0.007477895 0.065548435 -0.18264334 0.028543912 -0.053702757 0.07812881 -0.19972652
0.14821494 0.0027334918 0.021960678 -0.02757824 0.13835283 -0.007297341 -0.04869566 0.2125149
00000000: ac2c 033d 963f 1e3e 6db6 7fbd 1bb2 3abd
00000010: 7e5e 74bd 31ec a4bd 7a17 a43d 7cbc 083e
00000020: 0aac bcbd cb83 b83c 493d fb3d 8371 9bbe
00000030: dd81 ccbd aa19 bebd 713b c6bd 0ec3 2abc
00000040: 1ba4 0bbe c94d 1dbd ef4d fd3d 2f2e ad3d
00000050: 3098 76bd e426 6d3d d070 5d3e 598d 603d
00000060: 72bf 11be ddea 8d3d f55b 173e 273e b73c
00000070: 7b67 fbbc 49c3 e63c a432 c43c eb56 57bd
00000080: 5797 b8bd 2e02 1b3d 2460 03be 7b29 8fbd
00000090: cbc6 90bd 934f f23d 0068 a7bd 0ff0 3d3e
000000a0: 2470 0bbd f1cc c3bc 633e 3e3d 373a 243e
000000b0: 69a7 79bd 05ce 79be 137e 0c3e 8547 f9bd
000000c0: e5f7 76be b9e1 30be 6f4d 503e 0e87 4cbe
000000d0: b266 3b3e c821 6d3e a93a 7b3e 5e6a 8f3d
000000e0: fa6c 7bbd 746f 7fbc 635e 5c3d c11a 1bbe
000000f0: 582e 11bd 41d3 f33d 034d 4bbe d0c1 153e
00000100: b2e9 003e b850 0c3c aa93 5cbd 9635 6fbe
00000110: 9792 883d d296 83be 0b75 313e cc2e 393d
00000120: 19c2 c5bd abdb 6e3e c7ac ef3c f045 03bd
00000130: d897 7e3d b186 43be 13dd 353e 3a35 6abe
00000140: 29c8 ee3d 53c7 4e3d 3dc2 94bd 4e05 96bc
00000150: 0aed 893d a1de 30bd d659 efba 0c28 fa3d
00000160: 10dd 27be 4048 263e 76d0 aabb a9de 1cbd
00000170: bf9d 083e 9115 efbc 2192 7ebe 39a9 ef3d
00000180: ad74 35be cca5 273e bff0 083d a3bf ce3d
00000190: 8bae 603e 3e49 6b3b 9b27 8abd d64e d73c
000001a0: ec30 12be c4a9 8abd 03f7 0abe 28f2 e03b
000001b0: de25 6bbd 8748 2c3e 429f 1ebe c2b4 983e
000001c0: e81e 02bd fc5a 21be e47f 0e3c e490 cc3d
000001d0: ef75 1dbe 164a 1dbc 070a 283d e7e6 c0bc
000001e0: dbd4 a2bd 9c7c 893e 3662 5c3d ee16 54be
000001f0: 7a0f 79bc b755 cc3d b589 20bd aa98 973b
00000200: b5a2 d23e 71fc 453d eeb2 163d e055 ec3d
00000210: 3e0a 8ebe 500c e1bd be08 62be b313 b9bc
00000220: 0093 373c 2bbb 513e 1c8f a2bd c6f9 13be
00000230: 86d9 903e caa0 be3b 687d 53be 82e4 003e
00000240: 08c7 893c e50c 863e 81fc 17be 53cc 45bc
00000250: 5cb3 5b3d 34ff 7abe 64da b43c 3db5 e3bd
00000260: c4b1 443d 7eb6 ec3c 9085 ffbb 8f2e 4d3e
00000270: 9d1e 27be 20ad 843e 01ff afbc dc3f 9bbd
00000280: 3e11 ed3d 628a 28bd 7257 9c3c 2f63 85bd
00000290: 9c2f 57bc 50c2 03be 7a31 dc3d 9b25 4bbe
000002a0: 54b8 b9bd ef03 883d e0fa 4b3e 1810 fb3d
000002b0: 60ca bf3d ffd8 2f3d 2cad 993d d35a 1b3e
000002c0: 2406 5cbd 0ef5 88bc 02ca a5bd 949d 26be
000002d0: 7778 893d e6dd 03bc 87a8 adbd 1de4 ebbd
000002e0: d9c0 cf3c fb77 d83d 9ba9 8fbe 3c77 28bc
000002f0: 86ac 973a d079 f1be b5c0 49bc fb8d 243e
00000300: a509 b1bc 7f9d 913d 505f f73d 3072 f43c
00000310: bffe 9fbd 54b9 17bb a311 c3bd 55b5 a43d
00000320: 2fbf 2bbd b457 783d 9bda 343e 9579 94bd
00000330: c598 653e e6a2 0f3e 11b0 94bc c2da 233e
00000340: 4a12 2ebd 1cbe d4bc 13ad 933c 8761 8c3e
00000350: 0e48 333e 05c9 b23c cb00 5e3e 8455 31bd
00000360: ea40 ae3c 7083 4bbd 3d85 293d 2489 903d
00000370: ff19 51bd fc9b cbbd 3706 9f3d 9304 593d
00000380: 1339 74bd 72ab 8ebd eb44 d5bd 2371 dfbc
00000390: c406 6cbb 8359 79be 9d48 4cbd 3609 5ebe
000003a0: 844e f03c da48 4a3e f52a 32bd cd14 ef3d
000003b0: 417f 0dbd 87fb ddbd 1bc7 143e 4242 f53d
000003c0: 761b 98bd 2109 f53b 423e 863d db06 3bbe
000003d0: ecd4 e93c 6cf7 5bbd ff01 a03d 1c85 4cbe
000003e0: a8c5 173e 6224 333b e1e6 b33c c3eb e1bc
000003f0: 5dac 0d3e 881e efbb 1a75 47bd 829d 593e

ode_func.net.4.bias f4 [4]
0.0072397934 -0.009886966 0.01839702 -0.012516964
00000000: ca3b ed3b f1fc 21bc 59b5 963c f413 4dbc

decoder.fc1.weight f4 [25, 4]
-0.6956254 -0.109418735 0.27268368 0.09198099 0.38416365 0.45191506 0.2997152 0.26514047
-0.08227379 -0.057256036 0.45417804 0.78320825 -0.95989615 0.65875065 -0.0006772105 0.2932563
0.9613357 -0.16080928 0.24205863 -0.38752466 0.025273694 0.412433 0.028518675 -0.336822
-0.21378462 -0.42907608 0.24881546 -0.30464116 0.76066554 -0.21329269 0.060445644 -0.22978625
0.4586569 0.29176614 -0.16052464 0.3983504 -0.36543575 -0.087739006 0.042867105 0.031096444
-0.26854452 -0.29909888 -0.22657184 -0.62373096 0.15745743 0.27909684 -0.44967344 -0.22810316
0.26571697 -0.30300704 -0.27506462 0.11763454 0.83883315 -0.18817465 -0.3688638 0.056476444
0.41889256 0.73097056 -0.39122295 0.0015058309 0.19776621 0.49293247 0.0032717092 0.1106248
-0.5783547 -0.6064918 -0.0838682 -0.009238465 0.74635935 -0.40071216 -0.43389612 0.12002043
0.23842244 -0.5959092 -0.1731558 0.1275586 -0.11877607 0.027990315 0.2756664 0.79699576
0.21923769 -0.30662516 -0.8727924 -0.83366734 -0.21747008 0.06007998 0.048855983 0.38024017
-0.8039175 -0.16418123 0.10363892 -0.045960877 -0.29787195 -0.5344703 0.42037278 0.4686254
-0.22266771 0.4818215 0.40281746 -0.22408946
00000000: 8214 32bf ee16 e0bd 329d 8b3e 8760 bc3d
00000010: 19b1 c43e 6961 e73e 4574 993e 7ec0 873e
00000020: 297f a8bd 4e85 6abd 068a e83e 5680 483f
00000030: c1bb 75bf e2a3 283f d486 31ba b125 963e
00000040: 191a 763f 30ab 24be 38de 773e a269 c6be
00000050: c70a cf3c 6b2a d33e ff9f e93c ef73 acbe
00000060: 5bea 5abe dcaf dbbe 7bc9 7e3e edf9 9bbe
00000070: faba 423f 6669 5abe da95 773d 164d 6bbe
00000080: 14d5 ea3e 5f62 953e 9260 24be 95f4 cb3e
00000090: 651a bbbe 82b0 b3bd 6b95 2f3d f8bd fe3c
000000a0: ab7e 89be 7d23 99be 7302 68be d5ac 1fbf
000000b0: 853c 213e c8e5 8e3e 993b e6be e093 69be
000000c0: 0e0c 883e bd23 9bbe 45d5 8cbe 61ea f03d
000000d0: c5bd 563f dbb0 40be b7db bcbe d853 673d
000000e0: 1679 d63e e320 3b3f 604e c8be 4d5f c53a
000000f0: 3a83 4a3e a561 fc3e 2c6a 563b 418f e23d
00000100: 0e0f 14bf 0c43 1bbf 17c3 abbd ee5c 17bc
00000110: 6811 3f3f 252a cdbe a227 debe 45cd f53d
00000120: 0325 743e 818d 18bf c14f 31be b99e 023e
00000130: de40 f3bd f24b e53c 2524 8d3e ea07 4c3f
00000140: d87f 603e f9fd 9cbe 536f 5fbf 396b 55bf
00000150: 7ab0 5ebe 6d16 763d 361d 483d d7ae c23e
00000160: 8acd 4dbf 201f 28be a440 d43d 7941 3cbd
00000170: ac82 98be 0cd3 08bf 1a3b d73e abef ef3e
00000180: 0103 64be 4fb1 f63e 173e ce3e b577 65be

decoder.fc1.bias f4 [25]
0.09458342 0.15186068 0.242897 -0.06867655 -0.2511813 0.4147491 0.14896211 -0.11882263
0.4677659 -0.24987306 -0.3121378 -0.3960306 0.060290806 0.028604388 0.63526255 0.5477707
0.6078336 0.10359254 -0.013760335 0.19393806 -0.0114915185 0.31391293 0.3405111 0.2020905
-0.17045864
00000000: f4b4 c13d 5e81 1b3e feb9 783e 4ba6 8cbd
00000010: d69a 80be fe59 d43e 8689 183e 4759 f3bd
00000020: 037f ef3e b9de 7fbe 87d0 9fbe 86c4 cabe
00000030: 7ef3 763d c053 ea3c 91a0 223f b33a 0c3f
00000040: fc9a 1b3f 5328 d43d 0773 61bc b397 463e
00000050: ec46 3cbc 32b9 a03e 7957 ae3e d0f0 4e3e
00000060: b68c 2ebe

decoder.fc2.weight f4 [2, 25]
0.0949713 -0.37684596 -0.32385355 0.38040245 0.19225849 -0.1383517 0.09428729 0.2040893
-0.20721115 -0.018292975 -0.12227019 -0.2814251 0.37544113 0.3318409 -0.2112643 -0.0014471135
0.17044787 0.23126006 0.28890678 -0.255826 -0.43675166 -0.10965096 0.44387344 0.026560323
0.16777632 0.004852258 0.124265015 -0.2149148 0.19523904 0.26624337 0.22108756 -0.31878132
0.19005144 0.11090344 0.14856079 -0.30179158 0.12930714 -0.039651096 0.3186625 0.18076046
0.229063 -0.22575001 0.12824239 -0.20761694 -0.16504037 -0.247656 -0.036171168 -0.09160563
-0.29486474 0.36622217
00000000: 5080 c23d f4f1 c0be 22d0 a5be 1cc4 c23e
00000010: 69df 443e 11ac 0dbe b219 c13d c9fc 503e
00000020: 292f 54be 26db 95bc cb68 fabd f316 90be
00000030: d239 c03e 0de7 a93e ab55 58be 12ad bdba
00000040: e389 2e3e 70cf 6c3e 97eb 933e a0fb 82be
00000050: ea9d dfbe af90 e0bd 6143 e33e 0995 d93c
00000060: 8ecd 2b3e b1ff 9e3b a87e fe3d a012 5cbe
00000070: beec 473e 0d51 883e c764 623e 4e37 a3be
00000080: d89c 423e 5821 e33d 5220 183e 6d84 9abe
00000090: 1769 043e 3069 22bd bb27 a33e 4519 393e
000000a0: 7e8f 6a3e 032b 67be f951 033e 8999 54be
000000b0: 5800 29be 8999 7dbe 3828 14bd bc9b bbbd
000000c0: 83f8 96be 7981 bb3e

decoder.fc2.bias f4 [2]
0.06467042 -0.0027322364
00000000: ed71 843d 520f 33bb
