Results/latent_ode.pth (torch, 12085 bytes, 14 tensors)

encoder.i2h.weight f4 [25, 27]
0.060490392 0.15031822 -0.14409272 -0.08921675 -0.10804808 0.09548206 -0.11584719 0.17327887
-0.12852086 -0.09267534 0.0984903 -0.039351843 -0.110625915 -0.014727835 -0.20986271 0.07433938
-0.06332102 -0.07310452 0.07368317 -0.14539099 0.13227467 0.16125304 0.11529693 -0.15219785
0.08020721 -0.1624564 5.114914e-05 -0.06272372 -0.07014553 0.12998417 -0.051659517 -0.06779058
0.08787649 -0.13270247 -0.054506615 0.13424513 0.058569457 -0.1384795 0.13202067 -0.074942514
-0.09080685 0.1859286 0.033785786 0.028227752 0.07490336 -0.19494137 0.15370943 0.17443982
-0.194529 0.15639688 0.12114633 -0.052409038 -0.1282836 -0.033105705 -0.101882994 0.07275932
-0.029247772 0.10757101 0.020164095 0.10527128 -0.04272231 -0.20653495 0.05966258 -0.12158107
0.034119986 -0.016287692 0.14613208 -0.08807086 -0.027780514 0.047911294 -0.16711739 0.19832064
0.09368979 -0.15561186 -0.11945862 -0.06577861 0.065615535 -0.091703825 -0.09996387 0.04481049
-0.029035335 0.14588305 -0.15743484 -0.14639306 -0.085644096 -0.0067455824 -0.112124935 -0.0042563993
0.03621067 0.016186351 -0.16249007 0.052093264 -0.046773363 0.0890393 0.16809116 -0.07795243
0.20298289 -0.0027649933 0.10213772 -0.16517392 0.08090957 0.18829213 0.07630074 0.0067382087
-0.09662824 -0.10139906 -0.006250046 0.008180274 0.047224663 -0.083648406 -0.18768832 0.113218725
0.16843334 0.044511683 0.09075901 -0.019841524 -0.11053953 0.19554098 0.10280491 0.0023601053
-0.03815202 0.11567802 -0.12911895 -0.09408412 0.09754133 0.15968367 -0.14009042 0.07882949
-0.13529931 0.13536036 -0.11418728 0.0025716834 -0.17238575 0.07984194 -0.1599543 0.092795484
-0.009679682 0.120692134 -0.089054435 -0.17757116 -0.1455066 -0.1389322 -0.18229164 0.07281688
0.13988672 -0.009215108 -0.13589455 -0.07502835 -0.14090462 -0.10243803 0.08039097 0.15265971
0.18592925 0.13858624 0.09263671 -0.14235944 -0.16235086 -0.008330941 -0.05978875 0.1286437
0.07957654 0.03866034 -0.17755425 -0.0040183393 -0.12696786 -0.05649463 -0.025504544 0.1405112
0.11506697 0.08178535 -0.051766906 -0.057228353 -0.1737783 -0.010977408 0.07176145 0.06580237
-0.017738326 0.15534674 0.089259446 -0.15230443 -0.08255703 -0.14082146 0.009675527 -0.076062806
0.0274323 0.097051986 0.15569091 -0.06945328 0.036656942 -0.006111819 -0.045221798 -0.006782512
-0.06480608 0.12382174 -0.100291535 -0.0024615007 0.17709348 -0.2016196 0.06343074 0.05091039
-0.15782039 0.18189988 0.028849188 -0.114490785 -0.16815677 -0.15332909 0.15566967 0.0025831372
-0.07137899 0.16261455 0.2025497 0.12695622 -0.066483274 0.026078688 0.11620233 0.11463785
0.007821046 0.09256607 -0.16135816 0.040050935 -0.09780078 0.19792916 -0.057647437 0.07940228
0.13843438 0.01350336 0.059343964 0.07740528 0.12032473 -0.026365835 0.037550382 -0.024057664
0.0036357872 0.13096884 -0.028322453 -0.12984277 -0.07571838 0.20016754 0.020443376 -0.17255168
-0.00733853 -0.027359156 0.053164423 0.12088398 0.14572099 -0.094578415 -0.03634304 0.042377762
-0.10442165 0.06956896 -0.18358243 -0.06721594 0.06457164 0.09938716 -0.1687989 -0.1655568
00000000: c6c4 773d 05ed 193e 0b8d 13be 45b7 b6bd
00000010: 5048 ddbd 198c c33d 4b41 edbd 0470 313e
00000020: f99a 03be 92cc bdbd 48b5 c93d 662f 21bd
00000030: d78f e2bd 044d 71bc 40e6 56be 3f3f 983d
00000040: 73ae 81bd d3b7 95bd 34e7 963d 60e1 14be
00000050: 0373 073e 841f 253e cc20 ec3d c1d9 1bbe
00000060: ad43 a43d f85a 26be f988 5638 4b75 80bd
00000070: 76a8 8fbd 921a 053e ee98 53bd cad5 8abd
00000080: 97f8 b33d 28e3 07be 5442 5fbd 8e77 093e
00000090: 87e6 6f3d 92cd 0dbe 6d30 073e 767b 99bd
000000a0: f1f8 b9bd 1164 3e3e f762 0a3d e33d e73c
000000b0: ef66 993d b69e 47be 0166 1d3e 5aa0 323e
000000c0: 9c32 47be 8126 203e 911b f83d dcaa 56bd
000000d0: c75c 03be d999 07bd 08a8 d0bd d702 953d
000000e0: 0699 efbc 314e dc3d 2c2f a53c 7898 d73d
000000f0: 97fd 2ebd e67d 53be c060 743d 7fff f8bd
00000100: 66c1 0b3d c46d 85bc a6a3 153e 7f5e b4bd
00000110: f693 e3bc a23e 443d d220 2bbe 9114 4b3e
00000120: 6fe0 bf3d b758 1fbe b9a6 f4bd f0b6 86bd
00000130: 7061 863d 37cf bbbd dcb9 ccbd 348b 373d
00000140: 83db edbc 5e62 153e 9936 21be 10e8 15be
00000150: 2c66 afbd 0c0a ddbb c2a1 e5bd 4479 8bbb
00000160: a451 143d 3d99 843c cc63 26be bf5f 553d
00000170: 6d95 3fbd 3d5a b63d 1720 2c3e 86a5 9fbd
00000180: bfda 4f3e e434 35bb 952d d13d 5a23 29be
00000190: ebb3 a53d a7cf 403e 9043 9c3d 31cc dc3b
000001a0: 07e5 c5bd 4faa cfbd 30cd ccbb 8e06 063c
000001b0: a66e 413d db4f abbd 5e31 40be 38df e73d
000001c0: ca79 2c3e e251 363d dcdf b93d b18a a2bc
000001d0: 8d62 e2bd e53b 483e 618b d23d ffab 1a3b
000001e0: 4b45 1cbd 99e8 ec3d c237 04be 2daf c0bd
000001f0: c0c3 c73d 1e84 233e dd73 0fbe 5b71 a13d
00000200: e78b 0abe e89b 0a3e 05db e9bd b089 283b
00000210: e485 30be 2c84 a33d 0fcb 23be 8f0b be3d
00000220: 8797 1ebc 702d f73d 2c62 b6bd 37d5 35be
00000230: afff 14be 3e44 0ebe a9aa 3abe 0421 953d
00000240: 773e 0f3e f7fa 16bc f127 0bbe 77a8 99bd
00000250: 4d49 10be 08cb d1bd 05a4 a43d d452 1c3e
00000260: 3d64 3e3e 8de9 0d3e 51b8 bd3d acc6 11be
00000270: 4e3f 26be 807e 08bc 0ce5 74bd 2dbb 033e
00000280: 06f9 a23d 4e5a 1e3d c8d0 35be 46ac 83bb
00000290: dd03 02be ea66 67bd e8ee d0bc 2be2 0f3e
000002a0: 3ba8 eb3d 147f a73d 8909 54bd 4768 6abd
000002b0: f0f2 31be 96da 33bc abf7 923d 65c3 863d
000002c0: f74f 91bc 3713 1f3e a8cd b63d b1f5 1bbe
000002d0: a913 a9bd 8033 10be 1a86 1e3c d1c6 9bbd
000002e0: b4b9 e03c 31c3 c63d 706d 1f3e 853d 8ebd
000002f0: 9725 163d a745 c8bb 7e3a 39bd d63f debb
00000300: 0db9 84bd 4196 fd3d a665 cdbd 2151 21bb
00000310: fe57 353e 5e75 4ebe fae7 813d 6a87 503d
00000320: ab9b 21be f643 3a3e 2255 ec3c 257a eabd
00000330: 4a31 2cbe 4d02 1dbe df67 1f3e da49 293b
00000340: 262f 92bd 6e84 263e 3069 4f3e d000 023e
00000350: 6228 88bd f9a2 d53c 7dfb ed3d 40c7 ea3d
00000360: d823 003c 4893 bd3d 133b 25be 730c 243d
00000370: c64b c8bd f1ad 4a3e b81f 6cbd aa9d a23d
00000380: bec1 0d3e 323d 5d3c a812 733d a986 9e3d
00000390: d06c f63d 2afd d7bc 6ece 193d 9414 c5bc
000003a0: 6346 6e3b b21c 063e 7d04 e8bc 81f5 04be
000003b0: 3d12 9bbd b8f8 4c3e de78 a73c 63b1 30be
000003c0: 0d78 f0bb 4f20 e0bc f0c2 593d 0592 f73d
000003d0: e237 153e 54b2 c1bd 71dc 14bd 4e94 2d3d
000003e0: 05db d5bd 2c7a 8e3d 08fd 3bbe 83a8 89bd
000003f0: 233e 843d 7f8b cb3d 9ed9 2cbe b987 29be

encoder.i2h.bias f4 [25]
0.034980487 0.1352732 0.08558271 0.050189316 -0.14495283 -0.18801592 -0.04483889 -0.10422945
-0.019903071 -0.08641278 0.014158827 -0.09399225 -0.20611916 -0.15604109 -0.13285466 0.021225717
0.06405606 0.031869285 0.00024247562 -0.0049182437 -0.055763252 0.108668834 -0.0045849183 0.12850188
-0.15068093
00000000: b347 0f3d 0f85 0a3e fd45 af3d 5093 4d3d
00000010: 846e 14be 3f87 40be fca8 37bd 4076 d5bd
00000020: c40b a3bc 2ff9 b0bd 6dfa 673c 027f c0bd
00000030: e710 53be 3cc9 1fbe 0d0b 08be 8ee1 ad3c
00000040: d32f 833d 5e89 023d 0e41 7e39 3829 a1bb
00000050: 0268 64bd c48d de3d 153d 96bb ff95 033e
00000060: 1a4c 1abe

encoder.h2o.weight f4 [8, 25]
0.13218617 -0.13647959 0.0151336 -0.06062046 0.12262326 0.04894954 -0.0038064208 -0.0657203
-0.1064866 0.15492985 -0.18490477 -0.16376269 -0.08053083 -0.0884439 0.14949186 0.076964445
-0.024683503 0.11102755 -0.056998413 -0.030469013 -0.11568264 0.06369801 -0.10066795 -0.16684142
0.025101684 0.049721736 -0.19118133 0.09438858 -0.104002126 -0.051271405 0.1651186 0.10740732
-0.11728941 -0.0946552 0.039053105 -0.1480349 0.06353235 0.0056575704 0.045770455 -0.17391175
0.18425022 -0.14596905 0.14351098 0.026674563 0.14844611 0.16474782 -0.06680421 -0.14712156
0.06578537 0.03967129 -0.15769199 0.009714415 -0.08896562 -0.08699343 0.12775126 0.019267369
-0.06278734 -0.12417624 -0.11372962 0.0027124868 -0.14161105 0.071913265 -0.08838037 0.20358413
0.030772163 -0.03649152 0.1662383 0.070522554 0.0948786 -0.18535523 0.060578376 -0.21128228
0.1955903 0.008318112 -0.049438443 -0.033091195 0.11321751 0.033225406 0.18433797 -0.18921494
0.15714757 0.050247386 -0.21043651 -0.033060476 0.19550522 0.0717145 -0.18153681 -0.07359395
-0.15964855 -0.1848641 0.11104183 -0.11365994 0.019324321 -0.0049303826 0.11833394 -0.06866095
-0.0964353 0.15177625 -0.11038463 -0.16410883 -0.060751613 -0.0999114 0.0044768355 -0.007842525
-0.06195207 -0.03579922 -0.036784433 0.0873143 -0.095887296 -0.136269 -0.008462587 -0.07284729
-0.13356192 0.15419006 -0.10488415 -0.11531122 0.038764797 0.026830282 0.0976917 0.1573505
0.16150934 0.010091988 -0.21198504 0.10376443 0.16131113 -0.13616733 -0.07765286 -0.11451441
0.04808156 0.034766857 -0.12095926 0.17444582 0.18443534 0.017789014 0.11874166 -0.12203046
-0.051402755 0.18871613 -0.13241115 -0.036819443 0.10200871 0.08010747 0.17636351 -0.15300156
-0.10414605 0.18969372 -0.024946049 -0.054179102 0.15704766 0.11038743 0.016955415 -0.0875623
0.036101706 0.08265203 0.18356493 0.17580993 -0.06594524 -0.19922507 -0.14124423 -0.061238386
0.10962947 -0.1363155 -0.07007094 -0.061474167 0.11426963 0.14590032 0.072220854 0.13508675
0.058240656 0.17783329 0.049539756 -0.07360233 -0.13279963 -0.09347998 -0.033583906 0.12699123
-0.16916305 -0.16862571 0.14666563 -0.17296492 -0.0662845 -0.0075478074 0.1465547 -0.11568216
-0.1752223 -0.07670379 0.042076726 -0.13898233 0.017631901 0.17531325 0.0036424706 0.09091658
-0.09995709 0.09181163 -0.08546045 0.1238503 0.1758247 0.17220749 0.15524025 -0.17215815
00000000: d05b 073e 4ec1 0bbe ebf2 773c 294d 78bd
00000010: e721 fb3d 507f 483d 2575 79bb 5d98 86bd
00000020: a615 dabd eea5 1e3e ad57 3dbe 68b1 27be
00000030: 59ed a4bd 1322 b5bd 6514 193e 899f 9d3d
00000040: 0f35 cabc 6a62 e33d 2b77 69bd 279a f9bc
00000050: 05eb ecbd 1a74 823d 002b cebd 7ad8 2abe
00000060: 0ca2 cd3c 05a9 4b3d 0ac5 43be cd4e c13d
00000070: 11ff d4bd f701 52bd da14 293e 5ef8 db3d
00000080: 6e35 f0bd 96da c1bd 26f6 1f3d 7696 17be
00000090: 401d 823d 2463 b93b cd79 3b3d ec15 32be
000000a0: 17ac 3c3e e978 15be 8bf4 123e 9d84 da3c
000000b0: 4202 183e a7b3 283e a5d0 88bd 09a7 16be
000000c0: 7bba 863d 5d7e 223d 027a 21be 3629 1f3c
000000d0: 9b33 b6bd 9d29 b2bd 3ad1 023e 9ad6 9d3c
000000e0: a696 80bd 1d50 febd 13eb e8bd fac3 313b
000000f0: 7d02 11be 4347 933d c400 b5bd 5c78 503e
00000100: e715 fc3c 2278 15bd 5f3a 2a3e 216e 903d
00000110: b64f c23d c3cd 3dbe 0821 783d 625a 58be
00000120: d348 483e b148 083c f77f 4abd a28a 07bd
00000130: 95de e73d 5d17 083d 18c3 3c3e 90c1 41be
00000140: 4beb 203e 34d0 4d3d ab7c 57be 6c6a 07bd
00000150: 8532 483e 0ddf 923d c9e4 39be 6db8 96bd
00000160: e97a 23be 044d 3dbe e669 e33d 8bc6 e8bd
00000170: 0a4e 9e3c 0c8f a1bb 1159 f23d 1d9e 8cbd
00000180: df7f c5bd 3c6b 1b3e 5611 e2bd 250c 28be
00000190: afd6 78bd 599e ccbd 6bb2 923b ef7d 00bc
000001a0: 74c1 7dbd 34a2 12bd 46ab 16bd d7d1 b23d
000001b0: 8f60 c4bd 1a8a 0bbe aaa6 0abc f630 95bd
000001c0: 75c4 08be 00e4 1d3e 80cd d6bd 4a28 ecbd
000001d0: d6c7 1e3d 2ecb db3c 9612 c83d 7d20 213e
000001e0: b462 253e de58 253c 9b12 59be 7282 d43d
000001f0: bf2e 253e 736f 0bbe 7608 9fbd 8886 eabd
00000200: 2bf1 443d b167 0e3d 7db9 f7bd eda1 323e
00000210: 9edc 3c3e 44ba 913c d42e f33d 1beb f9bd
00000220: b28b 52bd cd3e 413e ca96 07be fccf 16bd
00000230: f1e9 d03d 630f a43d a398 343e 71ac 1cbe
00000240: 864a d5bd 123f 423e a85b ccbc e8ea 5dbd
00000250: 1ad1 203e ce12 e23d 15e6 8a3c dd53 b3bd
00000260: 62df 133d 7845 a93d 72f8 3b3e 8507 343e
00000270: 4c0e 87bd a801 4cbe 54a2 10be 1ad5 7abd
00000280: 6a85 e03d 4a96 0bbe 5a81 8fbd 56cc 7bbd
00000290: 3206 ea3d e566 153e 87e8 933d 2e54 0a3e
000002a0: c18d 6e3d ee19 363e 33ea 4a3d d2bc 96bd
000002b0: a0fc 07be 6f72 bfbd 478f 09bd fd09 023e
000002c0: 1439 2dbe 38ac 2cbe 842f 163e b71d 31be
000002d0: 2bc0 87bd 9953 f7bb 6f12 163e c5ea ecbd
000002e0: 7a6d 33be e016 9dbd a558 2c3d 6251 0ebe
000002f0: c770 903c 5185 333e 84b6 6e3b 7932 ba3d
00000300: 4eb6 ccbd bc07 bc3d e305 afbd 3aa5 fd3d
00000310: 640b 343e 2957 303e 4df7 1e3e 3a4a 30be

encoder.h2o.bias f4 [8]
-0.058257364 -0.0017990302 0.09299302 -0.11006925 -0.14853308 0.01143457 -0.03748924 -0.036394738
00000000: 469f 6ebd 70cd ebba 2073 be3d fd6b e1bd
00000010: 0e19 18be 1058 3b3c 518e 19bd a612 15bd

ode_func.net.0.weight f4 [20, 4]
0.0844342 0.016044889 -0.028978806 0.022218637 -0.0006810888 -0.02844855 -0.18843175 0.13475247
0.0507707 0.078151666 -0.038420394 -0.09196215 0.065200634 -0.07812619 0.15242808 0.03560113
0.10218381 0.06274482 -0.12068414 -0.025713015 -0.0062917694 0.06971501 0.102424875 0.20768604
0.003580987 0.008433634 -0.22830088 0.0017624674 -0.035019133 -0.030749498 -0.09841226 -0.06844201
0.11530113 0.035411973 -0.021851791 -0.0062178415 -0.060142726 -0.010804216 0.040388796 -0.08189731
0.15986328 0.070221946 -0.1423115 -0.07149559 0.010081888 0.19090113 0.08427712 -0.020703023
-0.1023671 -0.026775045 0.035554506 -0.030023437 -0.09610479 0.04669062 0.016001707 0.026707767
-0.04796468 0.04015715 0.03696665 0.06623022 -0.069973 -0.0063932985 0.09005082 0.040560294
0.004671432 0.22027284 -0.07965046 0.07602815 -0.09927073 -0.027524032 0.1841112 0.041854057
0.02173576 -0.0014638447 0.062288586 -0.18388966 0.10870905 -0.054754607 0.12457289 0.028316552
00000000: d6eb ac3d 9270 833c f664 edbc dc03 b63c
00000010: 188b 32ba ef0c e9bc 41f4 40be 8dfc 093e
00000020: f0f4 4f3d fb0d a03d b45e 1dbd a756 bcbd
00000030: e987 853d a000 a0bd 1b16 1c3e 7ed2 113d
00000040: bf45 d13d 5b80 803d 3f29 f7bd 1aa4 d2bc
00000050: 302b cebb bec6 8e3d 22c4 d13d a6ab 543e
00000060: feae 6a3b 3a2d 0a3c b5c7 69be 9802 e73a
00000070: 3970 0fbd 5fe6 fbbc 5e8c c9bd 532b 8cbd
00000080: 0023 ec3d 250c 113d 8702 b3bc 09bf cbbb
00000090: 3858 76bd 2b04 31bc b96e 253d c7b9 a7bd
000000a0: 33b3 233e 86d0 8f3d 1bba 11be 486c 92bd
000000b0: 812e 253c 967b 433e 7c99 ac3d 6399 a9bc
000000c0: d8a5 d1bd 5757 dbbc 9aa1 113d b6f3 f5bc
000000d0: 97d2 c4bd aa3e 3f3d 0316 833c 3fca da3c
000000e0: 9d76 44bd d37b 243d 586a 173d b6a3 873d
000000f0: 014e 8fbd e07e d1bb 906c b83d 8d22 263d
00000100: d012 993b 348f 613e c81f a3bd a6b4 9b3d
00000110: 744e cbbd 147a e1bc a587 3c3e 296f 2b3d
00000120: 310f b23c 7ade bfba 5122 7f3d 924d 3cbe
00000130: daa2 de3d 5e46 60bd 1220 ff3d 1df8 e73c

ode_func.net.0.bias f4 [20]
-0.019024327 0.016427837 0.016039113 0.005108787 -0.018020742 -0.014977943 -0.018107673 -0.017538942
-0.01766827 -0.016194923 0.01635968 -0.016867414 0.017063381 0.019805878 0.018601302 0.019323967
-0.018314568 0.019419208 -0.017055899 0.016338084
00000000: e8d8 9bbc ac93 863c 7564 833c 9d67 a73b
00000010: 3ca0 93bc 0c66 75bc 8b56 94bc d4ad 8fbc
00000020: 0cbd 90bc 37ab 84bc bc04 863c 882d 8abc
00000030: 81c8 8b3c f03f a23c c261 983c 4c4d 9e3c
00000040: 6f08 96bc 0815 9f3c d0b8 8bbc 72d7 853c

ode_func.net.2.weight f4 [20, 20]
-0.045962732 0.17756578 -0.13211386 -0.15090026 0.025376396 -0.030233543 -0.089391544 -0.07305665
-0.011151662 -0.06311641 0.024486091 -0.017873384 0.09098037 0.060592078 -0.07975969 0.05075617
-0.009582562 -0.18181892 0.102505155 -0.014114955 0.13187993 0.10228372 0.103618294 -0.072108015
0.06666469 0.13785198 -0.08273353 0.12871909 0.021160856 0.043142293 -0.07566551 -0.029872896
0.073835224 0.20575066 0.100301445 0.20568451 0.037584923 0.0893796 0.04044973 -0.053817913
-0.10530966 -0.06469984 0.0470122 0.020746216 -0.062160265 -0.06179516 0.045949563 -0.05794122
-0.03271873 0.10061848 -0.051970225 -0.1831978 -0.06975066 0.15575081 0.15796699 0.104472816
-0.10213705 0.21088323 -0.00971342 0.065994255 -0.066064455 0.1842761 0.088425316 0.16289112
0.14092135 -0.05079844 0.11405741 0.059654016 0.024752578 -0.03399279 0.054112226 0.041620266
0.03760672 0.004179159 0.18935552 -0.034498774 0.07001193 0.17326497 0.14721759 0.10971582
-0.06550628 -0.22672595 -0.21057844 -0.20023388 0.08838846 0.043382958 -0.017544018 0.20985872
0.05965048 -0.07933853 -0.10405711 -0.12076221 -0.15701064 -0.17719722 0.16903841 -0.039661165
-0.1036232 0.00872657 0.00499116 -0.1051647 0.061986253 0.1427311 0.30641815 0.027120985
0.0036315233 0.06993748 -0.052209627 -0.1986711 -0.01773688 0.17203976 -0.02945411 -0.17859662
-0.19196586 0.010262709 0.14514886 -0.05105581 -0.04270406 -0.031905167 0.111617096 -0.026132196
-0.012148012 -0.058035754 -0.14385828 -0.08551917 -0.0034382592 -0.14034867 -0.008369313 -0.1550249
0.15442073 0.024633564 -0.064859174 0.021191174 0.093881086 0.09847537 -0.08340011 0.19968116
-0.027579518 0.13293268 0.115586296 0.044420518 -0.16734715 0.009316666 -0.07798887 0.104564816
0.14730495 -0.0009053097 -0.086435035 0.02516742 -0.15760113 -0.0343155 0.020907931 0.09649627
-0.28617886 0.064730614 -0.10003904 -0.14810145 0.055966362 0.025835192 0.12931411 0.14128737
-0.15204488 -0.06792594 -0.14224942 0.0898367 -0.12284616 -0.1642293 0.0460892 0.13780732
-0.07584248 0.15774818 0.12176237 0.051485375 0.049805287 0.12143118 0.1273683 0.0555923
-0.038185913 0.038653627 0.18210718 -0.027707815 0.045353826 0.05709881 -0.114858106 -0.03159474
-0.096049264 0.21227622 0.0250533 0.008263793 -0.02536909 -0.1931328 0.059734613 0.03476885
-0.17464893 0.2694253 -0.1998394 -0.15343218 -0.037950836 0.0010243846 -0.014908933 0.03459164
0.17044902 -0.0037272202 -0.008503048 0.1360061 0.09437545 -0.019167293 0.030526139 0.1676351
0.042722605 0.037225936 0.036950666 -0.09594052 -0.072329514 0.06638496 -0.06511044 -0.043278527
0.04690652 0.043825395 0.001289562 0.12961093 -0.12587793 -0.057201054 -0.031068273 0.0840893
0.1434705 0.06721954 0.08820036 -0.09651535 -0.10294509 -0.0679767 0.047721058 0.031610634
0.041061282 -0.06640138 -0.19409606 0.105348796 -0.07719394 0.15064529 -0.20627701 0.013265626
0.034951236 0.033650063 0.032278467 -0.060532503 0.2536631 -0.18902555 0.041577965 0.15908235
0.04145615 -0.052752923 -0.020975003 0.16415581 0.04394643 -0.008453373 0.053707752 -0.028146181
00000000: 6b43 3cbd ced3 353e db48 07be 9985 1abe
00000010: 29e2 cf3c 56ac f7bc ea12 b7bd ba9e 95bd
00000020: 76b5 36bc 2d43 81bd 0e97 c83c 346b 92bc
00000030: eb53 ba3d 662f 783d 0c59 a3bd b4e5 4f3d
00000040: 2e00 1dbc bd2e 3abe 39ee d13d 6a42 67bc
00000050: 880b 073e 217a d13d d435 d43d 5ead 93bd
00000060: 7f87 883d 1229 0d3e 3270 a9bd f0ce 033e
00000070: 8859 ad3c f9b5 303d 85f6 9abd 01b8 f4bc
00000080: ec36 973d 4db0 523e d86a cd3d f69e 523e
00000090: a6f2 193d a70c b73d 9eae 253d 2c70 5cbd
000000a0: 97ac d7bd 5a81 84bd dd8f 403d f8f3 a93c
000000b0: c39b 7ebd ec1c 7dbd 9c35 3c3d c653 6dbd
000000c0: 1304 06bd 1011 ce3d bbde 54bd 3498 3bbe
000000d0: 6fd9 8ebd 247d 1f3e 19c2 213e d8f5 d53d
000000e0: 3b2d d1bd c6f1 573e 0925 1fbc ff27 873d
000000f0: cd4c 87bd e0b2 3c3e 5518 b53d eecc 263e
00000100: b04d 103e 0612 50bd ee96 e93d c557 743d
00000110: ebc5 ca3c 063c 0bbd c8a4 5d3d 037a 2a3d
00000120: 8109 1a3d 54f1 883b 6ae6 413e 964e 0dbd
00000130: 6a62 8f3d 5f6c 313e 35c0 163e b0b2 e03d
00000140: 2828 86bd d92a 68be e0a1 57be 1c0a 4dbe
00000150: 0205 b53d 54b2 313d 79b8 8fbc 34e5 563e
00000160: 1054 743d 3d7c a2bd e51b d5bd 2d52 f7bd
00000170: 66c7 20be 3073 35be 6818 2d3e bf73 22bd
00000180: 6638 d4bd e3f9 0e3c e28c a33b 9760 d7bd
00000190: 4ce5 7d3d 1a28 123e d7e2 9c3e d42c de3c
000001a0: dafe 6d3b 623b 8f3d c3d9 55bd 7070 4bbe
000001b0: ef4c 91bc 312b 303e bf49 f1bc 08e2 36be
000001c0: b392 44be ec24 283c e7a1 143e e61f 51bd
000001d0: 74ea 2ebd feae 02bd 8197 e43d 3013 d6bc
000001e0: 7508 47bc e6b6 6dbd 964f 13be ad24 afbd
000001f0: 6b54 61bb 90b7 0fbe 711f 09bc d9be 1ebe
00000200: 7820 1e3e 54cc c93c e3d4 84bd 1d99 ad3c
00000210: ba44 c03d 74ad c93d adcd aabd 3879 4c3e
00000220: 71ee e1bc 811f 083e 82b8 ec3d 4af2 353d
00000230: 0d5d 2bbe eea4 183c a1b8 9fbd 1426 d63d
00000240: 1cd7 163e 4e52 6dba da04 b1bd e82b ce3c
00000250: 3162 21be 698e 0cbd 1c47 ab3c d69f c53d
00000260: 0986 92be 7c91 843d 45e1 ccbd e8a7 17be
00000270: fc3c 653d 53a4 d33c eb6a 043e a3ad 103e
00000280: a7b1 1bbe c11c 8bbd d5a9 11be 4efc b73d
00000290: c496 fbbd ba2b 28be 07c8 3c3d 5d1d 0d3e
000002a0: 4d53 9bbd bd88 213e 8d5e f93d 54e2 523d
000002b0: a100 4c3d e9b0 f83d d66c 023e c0b4 633d
000002c0: d568 1cbd 4453 1e3d 4e7a 3a3e 80fb e2bc
000002d0: efc4 393d 71e0 693d ba3a ebbd 7c69 01bd
000002e0: 7ab5 c4bd f05e 593e 943c cd3c dc64 073c
000002f0: d6d2 cfbc 9bc4 45be 48ac 743d c869 0e3d
00000300: 2bd7 32be 1df2 893e b3a2 4cbe 531d 1dbe
00000310: 5672 1bbd a544 863a 9944 74bc f7af 0d3d
00000320: 308a 2e3e 6144 74bb 5e50 0bbc 2f45 0b3e
00000330: ea47 c13d ba04 9dbc f411 fa3c 89a8 2b3e
00000340: e6fd 2e3d 397a 183d 9559 173d 777c c4bd
00000350: 7f21 94bd d7f4 873d 9f58 85bd d344 31bd
00000360: 0d21 403d 4282 333d 8506 a93a bab8 043e
00000370: 25e6 00be a74b 6abd e482 febc 0337 ac3d
00000380: eee9 123e 66aa 893d 64a2 b43d d7a9 c5bd
00000390: e0d4 d2bd 5e37 8bbd 2877 433d 277a 013d
000003a0: e02f 283d 72fd 87bd 1ec1 46be 1cc1 d73d
000003b0: db17 9ebd c242 1a3e 483a 53be 1158 593c
000003c0: 0729 0f3d a6d4 093d 6d36 043d eef0 77bd
000003d0: 21e0 813e ea8f 41be a84d 2a3d 7ce6 223e
000003e0: edcd 293d 7313 58bd c5d3 abbc 7618 283e
000003f0: 2c01 343d 0480 0abc a9fc 5b3d d292 e6bc

ode_func.net.2.bias f4 [20]
0.016051339 0.017602913 0.01795134 0.017344475 -0.016761303 -0.016768305 -0.015458179 -0.016715838
0.016795808 0.01790262 -0.017341634 0.017241856 -0.017516987 0.017032294 0.01690561 0.016481541
-0.014078268 0.0179405 -0.015980184 -0.017213343
00000000: 197e 833c fc33 903c b00e 933c 0016 8e3c
00000010: 004f 89bc af5d 89bc 4d44 7dbc a7ef 88bc
00000020: 5d97 893c 84a8 923c 0b10 8ebc cb3e 8d3c
00000030: c97f 8fbc 4f87 8b3c a27d 8a3c 4c04 873c
00000040: 89a8 66bc f5f7 923c e0e8 82bc ff02 8dbc

ode_func.net.4.weight f4 [4, 20]
-0.002045361 0.14538863 0.072306424 0.09024207 -0.019094648 -0.1102899 -0.07162493 -0.06150361
0.008198295 0.10262313 -0.22334032 -0.13183272 -0.0650074 0.07759963 0.16052264 -0.0075562005
0.015218898 0.0976093 0.005810408 -0.26837626 0.1071825 0.14727244 0.13593574 0.06671377
-0.10325395 0.05504165 0.104644805 -0.0028606553 -0.1465633 -0.07973067 0.2145252 -0.04968382
-0.014516072 -0.027770095 0.016122704 -0.002202538 0.12805273 -0.003295926 0.13750464 -0.046472132
-0.0416637 -0.08777006 -0.019872826 0.07096422 0.04090071 0.123460695 -0.0450407 0.07887351
-0.14552939 0.12360641 0.045541756 -0.06574947 0.080330364 -0.13308178 -0.06088446 -0.074855454
0.051794462 0.04094279 0.11590605 0.057934728 -0.02316723 -0.014283676 -0.20176132 0.044785883
0.05217962 -0.20367338 -0.09658842 -0.028622124 -0.078198574 -0.07415959 -0.083284095 -0.37819737
0.10215741 -0.1719769 0.078780584 -0.07377215 -0.050471034 0.018381216 -0.013227314 0.07283668
00000000: 770b 06bb c2e0 143e 6415 943d d6d0 b83d
00000010: 616c 9cbc acdf e1bd 17b0 92bd 36eb 7bbd
00000020: 2452 063c 132c d23d 53b3 64be 28ff 06be
00000030: 9a22 85bd 8eec 9e3d 0c60 243e 019a f7bb
00000040: af58 793c 62e7 c73d 3c65 be3b 9d68 89be
00000050: 8082 db3d 96ce 163e bd32 0b3e 3ba1 883d
00000060: cf76 d3bd 5a73 613d 0450 d63d d579 3bbb
00000070: b114 16be d549 a3bd 7eac 5b3e 4381 4bbd
00000080: d2d4 6dbc 1c7e e3bc c313 843c 7558 10bb
00000090: 4120 033e 7600 58bb 04ce 0c3e 9059 3ebd
000000a0: 8ea7 2abd cac0 b3bd 56cc a2bc b055 913d
000000b0: 8187 273d f6d8 fc3d 997c 38bd 6f88 a13d
000000c0: a805 15be 5c25 fd3d fe89 3a3d a8a7 86bd
000000d0: 3f84 a43d 9746 08be fc61 79bd d14d 99bd
000000e0: 6e26 543d a1b3 273d 2760 ed3d f74c 6d3d
000000f0: 34c9 bdbc 1406 6abc 859a 4ebe 6771 373d
00000100: 4cba 553d c18f 50be 26d0 c5bd f278 eabc
00000110: 9326 a0bd fce0 97bd da90 aabd 16a3 c1be
00000120: e737 d13d b61a 30be b757 a13d da15 97bd
00000130: b7ba 4ebd 3494 963c 60b7 58bc 662b 953d

ode_func.net.4.bias f4 [4]
0.017424218 -0.015231476 -0.01647872 -0.017534727
00000000: 3cbd 8e3c 718d 79bc 61fe 86bc fda4 8fbc

decoder.fc1.weight f4 [20, 4]
-0.2522078 -0.08083576 0.19109395 0.16195601 0.120404504 0.16611505 -0.054060828 -0.36847302
-0.18553384 0.27014917 0.4590685 0.4643219 0.25658748 -0.36100674 0.512796 0.081176735
-0.2197497 0.26624656 -0.34531686 0.46787724 -0.39970163 0.324203 0.19768417 0.05151249
-0.15072076 0.27166945 0.22348793 0.3360545 -0.0008910707 -0.37421542 0.4260288 -0.16294545
-0.46676657 -0.41204214 0.0047450047 0.3219094 -0.2773889 0.08095838 0.44817263 -0.074015655
0.26608267 -0.056395236 0.00621797 -0.40056708 0.18941924 -0.40861127 0.47720003 -0.05064654
0.28833383 -0.28212702 0.33965352 0.437548 -0.3782262 0.00904776 0.40975797 0.06580791
0.2594897 0.41792306 0.18252428 -0.44837987 -0.33403796 0.16355476 0.047388155 0.34784007
0.0049221804 0.16192102 0.16308068 -0.14378545 0.042377558 -0.06212756 -0.23485881 -0.21024452
0.20285773 0.041215368 0.17030574 -0.40772742 0.46576697 0.43627274 0.41605395 -0.3615158
00000000: 6121 81be 388d a5bd 22ae 433e ccd7 253e
00000010: a396 f63d 101a 2a3e e36e 5dbd 7fa8 bcbe
00000020: 95fc 3dbe fe50 8a3e 070b eb3e 9abb ed3e
00000030: 6f5f 833e e0d5 b8be 9946 033f fd3f a63d
00000040: 1106 61be 7851 883e 5fcd b0be 9b8d ef3e
00000050: b1a5 ccbe f0fd a53e b86d 4a3e c3fe 523d
00000060: 8b56 1abe 4218 8b3e 05da 643e 560f ac3e
00000070: be96 69ba 2a99 bfbe 7220 da3e 2cdb 26be
00000080: 07fc eebe 30f7 d2be fc7b 9b3b 4fd1 a43e
00000090: eb05 8ebe 82cd a53d e276 e53e 8595 97bd
000000a0: fd3b 883e b1fe 66bd 1dc0 cb3b 2117 cdbe
000000b0: 1ef7 413e 7f35 d1be 9053 f43e bf72 4fbd
000000c0: 7ea0 933e f472 90be 11e7 ad3e 4b06 e03e
000000d0: dda6 c1be 0e3d 143c cccb d13e 4cc6 863d
000000e0: d5db 843e 03fa d53e a5e7 3a3e 0c92 e5be
000000f0: 0607 abbe e67a 273e 151a 423d 1818 b23e
00000100: 3e4a a13b a0ce 253e 9ffe 263e 7e3c 13be
00000110: 1794 2d3d 7879 7ebd d47e 70be 574a 57be
00000120: f0b9 4f3e 72d1 283d a164 2e3e a6c1 d0be
00000130: 0279 ee3e 245f df3e 0605 d53e 9918 b9be

decoder.fc1.bias f4 [20]
0.16716824 -0.0015940907 0.25892764 0.380277 0.47764045 0.11367524 -0.29844207 0.182957
0.17939827 -0.022293953 -0.29822877 0.39943352 0.20962305 0.4186662 -0.19853784 -0.22162576
0.22477694 -0.38957545 -0.45603088 0.28560817
00000000: 272e 2b3e cff0 d0ba 2a92 843e abb3 c23e
00000010: 4a8d f43e 90ce e83d 66cd 98be 1459 3b3e
00000020: 2eb4 373e cfa1 b6bc 71b1 98be 8d82 cc3e
00000030: 6da7 563e 6b5b d63e 814d 4bbe ddf1 62be
00000040: ed2b 663e 6f76 c7be e17c e9be 3c3b 923e

decoder.fc2.weight f4 [2, 20]
-0.13477093 -0.1450645 -0.14876871 0.050404202 -0.108050056 -0.20405126 0.2256233 -0.1615788
-0.1821004 -0.15661101 0.15815525 -0.027089808 -0.039904863 -0.1576924 0.09179945 -0.14765847
-0.09870417 -0.061306037 0.16904612 0.15240392 0.001500604 0.015058647 -0.2062351 0.17289983
0.053793512 -0.14882599 -0.18851316 -0.13975109 0.0727154 -0.19143452 0.20430523 -0.0755155
0.05103972 -0.14897756 -0.094138004 0.06690632 0.20058124 -0.19707386 0.12151722 0.02336591
00000000: 6401 0abe ca8b 14be d356 18be a374 4e3d
00000010: 5949 ddbd d0f2 50be cb09 673e ea74 25be
00000020: 8778 3abe a35e 20be 73f3 213e 72eb ddbc
00000030: 4873 23bd 1e7a 21be 5a01 bc3d c833 17be
00000040: 6925 cabd 0a1c 7bbd 6d1a 2d3e c60f 1c3e
00000050: eaaf c43a 8bb8 763c 4b2f 53be a70c 313e
00000060: 9656 5c3d d765 18be 9809 41be e91a 0fbe
00000070: d0eb 943d 6907 44be 6435 513e dfa7 9abd
00000080: 070f 513d 938d 18be 6dcb c0bd 2e06 893d
00000090: 2b65 4d3e bbcd 49be 05de f83d dd69 bf3c

decoder.fc2.bias f4 [2]
-0.012391545 0.092139125
00000000: e805 4bbc 70b3 bc3d
