Results/latent_ode_spiral.pth (torch, 28929 bytes, 14 tensors)

encoder.i2h.weight f4 [25, 27]
000000 0a bf cb bd 28 94 26 bc 8b 76 f4 3d 9b a9 6e 3d
       -0.09948547 -0.010167159 0.11936673 0.058267217
000010 ab 0d ca bb 33 80 55 be 64 23 07 3e 3e c1 ea 3d
       -0.00616618 -0.20849685 0.13197094 0.11462639
000020 e3 75 14 3e 55 d4 21 be ca b1 28 be 73 46 fa 3d
       0.14498095 -0.15803654 -0.16474071 0.12220468
000030 75 8c 3b 3d 23 97 31 3d a8 35 1c be 14 13 7f 3c
       0.045788247 0.043357026 -0.15254843 0.015568513
000040 eb 8b 31 3d fd 2c bb 3d 68 cc 84 3d ad 48 82 bd
       0.043346327 0.0913944 0.064843 -0.06361518
000050 9d 8c 56 3d af 5b 18 3e 7d 18 a9 bc 26 c6 72 be
       0.052380193 0.14878725 -0.02064156 -0.237084
000060 e3 77 f0 bc c7 cd 81 bd f5 41 09 3c 9f 2d 4f be
       -0.029354041 -0.06338077 0.008377542 -0.20232247
000070 70 c4 b4 3d 8c fe 1d 3e c2 b2 ca bd 84 46 79 be
       0.0882653 0.15429133 -0.098973766 -0.24343306
000080 6e 99 35 be 7f b9 3a be b4 e2 0d 3d 26 04 27 be
       -0.1773431 -0.18234824 0.03464003 -0.16310176
000090 e1 3d f8 3d 58 5a 08 3c 3b 71 fc 3d 9a c0 42 bc
       0.121211775 0.008322321 0.123262845 -0.01188674
0000a0 bf 0c dd 3d d7 77 c4 bd fc cb 03 bd 1e 04 44 bc
       0.10793447 -0.0959317 -0.032176957 -0.011963872
0000b0 6b ce 89 3d 8c ae c5 3d 29 7f 33 bd 97 55 ec 3d
       0.06728824 0.09652433 -0.04382244 0.115397625
0000c0 4c df c7 3c f9 81 50 3e bc a6 3a 3e 4c 49 4b 3d
       0.024398468 0.2036208 0.18227667 0.04963045
0000d0 cc 39 9a bd 4b bb 0b 3e d6 fa 4b 3d 77 a2 7c bd
       -0.07530555 0.13645665 0.049799763 -0.061678376
0000e0 16 92 8c 3d cd c3 c1 3d 8f 7e 13 be 21 b4 05 bd
       0.06863801 0.09461174 -0.14403747 -0.032642487
0000f0 91 85 55 3e 27 34 22 be de ca 8f bd bb 41 ff bd
       0.20851733 -0.15840207 -0.07021116 -0.12463709
000100 9f 1b 90 3c a5 25 d9 3d 19 61 fd 3d 16 79 50 bd
       0.017591296 0.10602883 0.123720355 -0.050896727
000110 a8 69 36 3e 42 4f 1b bd 74 a4 72 bd 62 62 0e bd
       0.17813742 -0.037917383 -0.059238866 -0.034761794
000120 13 75 1e 3d 71 41 9d 3d 38 fc 18 be d1 c6 d4 3c
       0.03868587 0.076784976 -0.14939964 0.02597371
000130 d5 07 c8 3d 18 3d cb 3d 82 71 db bd 0d 3f 32 be
       0.09767119 0.09923762 -0.10715009 -0.17406864
000140 f5 f3 8b bd 67 22 a4 3d 0a e1 1d 3c d7 13 ec 3d
       -0.068336405 0.08014374 0.009636173 0.11527222
000150 7c f2 92 3d b8 c5 bd 3c 0d 4e 36 be c1 a8 5a bd
       0.071751565 0.023165569 -0.17803212 -0.053383593
000160 a6 d0 d0 3d 28 b6 1b 3e b1 d1 70 3d 77 2c 18 3e
       0.101960465 0.15206206 0.058793727 0.14860712
000170 d7 b8 64 3c bd ab 6f 3c a2 88 aa bd 1c 9f 59 3e
       0.013960085 0.014628348 -0.08326842 0.21252102
000180 a5 3a d2 ba 52 cc 57 be 44 5d 81 3d c9 e4 6a bd
       -0.0016039206 -0.21074036 0.06316617 -0.057347093
000190 10 ff 2c be 56 4f b4 bd fb 34 9e bc a9 2c 9d 3c
       -0.16894174 -0.08804195 -0.019312372 0.019186335
0001a0 33 40 0b be 47 96 cb 3d de 7b 8b bd 0b ff 05 3e
       -0.13598709 0.099407725 -0.06810735 0.13085572
0001b0 15 7b 2e 3d 83 c2 11 3e 48 f0 9e bd 25 a3 0a be
       0.04259785 0.14234357 -0.07760674 -0.13538797
0001c0 c2 fe 8d bc 9b 91 00 be 69 c4 62 3d cc a7 e1 bd
       -0.017333392 -0.12555544 0.055363093 -0.11018333
0001d0 7f df 37 be b3 59 cb 3d f2 13 34 3d be cd 9b bd
       -0.1795635 0.09929218 0.043964334 -0.076076016
0001e0 a5 95 9c bd bb db 68 3d 97 e7 bf 3d 0e 06 d3 bb
       -0.0764573 0.056850176 0.09370344 -0.0064399308
0001f0 f1 55 dd bd 79 29 1f 3e 4c b8 e6 bd 04 fe 82 3d
       -0.10807408 0.15543164 -0.112656206 0.06396106
000200 be ab 45 3e 48 eb 25 3e 2f 94 03 bd 9b 0b 30 be
       0.19303796 0.16203034 -0.03212374 -0.17191927
000210 4d 12 0e bd 73 2b af bd a9 14 72 3e 62 f0 76 3d
       -0.03468542 -0.08553209 0.23640694 0.06028784
000220 e5 3a e1 3d 97 57 49 be 85 79 b7 3b 08 7f d0 bd
       0.10997561 -0.19662319 0.005599203 -0.10180479
000230 15 21 b0 bd b6 aa 17 bd 50 8d 52 3e 3a 77 c7 3d
       -0.0860006 -0.037028037 0.20561719 0.097395375
000240 0a 8a 14 3e 45 b3 33 3d e0 5c b5 bd 76 df 00 be
       0.14505783 0.043872137 -0.08855605 -0.12585244
000250 c6 d7 ce 3d e7 64 17 3e fd 13 d2 bd 6b f3 3b 3d
       0.10099749 0.14784585 -0.10257719 0.04588644
000260 f4 0a 89 bd 9e 36 71 3e 78 cb 9c bd 97 35 c2 bc
       -0.06691542 0.23555991 -0.07655996 -0.023707194
000270 e1 da cb bc 24 8d a2 3d ac 09 88 bd 50 58 f1 bc
       -0.024884643 0.07937077 -0.0664247 -0.029461056
000280 df 92 c2 bc ed 83 41 be d8 fd e9 3c e9 3a 37 be
       -0.023751674 -0.18897982 0.028563425 -0.17893566
000290 a1 29 62 3d a3 7a 28 3b bd 95 16 be 8f bd 92 bc
       0.05521548 0.0025707863 -0.14705558 -0.017912654
0002a0 25 88 31 be 52 44 09 3e 16 5f 7f bd fd e5 00 be
       -0.17337091 0.13404968 -0.06234654 -0.12587734
0002b0 7c d6 08 3e b4 a6 be bd 83 88 5c be e6 78 0f be
       0.1336307 -0.0930914 -0.2153645 -0.14010963
0002c0 c2 33 cc 3d 1a 47 1d 3e 74 d4 bd bc 84 c7 d0 bd
       0.099708095 0.15359154 -0.023172595 -0.101943046
0002d0 73 5b 91 3e 21 6e 0f 3e 09 ca 7c 3d 75 c4 92 3d
       0.28390083 0.14006855 0.061716113 0.071663775
0002e0 91 85 66 3d 54 ed 2e 3e 4c a1 86 bd 71 eb a7 bc
       0.056279723 0.17082721 -0.06573734 -0.02049801
0002f0 f3 eb 35 be 83 b6 61 3d 53 2b c8 bd 6b 8c a3 3d
       -0.17765789 0.055105697 -0.097738884 0.07985767
000300 6c c5 66 bd e2 06 44 bd fe 90 25 3e 6d 11 0b be
       -0.05634062 -0.047858126 0.16168591 -0.13580866
000310 df 71 63 3e f3 57 75 bd 77 86 56 3d e3 e0 e4 bd
       0.22211407 -0.059898328 0.05237433 -0.11175706
000320 e0 bc e0 3d 1e 21 ae bd 8d b9 3e bd 93 f5 21 3e
       0.10973525 -0.0850241 -0.046563674 0.15816335
000330 19 2c 80 bd 4a 33 e2 3a c6 f6 ea bd 4f 65 39 3d
       -0.06258411 0.0017257717 -0.114728495 0.04526263
000340 69 69 c5 bd 69 ae 13 3d bd b8 27 be 17 0d 44 be
       -0.09639246 0.036055002 -0.16379066 -0.19145618
000350 d6 b3 31 3e ba 5a 72 3d 38 90 62 3e 6f e5 f1 bd
       0.17353758 0.059168555 0.22125328 -0.11811339
000360 1b a4 05 be a7 1e 91 3d eb 29 00 be c5 67 8d bd
       -0.13050883 0.070859246 -0.1251599 -0.06904558
000370 a4 9f 3f be 86 d0 b6 3d 99 2e 5e 3d 28 4d 19 be
       -0.18713242 0.089264914 0.054243658 -0.14970839
000380 d7 4d 0d be 39 19 1d 3e 22 16 15 3e c8 c6 1c 3e
       -0.13799225 0.15341653 0.14559224 0.15310204
000390 78 a2 20 3c 7a d5 4e be 0b 7d 39 be 9c 07 78 3c
       0.009804361 -0.20198622 -0.18114106 0.015138533
0003a0 ef d9 af bb 04 48 8b 3d 26 38 0b bd d6 83 ac 3d
       -0.005366556 0.06800845 -0.033989094 0.08423583
0003b0 12 56 18 3c c8 78 80 bd d7 d3 1c 3d 1d 90 48 3d
       0.0092978645 -0.06273037 0.038287964 0.048965562
0003c0 61 de 69 3c 81 18 e5 3d 6b 50 56 be 4d a8 f4 bd
       0.014274211 0.111863144 -0.20929115 -0.11946163
0003d0 39 72 01 be 25 b7 42 be 1d f0 8a 3d 0e 98 93 bd
       -0.12641229 -0.19015177 0.06784079 -0.072067365
0003e0 9a 78 2d 3e ff e7 2c be 9d 33 1f 3e 62 8c 50 be
       0.16940537 -0.16885374 0.15547033 -0.20366052
0003f0 0b 45 af 3c 84 d1 32 3e a6 d8 78 3d c7 45 09 be
       0.021395227 0.17462736 0.060753487 -0.13405524

encoder.i2h.bias f4 [25]
000000 84 46 bb 3d 95 05 46 3d 63 d7 62 3d ba d1 be 3d
       0.09144309 0.048345167 0.05538119 0.09317346
000010 30 c1 49 3e 3f 2b a8 3e d0 4b 30 be a6 5d 06 3e
       0.19702601 0.32845494 -0.1721642 0.13121662
000020 4f b6 67 be fd 62 9d bd 63 ec 37 3c 85 82 f0 3d
       -0.22628139 -0.07684896 0.011225793 0.117436446
000030 a0 8b 1a 3e 27 a5 63 bd 05 d4 ae 3d e0 bd 2a 3e
       0.15092325 -0.055577423 0.08536533 0.16673994
000040 c0 fe a5 bb 76 a8 9e bd ed d6 42 bd d6 4f 74 bd
       -0.005065769 -0.07746975 -0.04756825 -0.05964645
000050 3e 1d 59 3d 52 0f 97 be b9 cf 3f 3d 28 44 ff bd
       0.053006403 -0.29503876 0.04682896 -0.12464172
000060 b8 5e 00 3d
       0.03134033

encoder.h2o.weight f4 [8, 25]
000000 68 23 7c bd b2 0f 33 3e 95 8f 6e 3a 19 26 dc 3d
       -0.061557204 0.17486456 0.0009100375 0.10749454
000010 95 f4 7f be 8d 85 28 3d bd 4b 36 3e 18 d3 15 3d
       -0.24995644 0.04114299 0.1780233 0.036578268
000020 a4 b1 50 3e f0 eb 9f 3d 8f 8e da bd 63 61 02 3d
       0.20380265 0.078086734 -0.10671722 0.031831156
000030 69 b6 f8 bd 13 e4 bf 3c 47 67 69 3e 19 1b 33 3e
       -0.12144167 0.023424184 0.22793303 0.17490806
000040 38 b2 53 3e 94 43 04 3e e8 9a 1f 3e 26 ab 0a bd
       0.20673454 0.12916404 0.15586436 -0.033854626
000050 f5 ce 90 bd 56 3e 24 be f0 fd 2f 3e 70 fe 26 3e
       -0.07070724 -0.16039404 0.17186713 0.16307998
000060 8f d3 7f be 85 2b 8b be 13 96 4e 3d 21 9c 6a 3d
       -0.24983047 -0.2718164 0.05043609 0.057277802
000070 46 73 11 be 0d 6b e5 3d 23 94 22 3e ed 68 b5 3b
       -0.1420413 0.11202059 0.15876822 0.00553619
000080 be f4 43 3e 34 64 ac bd ad 8b e2 3d 20 18 c4 3b
       0.1913633 -0.0841755 0.11061797 0.0059843212
000090 b3 55 ad 3c 1f 10 97 3d f1 35 25 be 65 84 13 be
       0.021159029 0.07376122 -0.16133858 -0.14405973
0000a0 61 17 86 3d 66 51 03 3e db d1 a9 3c 24 25 cd bd
       0.06547428 0.1282402 0.02072995 -0.1001685
0000b0 be c3 55 be 07 8b 01 be 4a 72 ad bd 7e 9b 81 3e
       -0.20875451 -0.12650691 -0.084690645 0.25313944
0000c0 b8 ec 15 be 3f 27 8a 3d 74 6f 27 be 80 4d 64 bc
       -0.14641082 0.06745767 -0.1635111 -0.013934493
0000d0 f2 5f 4c 3d d7 f3 9b 3d af f8 a5 bb d4 76 ae bd
       0.049896188 0.07614868 -0.005065046 -0.085187584
0000e0 9f 42 b6 bd 4f bd 18 3e c7 43 43 3e 34 54 e6 bc
       -0.08899426 0.14915965 0.19068824 -0.028116323
0000f0 11 8f 52 be 9a 5b 4a 3d 45 21 fc bd 84 d7 64 3b
       -0.20562388 0.049403764 -0.12311033 0.0034918496
000100 09 9a 87 be ed 37 6d bd 1e 19 6a bd 56 07 3b be
       -0.26484707 -0.057914663 -0.05715286 -0.18264517
000110 bc 69 43 bb f9 08 0e 3e a4 a4 0e be 90 44 81 3e
       -0.0029817661 0.1387061 -0.13929993 0.25247622
000120 c1 2f fa bc aa e3 47 bd 2f 77 96 3d 5a 63 50 be
       -0.030540349 -0.0488011 0.07346951 -0.203504
000130 31 9d 90 3d 98 5f 27 be d0 6a 91 3d f6 c6 c9 bc
       0.07061232 -0.1634506 0.07100451 -0.024631005
000140 65 d3 b5 bd e3 ca 80 bd c5 e4 b5 bd f8 39 ce 3d
       -0.08878211 -0.062886976 -0.08881525 0.100696504
000150 63 02 bb 3a df 3e 11 3e 5a 50 23 3d 29 c4 16 3d
       0.0014267679 0.1418414 0.03987155 0.036808167
000160 9f 9e 86 bd 55 2d 39 bd d3 81 14 bb 05 46 1b be
       -0.06573223 -0.045209248 -0.002266039 -0.15163429
000170 91 20 70 bd 5b fc ea bc 95 18 00 be 10 75 55 bd
       -0.058624808 -0.028684786 -0.12509377 -0.052113593
000180 d1 54 62 3d 1b 69 da 3c b5 e2 2b 3e 22 f7 93 bd
       0.05525667 0.026661446 0.167857 -0.07224871
000190 e0 ae a4 bd 79 ed 9e 3c e6 d7 43 be be 00 16 be
       -0.08041167 0.019400345 -0.19125327 -0.1464872
0001a0 5a 9e 17 3d ad e2 69 be fe 55 6d 3e 95 ab 0d 3e
       0.03701625 -0.22840376 0.23177335 0.13834985
0001b0 aa b9 5a 3d 3a 60 7f 3d d1 c3 29 3d c4 83 03 be
       0.05339972 0.06234763 0.04144651 -0.12843233
0001c0 10 37 e2 bd 91 8a 8f 3c 64 95 22 be b6 de 7d bd
       -0.110456586 0.017522128 -0.158773 -0.06197997
0001d0 d2 89 88 3d 02 e3 46 3e e0 ab 04 be d7 b9 07 be
       0.06666912 0.19422534 -0.1295619 -0.13254486
0001e0 68 af f3 3d 44 79 50 3e 0a da 18 be b2 da 18 bd
       0.118986905 0.20358759 -0.14926925 -0.03731794
0001f0 ee 9c bf 3d 82 9c 1f be 48 f8 f6 bc d2 9a ce 3c
       0.09356104 -0.15587047 -0.030147687 0.025220308
000200 f3 89 e5 bd 1c d8 94 be 61 dd 75 be 26 1d 7d 3e
       -0.11207952 -0.29071128 -0.2401023 0.2471815
000210 38 9e d5 3c 2f 41 96 3e bf 38 b7 bd 2b 46 af bd
       0.026076421 0.29346606 -0.0894637 -0.08558305
000220 5c c0 18 be bf c5 44 be fa a3 10 3e de 18 4e be
       -0.1491713 -0.19216059 0.14125052 -0.20126674
000230 e4 5a 79 be c3 57 08 3d 3a 0a 11 bd 50 5e b5 3c
       -0.24351078 0.03328682 -0.035410143 0.022139698
000240 e4 3a 88 bc 49 82 0e 3d b3 71 50 3e 3c 74 bc 3d
       -0.016629644 0.03479222 0.20355873 0.092018574
000250 13 be a8 bd 4b 09 16 bd 02 1f a0 3d a9 7b 72 3d
       -0.08239379 -0.036629956 0.07818414 0.059199963
000260 6a e2 10 3d d1 7e 18 be e4 f9 ad bd fe 0d df 3d
       0.035372175 -0.14892127 -0.084949285 0.10891341
000270 56 2e e8 bd a5 1b 2d be b5 3e 48 3e a5 f9 56 3d
       -0.11336963 -0.16905077 0.19555171 0.052484173
000280 da 53 bd 3c bc cc 7b be 0e da c4 3d 47 1a ce bd
       0.023111273 -0.24589819 0.09611903 -0.10063606
000290 7a fc 2d be bd 59 03 be d2 ad 77 bc d5 3d 58 3c
       -0.16990843 -0.12827201 -0.015117126 0.013198336
0002a0 da 3e 07 3c c9 9a 25 3d ad d1 69 3d 7a fb a4 bc
       0.008254731 0.040430818 0.057084728 -0.020139445
0002b0 c5 fa 50 3d 7a 74 aa 3d 5a 8f 87 3d 02 83 04 be
       0.051020402 0.083229974 0.06619139 -0.129406
0002c0 27 6c 05 3e c9 a5 be bc 65 c8 df bd d0 db 10 3d
       0.13029538 -0.023272412 -0.10926894 0.03536588
0002d0 3c cd 13 3e 7a b3 bf bc 77 b5 12 3e 00 8b 15 be
       0.1443376 -0.02340101 0.14327036 -0.14603806
0002e0 ce 8d dd bd d3 e5 0c 3e 90 93 00 be b9 b8 48 3d
       -0.10818063 0.13759546 -0.1255629 0.04900429
0002f0 97 70 05 be 55 1f c7 3d e2 65 01 be 32 12 98 bd
       -0.13031231 0.09722773 -0.12636521 -0.074253455
000300 c1 5a 87 3d b5 e4 87 bd 12 c1 4d 3e c1 cb 51 3c
       0.06609107 -0.06635419 0.20093182 0.012804926
000310 05 3a 18 be 12 8a cb bd a2 87 ab bb bb e0 5d be
       -0.14865883 -0.09938444 -0.0052346746 -0.21667759

encoder.h2o.bias f4 [8]
000000 58 d9 03 3e 7f 3f 81 be 13 8e ad 3d 77 1b a5 3d
       0.12875879 -0.25243756 0.08474364 0.08061879
000010 26 8c f6 bc 78 f6 b9 bc 09 a5 1f be d6 70 2d be
       -0.030096125 -0.022700533 -0.155903 -0.16937575

ode_func.net.0.weight f4 [64, 4]
000000 ac 38 05 3e 14 77 90 ba 2e 03 31 be 1f b2 77 bd
       0.130099 -0.0011021816 -0.17286369 -0.060472604
000010 d7 39 7f 3d 55 83 ab 3c ef ce 27 3c ee d6 14 3e
       0.06231102 0.020936647 0.010242208 0.14535114
000020 72 40 0d be 12 0e ce bd f3 42 1f be ef cb b0 3a
       -0.13794115 -0.100612774 -0.15552883 0.0013488511
000030 f2 3f 73 be e6 96 d8 bc c0 f7 54 bd 46 ce dc 3d
       -0.23754862 -0.026439141 -0.051994085 0.10781531
000040 ae 58 a6 bd 32 4f c4 bd f1 f1 ea bb fa 48 02 3e
       -0.08122383 -0.09585418 -0.007169955 0.12723151
000050 6f 13 db bd ea 8a b9 3c 8c cf 79 3d 20 4a 16 3e
       -0.10697066 0.022649247 0.060988948 0.14676714
000060 d4 8d db bc 3a 62 f6 bb 52 54 d6 bd c2 94 1e 3b
       -0.026801027 -0.0075190337 -0.104653016 0.0024197553
000070 a2 db 97 3c 4d 70 e3 3d c1 0f f9 bd 30 cb 69 3b
       0.018537346 0.11105404 -0.12161208 0.0035674088
000080 d3 cf 33 3d be a1 00 be 43 7c c7 bd 99 c7 0b bc
       0.04389937 -0.125617 -0.09740498 -0.0085314745
000090 be 7e d0 3c 6b ef 90 bc 49 4b f2 3c ea e5 95 3e
       0.02545106 -0.017692288 0.029576914 0.29276973
0000a0 1c 01 09 be fe fc 0a b8 87 5c 43 3d 18 b0 40 bd
       -0.1337933 -3.313738e-05 0.047695663 -0.047042936
0000b0 0d 40 e1 3c 9e a0 81 3e 7b d5 c8 bd fb 67 62 bc
       0.027496362 0.25317854 -0.09806343 -0.013818736
0000c0 a6 e2 a3 bd b6 48 4c be f2 2d 42 bd bb dd 82 3d
       -0.08002214 -0.19949612 -0.047407098 0.06389948
0000d0 99 b2 35 bd 88 8a c1 3d 0a c3 a0 3d 92 15 25 be
       -0.044359777 0.09450251 0.07849701 -0.1612151
0000e0 ee 51 d3 bc 79 6d 46 be 68 fc bb bc 26 d2 7c bd
       -0.025795903 -0.19377698 -0.022947505 -0.06172385
0000f0 f5 bd 30 3d 1a d8 50 3c c4 77 04 bd a1 a2 34 bd
       0.043149907 0.012746835 -0.03234078 -0.044100408
000100 4c 19 db 3c ae 07 3e 3e f3 93 33 3c b4 18 84 3d
       0.02674546 0.18557617 0.010960567 0.06450024
000110 94 90 7b bd f7 05 08 be d6 12 00 be 8c d5 23 bd
       -0.061417177 -0.13283525 -0.12507185 -0.039998576
000120 66 9a 2d 3d b1 12 79 bd ab 07 83 bd 40 b2 9c 3d
       0.042383574 -0.06080884 -0.06397947 0.07651186
000130 be 59 2d 3e 7d 92 0c bd 4d d5 0b bd 34 fd 9e bd
       0.16928765 -0.03431939 -0.034138966 -0.077631384
000140 af d3 ae 3c d6 3f b7 bd 4c 28 bb 3d 71 50 99 3c
       0.021341173 -0.089477226 0.091385454 0.018715115
000150 bd 76 08 be 55 7c ad bc 53 1e 7b bd 65 78 7a 3c
       -0.13326545 -0.02117745 -0.061308216 0.015287493
000160 fd 50 8c ba 1e d6 25 bd 40 cd 84 bd ed f9 d9 3d
       -0.0010705289 -0.0404874 -0.06484461 0.10643373
000170 dd 59 e6 bc 92 d6 12 3d 6a 3b 05 3e 5b b4 85 3d
       -0.028119022 0.03584916 0.13010946 0.06528541
000180 fe 6d 5f be 2c 86 b2 bc 5b e1 0b 3e b6 d6 f1 3d
       -0.21819302 -0.021792494 0.13660185 0.11808531
000190 82 ec b1 bd cd 12 a8 bd 59 92 25 be e3 3b 0a be
       -0.086876884 -0.08206711 -0.16169108 -0.13499407
0001a0 19 f4 81 3d 63 fd c9 bd 9c c9 41 3e e1 2b 89 bd
       0.06345386 -0.09862783 0.18924564 -0.06697822
0001b0 c6 90 e7 3d d8 68 53 3e 38 f9 b9 bb ef 93 12 be
       0.1130691 0.20645463 -0.005675461 -0.14314245
0001c0 c3 60 94 3d 44 54 60 be 4a f6 e3 bd 88 97 90 be
       0.07245018 -0.21907145 -0.1113096 -0.2824061
0001d0 98 b6 6f bd 09 d2 5c be 1e 51 c1 bc dd f5 13 3d
       -0.058523744 -0.21564497 -0.02359825 0.036123145
0001e0 d2 77 9e bd ec 91 19 3d 19 32 de 3d ce 67 9a bc
       -0.07737698 0.037492678 0.10849399 -0.018848326
0001f0 02 40 17 3d 17 90 91 bc 06 cd d0 bd db c9 96 bb
       0.036926277 -0.017768903 -0.10195355 -0.0046016998
000200 76 d4 32 3d 8e e7 29 3d bf 10 3b 3e 62 5a 86 3d
       0.04365965 0.041480593 0.18268107 0.06560208
000210 c0 05 f8 3d c6 98 f9 bd 1d 2a 2d be 98 da 79 be
       0.12110472 -0.12187342 -0.16910596 -0.24399793
000220 f5 18 ac 3d a2 f5 68 3d a6 84 4c 3e d1 f9 cd bd
       0.08403198 0.05687488 0.19972476 -0.10057414
000230 90 a4 b9 3c 6e 4d 66 bd 08 02 21 bd 2e 51 5b bd
       0.022661477 -0.056226186 -0.039308578 -0.053544216
000240 74 a0 56 3d b0 d4 81 3e e3 12 d0 3d b4 5b 9b 3d
       0.052399114 0.2535758 0.10159852 0.0758585
000250 d8 82 14 3c fd d5 99 bd e9 2b 98 bd 56 64 9b 3d
       0.009064399 -0.07511518 -0.0743025 0.07587497
000260 38 df 9d 3d 46 47 bf 3c 0d 95 db bd ae 53 c1 3d
       0.07708591 0.023349416 -0.107217886 0.09439789
000270 86 99 eb 3d 96 4c 34 3e 63 ef bd 3b 90 8a 8e bd
       0.11503892 0.1760734 0.0057963594 -0.069600224
000280 61 c3 2a 3e 6c 50 a6 3d d1 e7 55 bd bb 50 ff bc
       0.16676094 0.08120808 -0.05222303 -0.031166425
000290 81 88 12 be 7e a8 5d 3b d8 3a 65 3d 2e 03 48 be
       -0.14309885 0.0033822353 0.05596432 -0.19532463
0002a0 d2 53 41 3e a3 2c 8a bd 9b 81 69 bd d1 f9 68 be
       0.18879631 -0.06746795 -0.057008367 -0.22751547
0002b0 e1 15 8b bd 70 15 bf 3c fa be 22 be 8d e2 b2 3d
       -0.067912824 0.023325652 -0.15893164 0.087346174
0002c0 48 bc 82 3d f3 7f 9c bd 8d 9c 06 bd b2 0c bd bd
       0.06383568 -0.07641592 -0.032864142 -0.09230937
0002d0 b0 f4 d7 3d 46 f5 32 3e 67 00 cb bd aa a3 fd 39
       0.10544717 0.17476377 -0.09912186 0.0004837786
0002e0 03 d8 b6 3d 4b 45 e2 3d a5 a8 68 3b 3c 65 bc bd
       0.0892792 0.11048373 0.003550091 -0.091989964
0002f0 f1 78 77 3d 5e 8a 51 3e 53 64 e5 3d 1b b4 16 bd
       0.060418073 0.20462939 0.11200776 -0.036792856
000300 f3 a8 c6 bd 34 54 07 bc c0 14 38 bd 7b 93 bc bd
       -0.09700193 -0.008259822 -0.044941664 -0.09207817
000310 b4 8b 0c bd fb 24 0d 3d d8 b2 a7 bd b3 96 18 3e
       -0.03431292 0.034459095 -0.081884086 0.14901237
000320 46 80 bd bd c2 65 ca 3c 97 20 d1 3d b9 b8 69 3b
       -0.09252982 0.024706725 0.10211294 0.0035663082
000330 b9 5b 08 bb 1e 2a 2b be fc 53 7e bd af 7f 82 bb
       -0.0020806624 -0.16715285 -0.062091812 -0.003982506
000340 20 d5 52 bd 6f a0 f7 3b f5 8f 79 3d 7e 87 01 3e
       -0.051472783 0.007556967 0.060928304 0.12649342
000350 d7 b9 00 bd 6e da 18 be c6 5a 17 3d ea 4d 64 3c
       -0.03142723 -0.14927074 0.036951803 0.013934592
000360 9c df 1a be fa bd f3 bd 67 74 0d be b6 d7 66 3d
       -0.15124363 -0.119014695 -0.13813935 0.05635806
000370 99 e9 1b 3d ce 3f d0 3d fa 44 5c 3c 3e ad cd bd
       0.038064573 0.1016842 0.01344418 -0.10042809
000380 7c 0a 9f bd 31 e6 a5 bd a2 be 35 3c a5 16 72 3c
       -0.077656716 -0.08100546 0.011092814 0.014775907
000390 16 6c 83 bc d1 79 68 3e 5b 6f dd 3d 89 32 48 3d
       -0.01604275 0.2270272 0.10812255 0.04887632
0003a0 49 3a 38 bd 5a c5 83 3d dd bb ef 3d 3f 52 5e bd
       -0.04497746 0.06434126 0.11705754 -0.054277655
0003b0 f7 7d 0a 3e 21 57 f0 3d 4a bd 9c bd bf 13 c6 3d
       0.13524614 0.117353685 -0.076532915 0.09671735
0003c0 c2 5e b6 3c 25 06 28 3d 55 85 4c bd 51 83 85 3d
       0.02226198 0.041021485 -0.049931843 0.06519187
0003d0 28 74 74 be 92 a9 e4 bd 77 37 73 3d c5 53 12 3b
       -0.23872435 -0.111651555 0.059379067 0.0022327763
0003e0 1a 06 42 3d 93 8e 17 3e 21 0f b2 bc 12 4d 83 3d
       0.0473691 0.14800481 -0.02173573 0.06411184
0003f0 70 df 92 bd 10 53 ef bd 53 72 5d bd 9f ad 14 3e
       -0.071715236 -0.11685765 -0.054064106 0.14519356

ode_func.net.0.bias f4 [64]
000000 71 17 80 bc 39 5e 6f 3d 74 b7 74 bd 1a 83 98 bd
       -0.015636178 0.058439467 -0.059745267 -0.07446881
000010 45 f7 dc bb 66 27 10 bd 03 6f 15 bd 62 50 04 bd
       -0.006743344 -0.035193823 -0.036482822 -0.03230322
000020 db 35 19 3d 9a be 35 3d 4c ff 63 3d a4 81 5b bd
       0.037404876 0.044371225 0.055663392 -0.05359043
000030 d8 d7 43 bd 68 50 0f bd 3a b2 94 bc 0c cc 19 bd
       -0.047813267 -0.03498879 -0.018151391 -0.03754811
000040 dc c8 45 bc 45 aa 89 bd c8 87 2c 3d d1 8c 97 3d
       -0.012071814 -0.067219295 0.04212168 0.073999055
000050 b1 5b d2 3d 44 55 af bd 78 96 b8 3c 78 76 a0 bc
       0.10271395 -0.08561185 0.022532687 -0.01958774
000060 c0 8b 7f 3c 6c 54 8b bd 00 42 21 bd f3 ba bc bc
       0.015597284 -0.068032116 -0.039369583 -0.023038363
000070 83 85 c2 bd 9e ba 62 bd e9 dc c8 bc 40 4f fd bc
       -0.094981216 -0.055353753 -0.0245194 -0.030921578
000080 77 a8 71 3d 79 33 1f 3c 71 d6 2a 3d fd e9 49 bd
       0.05899855 0.009716862 0.041708414 -0.049295414
000090 43 34 91 3d 7b 24 97 bc 06 59 56 3d c4 ad 89 3d
       0.07090046 -0.018450012 0.052330993 0.06722596
0000a0 61 f8 50 3d 62 25 75 bd 63 f1 ac 3d 2d 29 71 bc
       0.051018123 -0.059850104 0.08444478 -0.01471929
0000b0 d2 0a c4 3c 72 1e c2 3c e9 a9 1d 3d d7 01 aa 3d
       0.02393094 0.023696158 0.038492117 0.08301132
0000c0 4e 49 cc bd e1 62 35 bd e8 7b 8f bc 08 b5 2f bc
       -0.09974919 -0.04428375 -0.017515138 -0.010724314
0000d0 d7 c2 12 bc 32 ce 04 3c d1 0e a5 bd fe 0c 36 3c
       -0.008957586 0.008105801 -0.08059467 0.011111496
0000e0 19 52 16 bd f1 20 8c bd 18 23 3d bd e7 f1 28 3d
       -0.03669939 -0.068422206 -0.046176046 0.04124632
0000f0 3b 78 86 bd 2c 81 3a bd ee 8a 8c bd 57 f3 35 bd
       -0.06565901 -0.045533344 -0.06862436 -0.04442152

ode_func.net.2.weight f4 [64, 64]
000000 86 77 07 be 4a 13 6f bd ec 15 8e bb 96 8a 75 3d
       -0.13229188 -0.058368005 -0.0043361094 0.05994662
000010 f0 00 f4 3a 6c f4 7d bd d9 e1 20 3c 28 f6 8a bd
       0.0018616002 -0.062000677 0.009819471 -0.06785232
000020 fd 60 e9 bd f9 97 98 bd 7c 0c ad bd 6d 2a 44 be
       -0.11395452 -0.074508615 -0.08449647 -0.19156809
000030 f4 ff 4d 3d e2 e6 72 bc e9 b5 e1 3d b1 dd a4 3d
       0.050292924 -0.014825555 0.11021025 0.08050097
000040 52 4f f1 bc b5 f3 3c 3d 09 5c e2 bc 08 09 69 bc
       -0.029456768 0.046130855 -0.027631776 -0.014223345
000050 cf 0d df bd d8 aa 96 bc 16 25 1e bd b6 fd 9c 3c
       -0.10891306 -0.018392012 -0.038609587 0.019163948
000060 bb 10 2b be b0 3f 5b bb 0c 43 a6 bd a5 26 46 bd
       -0.16705601 -0.0033454709 -0.08118257 -0.048376698
000070 d3 c9 ec 3d 9b f7 88 bd 1c 68 d5 bb b7 73 3a 3d
       0.115619324 -0.06687852 -0.006512655 0.04552051
000080 0f 7f 87 bd 39 82 b4 3d c4 69 29 bd 9b 5d 5e 3e
       -0.066160314 0.088139005 -0.04136063 0.21715395
000090 aa fa f7 bd a4 ce ac 3d 00 e0 75 3d df 1d e1 bc
       -0.12108357 0.08437851 0.060028076 -0.027480064
0000a0 99 15 89 bd 58 65 13 3e 5c d8 54 bd 19 47 af bd
       -0.066935726 0.14394128 -0.05196415 -0.08558483
0000b0 1b 6c 45 3e 5d f8 e8 bc 94 c3 18 be ce aa 96 bd
       0.1927952 -0.028438741 -0.14918357 -0.07356797
0000c0 c8 28 87 3d 00 27 81 3d d4 d5 2d be d7 06 3c 3d
       0.06599575 0.06306267 -0.169761 0.04590496
0000d0 43 dd fc 3d cb 91 82 bd 41 5d 23 3e 50 69 b6 3b
       0.1234689 -0.06375464 0.15953542 0.0055667534
0000e0 77 86 f4 3c a6 a7 ac bd 27 b4 46 3c 9d 10 41 be
       0.029849274 -0.08430414 0.012127913 -0.18853994
0000f0 7d 1b ff bd a9 32 51 3b 18 b5 70 bd 62 e9 1f 3e
       -0.12456415 0.0031921065 -0.058766454 0.15616372
000100 7f 70 04 bd ec e8 17 ba 6b e8 cf 3d e2 4a 68 3d
       -0.032333847 -0.0005794901 0.10151752 0.05671204
000110 10 58 6e 3c 80 4b df bd 6e 46 24 bd e6 e8 eb bd
       0.014547363 -0.10903072 -0.04010623 -0.11519031
000120 18 1a f6 bc 1d 8c 15 3e 37 f0 58 3d 06 54 34 3d
       -0.03004174 0.1460423 0.05296346 0.044025443
000130 8f 26 54 3e 92 4c a7 3d 22 22 2f 3e fd ab 8a 3d
       0.20717834 0.081689015 0.17102864 0.067710854
000140 6c bd d8 bd 95 6d 68 3d 35 7c 12 3e 4e 63 c1 bd
       -0.10583004 0.05674513 0.14305194 -0.09442769
000150 c5 99 d6 bd 78 69 2f 3e 33 52 a2 bd 6e 2c 25 be
       -0.10478548 0.17130077 -0.079258345 -0.1613023
000160 d3 be 4c 3d c0 6f 82 bd 96 65 3c 3e b9 56 cd bd
       0.04998667 -0.06368971 0.18398127 -0.10026307
000170 30 fd 58 3e 6a 5a 32 3e 0d b1 8f 3d 1a dc be 3d
       0.21190333 0.17417303 0.07016192 0.09319325
000180 3b b0 80 3d 9f 1a 9c 3d a9 7f d8 bd 29 90 7f 3d
       0.06283613 0.07622265 -0.10571224 0.06239334
000190 68 3d 07 bd a6 05 77 3e 03 a4 2b 3c 81 8d d9 bd
       -0.033017546 0.24123248 0.010476115 -0.10622693
0001a0 79 17 f2 bd 5d 0e f8 bd e3 fe bb bd 55 85 af 3d
       -0.11820883 -0.121121146 -0.09179475 0.08570353
0001b0 c1 fb a3 3d 12 02 35 be 04 66 8b bd 0a 9b 3a be
       0.080070026 -0.17676571 -0.06806567 -0.18223205
0001c0 e7 fd 66 3d 24 ac 25 3d 12 a4 11 be 8e 1f 53 bc
       0.056394484 0.04044737 -0.14222744 -0.012885941
0001d0 24 f2 08 bd dc 7e c9 3d 50 ed 6f bb 0b 94 32 be
       -0.03343405 0.0983865 -0.0036609955 -0.17439286
0001e0 ef 0b e9 3c 32 07 19 3d b4 13 f5 bc 64 76 77 bd
       0.028448073 0.037360378 -0.029916622 -0.06041564
0001f0 e7 ca 0d 3e 6c 7d 87 3d 15 8c 06 3d ff f3 b4 bb
       0.13846932 0.06615719 0.032848436 -0.0055222507
000200 24 20 44 be 3d f6 29 be 14 da e0 3d 58 99 b5 3d
       -0.19152886 -0.16597839 0.10979095 0.088671386
000210 ae 6c fe bb 8c 76 65 bb a7 a2 17 3e 58 fe 9e bd
       -0.0077644205 -0.0035013286 0.1480814 -0.07763356
000220 9d d2 9d 3d dc 03 92 3c a8 18 ff 3d 80 22 4f 3d
       0.07706187 0.017824106 0.12455875 0.05057001
000230 40 22 60 be 29 d0 c2 3c 0b 65 98 bd 5e 94 49 3d
       -0.21888065 0.0237809 -0.074411474 0.04921376
000240 8b 06 54 bd e7 02 13 be 4a 2f 59 bd 72 81 b4 bd
       -0.051764052 -0.14356576 -0.053023614 -0.08813752
000250 08 1e b5 bd 92 f7 e9 bd 68 d0 fd 3c ed d7 b4 3d
       -0.08843619 -0.114241734 0.030983165 0.08830247
000260 f3 b4 04 3d 5d 13 65 bd 0b 62 bd bd eb 2b c7 3b
       0.03239913 -0.05592667 -0.09247216 0.0060782335
000270 99 6a b8 bd ee 24 37 be 2d 85 79 3d ff d4 4e bc
       -0.09004707 -0.17885181 0.060918022 -0.012624024
000280 ea 75 77 3e 0a dd bd bc 4e 52 9a bc 7e 10 20 3d
       0.24166074 -0.023176689 -0.018838074 0.03907823
000290 67 b3 83 bb 04 b3 0b bd 0c 0e 25 bc 56 25 55 bd
       -0.004019189 -0.03410627 -0.01007415 -0.05203756
0002a0 f1 8e ba bd 87 7c 14 3e 31 13 32 be 92 cc 2a bd
       -0.09109295 0.14500628 -0.17390133 -0.041699
0002b0 78 69 33 bd ca c0 9e bd b2 69 9f bd 16 73 cc 3d
       -0.043801755 -0.07751615 -0.07783832 0.099828884
0002c0 b0 9d c4 3d 2d c6 77 be d7 e0 27 3e 94 a5 a3 3d
       0.09600389 -0.24196692 0.16394363 0.07990566
0002d0 8e 19 34 bd 9f 29 63 3d 87 dd 88 bd 95 2f 79 3d
       -0.043969683 0.055459615 -0.06682878 0.060836393
0002e0 73 10 9f 3b 6d 26 81 3e 8a fa ff 3d 93 e3 85 bd
       0.004854256 0.2522463 0.124989584 -0.06537547
0002f0 c9 cd 17 be 19 8b aa 3c 36 cd cc bc 99 53 69 bd
       -0.14824595 0.02081828 -0.025000196 -0.05696449
000300 df 06 91 3e 6b f7 4e be 2b f6 61 3d 1b 76 4a 3d
       0.28325555 -0.2021157 0.055166405 0.04942904
000310 53 39 ce 3d 0e 14 38 be bd 46 32 3e 1d 7c 13 3e
       0.100695275 -0.179764 0.17409797 0.14402814
000320 9c c2 99 3e e8 5d 70 bd 25 de 3d 3d a1 b0 a1 3d
       0.30031288 -0.058683306 0.04635443 0.078950174
000330 ac b3 b6 bd f6 3b 81 3d b0 b6 95 3d 6b d3 a3 3d
       -0.089209884 0.06310265 0.073102355 0.07999309
000340 92 96 c6 bb 75 26 9f 3d 08 22 9e 3c fa b3 99 bc
       -0.00606043 0.07771007 0.019303337 -0.018762577
000350 08 30 8e 3c 15 3d 0f 3d 8b ba 1c 3e 2d ac da bd
       0.017356887 0.03497036 0.15305535 -0.10677371
000360 56 e3 ba bd b7 ed ed bd be 36 bc 3d 3b 58 13 3e
       -0.09125392 -0.11617606 0.09190129 0.14389126
000370 75 8c ca 3c e6 bf 77 3e 86 35 e1 bc c0 fe 5c 3d
       0.024725178 0.24194297 -0.027491342 0.053953886
000380 45 d3 07 bd b6 94 9e 3d 76 dc 0a 3d 4f 9b 0e 3e
       -0.033160467 0.07743208 0.033901654 0.13926433
000390 d5 7f 07 be 34 19 73 3d 8e 07 b2 bc 7b f1 ae 3c
       -0.13232358 0.059350207 -0.021732118 0.021355381
0003a0 73 36 b2 bc 7b 39 bd bc 0a 17 58 be 34 93 97 3d
       -0.021754479 -0.023098698 -0.21102539 0.07401124
0003b0 3a ec a9 bc 2c 35 51 3e af 67 82 3d 0b 5f c1 bd
       -0.020742524 0.2043044 0.06367432 -0.09441956
0003c0 73 f2 91 3d fc 03 cf 3c ee 84 a9 bd 04 12 e4 bd
       0.07126322 0.025270455 -0.082773075 -0.11136249
0003d0 bd 95 42 be 39 c7 4f 3d 66 65 ec 3d a1 ed 72 bc
       -0.19002433 0.050727103 0.11542778 -0.014827163
0003e0 2a a1 1b 3e 81 0c 48 be 88 f2 87 3c 8d ed 02 bc
       0.15198198 -0.1953602 0.01659514 -0.007991207
0003f0 5d 38 97 3d da d9 1b 3d 61 14 81 3d 37 47 00 be
       0.07383797 0.038049556 0.06302715 -0.12527166

ode_func.net.2.bias f4 [64]
000000 80 34 80 bd 3c 05 33 bd 0e bf d1 3c 8e 33 a5 bd
       -0.062600136 -0.043706164 0.025603797 -0.08066474
000010 fa c8 b3 bb 8f 35 35 bd 11 33 8e 39 bc 6c a3 bc
       -0.0054866048 -0.04424053 0.00027122398 -0.01994931
000020 24 7d cf bb 0b 51 09 bc ff 25 33 bd c5 9b 48 3c
       -0.0063320566 -0.008381139 -0.043737408 0.01224417
000030 07 9d 62 bc 17 eb 07 3c 62 98 97 bd 4e b7 2b bd
       -0.013831384 0.008295796 -0.074021116 -0.04192286
000040 c9 60 69 b8 b6 f8 87 3c 9a 6a 27 bd e8 2a d9 ba
       -5.5641667e-05 0.016598087 -0.040873148 -0.0016568573
000050 60 0e 10 bd a8 ca ad ba 3e ad d7 bb 38 34 20 3c
       -0.03516996 -0.0013259249 -0.0065819314 0.009778075
000060 77 1d 80 3d 5d 47 92 bd 4a 7d 8f 3c 65 ed 49 3b
       0.0625562 -0.07142518 0.017515797 0.0030811664
000070 69 d8 84 3d 9f 63 79 3d a3 2c bd bc ad 1f 02 bd
       0.064865895 0.06088602 -0.023092574 -0.03176849
000080 0d 7b ba 3c 2f b5 e8 ba a4 45 b7 3c ac 68 32 3c
       0.022763753 -0.0017754192 0.022372074 0.0108892135
000090 08 3a 09 3d 2e bf 2b 3d 48 b1 5a bc e6 37 15 bd
       0.03350261 0.04193037 -0.013347931 -0.036430262
0000a0 aa 86 e3 3c bb a3 d9 bc cb 06 a5 3c 11 11 7e bc
       0.027774174 -0.02656733 0.02014484 -0.015506999
0000b0 f7 ae 35 3d 4f 4f 35 bc 02 0e 91 bd 0c 9b 2a bc
       0.044356313 -0.011066272 -0.0708275 -0.010412943
0000c0 af 95 61 3d 78 69 9f 3c 75 8f 50 3d 2d 9e 85 3c
       0.05507439 0.019459471 0.05091806 0.016310776
0000d0 f5 63 92 3c 07 f3 0b bd 4a 33 07 bc 72 51 37 3d
       0.017869929 -0.034167316 -0.008251974 0.044755407
0000e0 b4 13 f9 bc 54 99 42 3d 5f f3 56 bc 38 b6 90 3d
       -0.030404903 0.047509506 -0.013119548 0.070660055
0000f0 86 a4 38 3c 87 5f 0a bd b6 fe 27 3d f3 66 21 bd
       0.011269694 -0.03378251 0.041014396 -0.03940482

ode_func.net.4.weight f4 [4, 64]
000000 d9 f1 90 3e 12 dd 8e 3e 12 2a 9f bd 5f 6a 6d 3e
       0.28309515 0.27903038 -0.07771696 0.23185109
000010 ae 13 2c be 9d 32 62 3e 8b c6 dd bd 5a 4d 09 3e
       -0.16804382 0.2208962 -0.10828885 0.13408414
000020 57 7e 90 bd fd 13 5a bc d7 ed 4b 3d dc cb 10 bd
       -0.070553474 -0.01331043 0.04978737 -0.035350665
000030 d8 66 00 3e 6f a7 6e 3d 58 af f7 3d 73 a2 0a 3e
       0.12539232 0.058265146 0.12093991 0.13538532
000040 44 2c 96 3d 18 0c 2e bd 93 82 3a 3d 0c d4 4a 3e
       0.07332662 -0.042492002 0.04553468 0.19807452
000050 bb 37 cf bd d6 23 70 3c c3 f7 47 bd e2 48 92 bd
       -0.101180516 0.014656981 -0.04882027 -0.071428075
000060 7a e8 97 be 41 e7 4c 3e 4c 93 1a 3e e4 28 76 3d
       -0.29669553 0.20010091 0.15095252 0.06009759
000070 22 f7 ec bd 33 b9 1c be d5 22 09 bd 59 e8 03 3e
       -0.11570574 -0.15305023 -0.033480484 0.12881602
000080 3d 62 93 bd 48 58 81 bc 77 d4 13 be f5 dc e1 3d
       -0.07196472 -0.015789166 -0.14436518 0.11028472
000090 09 7c 30 bd 4c 57 15 be c1 9d 0a 3d fc 33 71 3d
       -0.04308704 -0.14584082 0.033841852 0.058887467
0000a0 20 f4 26 be bf ec 37 3e bd f7 81 bc 75 51 f1 3d
       -0.16304064 0.17961405 -0.015865201 0.11783115
0000b0 b3 7e 11 bd 14 a5 8a 3c 45 1f 08 3e ae a2 f2 3c
       -0.03552122 0.016924419 0.13293178 0.029618587
0000c0 d5 82 0b bd 68 a3 97 bd e6 0d 5d be d4 cc b3 3c
       -0.034060318 -0.07404214 -0.21587333 0.021948256
0000d0 a2 c3 ab bd b5 d6 3a 3e 8f 84 00 3e 11 99 6f be
       -0.083869234 0.18245967 0.12550567 -0.23398234
0000e0 63 cf a9 3d 41 46 99 bd 39 2c 9f 3d 60 bc a8 be
       0.08291509 -0.07484103 0.07772107 -0.3295622
0000f0 33 6a 08 be ed ff f7 3d a1 6e 0c be c7 19 37 3e
       -0.13321762 0.12109361 -0.13714077 0.17880927
000100 2b 90 1e bd d5 21 39 bc 42 4b f6 3d ef 58 15 be
       -0.038711708 -0.01129957 0.12026073 -0.14584707
000110 36 c0 2f be e1 bc cd 3c 35 c8 05 3c 16 22 a2 3d
       -0.17163166 0.025114479 0.008165409 0.079166576
000120 49 66 f6 bc b9 55 6f bd fd 55 4b 3d 67 d7 0b bd
       -0.03007807 -0.05843136 0.04964255 -0.03414097
000130 fe fe 81 3d 1f f9 a5 bc cc e2 ee bd 06 83 df 3c
       0.06347464 -0.020260392 -0.11664352 0.027284157
000140 ad 46 11 3e 96 74 a2 3d 09 fc b1 3d c6 9d 2b 3d
       0.14187117 0.07932393 0.0869065 0.04189851
000150 d7 e9 91 be 6b 48 36 3d 2f c6 e9 bd e7 20 25 be
       -0.28498718 0.044502657 -0.11414754 -0.16125832
000160 92 33 03 3b 79 85 1d be be 6d 8d 3d 82 d0 4e 3e
       0.0020019752 -0.15382947 0.06905697 0.20196727
000170 25 f4 16 3c b0 1a 2e 3c f9 0e 80 bc 72 02 2e bd
       0.009213482 0.01062648 -0.01563214 -0.0424828
000180 00 f9 bd 3d b4 b1 10 be 27 a7 36 bd b0 cc 70 3e
       0.092760086 -0.14130288 -0.044593003 0.23515582
000190 a7 e9 44 3e 7a 5b f5 bc 99 8e 88 bc a6 eb dd bd
       0.19229756 -0.029950846 -0.016669558 -0.10835962
0001a0 36 11 af 3c c8 ed b1 bd 53 df b5 3d 18 29 e4 3c
       0.021370512 -0.08687931 0.08880486 0.027851626
0001b0 9b 8f 7a 3e 75 d8 02 3e 40 a0 0a be fe 09 8a 3d
       0.24468844 0.12777884 -0.13537693 0.06740187
0001c0 c1 be d2 3b a8 a0 b3 3d 31 b1 ae 3b a3 d1 4f 3d
       0.006431431 0.08770877 0.0053311815 0.050737035
0001d0 86 b4 f8 bc ac c2 d3 bd 75 77 31 3d b5 c7 c6 3c
       -0.030359518 -0.10339865 0.043326814 0.02426515
0001e0 bb 97 83 bd 8f 6c 02 bd 90 83 78 3d 77 a1 01 3e
       -0.06425425 -0.03184181 0.060672343 0.1265925
0001f0 25 64 1f be e6 ee 85 bd 89 c6 01 3d c5 fb c2 bd
       -0.15565546 -0.06539707 0.03168348 -0.095206775
000200 89 51 1f bd a5 cc 5d bd 8b 59 6b be 68 a9 97 3d
       -0.038896117 -0.054150242 -0.22983377 0.074053586
000210 35 1e 72 bd ee d0 d8 bc 28 58 9e bc ef 65 15 3e
       -0.05911084 -0.026466813 -0.019329146 0.14589666
000220 c2 2d 2f 3e 5c f8 c1 3d d3 76 b4 3d de 83 22 be
       0.17107299 0.09471199 0.088117264 -0.15870616
000230 7e e3 20 3d df 2f 4a 3d cb 40 ac bc 72 26 cc 3c
       0.039279453 0.04936206 -0.02102699 0.024920676
000240 88 93 37 3e f9 19 14 3e ae 74 b9 3d 03 23 81 3d
       0.17927372 0.14463033 0.09055458 0.06305506
000250 d4 c8 32 be 3a 6b 4e bd 28 03 96 3d 8e b4 b9 3d
       -0.17459422 -0.050395228 0.07324821 0.09067641
000260 6b b6 28 bd c3 e0 84 bd f7 80 c6 3c a8 21 d9 3b
       -0.041189592 -0.064881824 0.024231417 0.0066263266
000270 e4 cc 4d be 35 29 04 3d 56 b7 29 bd 89 c5 bd bd
       -0.20097691 0.03226586 -0.04143461 -0.092661925
000280 61 a8 28 be 54 dd 80 3d a5 fb 25 bb 2a c9 46 3e
       -0.16470481 0.06292215 -0.0025326994 0.19412675
000290 14 29 66 bd b9 db 40 bb 5b 4a 94 3d fc bc c3 3c
       -0.05619152 -0.002942784 0.07240745 0.023893826
0002a0 65 10 21 be f6 b8 e6 bd d4 da 05 3e 5e 70 78 bd
       -0.1572891 -0.11265747 0.13071758 -0.060654037
0002b0 5c d7 64 3d 44 91 5e bd a5 12 05 be d5 c3 33 bd
       0.055869445 -0.054337755 -0.12995394 -0.04388793
0002c0 b7 4a f6 bd 57 c6 aa 3d 77 7d 3e 3d 06 ce f6 bd
       -0.120259695 0.083386116 0.04650637 -0.120510146
0002d0 05 52 64 be 63 56 5f 3e bb cb ff bd 9a 9f ce bc
       -0.22296913 0.21810298 -0.124900304 -0.025222588
0002e0 c9 d4 16 3d 29 40 f7 bd 27 58 12 bd 64 5d 32 3d
       0.03682402 -0.120727845 -0.0357286 0.043546095
0002f0 73 d4 82 3c 45 23 04 be 6b 1c 95 bd 55 f1 76 3e
       0.015970444 -0.1290408 -0.07280811 0.24115498
000300 78 16 98 bd 47 31 20 be 9b a4 0c 3e 5b 32 b8 3d
       -0.074261606 -0.15643798 0.13734667 0.089939795
000310 97 b8 8d 3d d3 5f 2e bd a6 ce 4e be 4a 46 cc 3d
       0.06919973 -0.042571854 -0.20196018 0.09974344
000320 b8 ea 29 3e 41 95 0c 3e a9 67 83 3d 6c d0 0d 3e
       0.16593444 0.13728811 0.06416256 0.13849038
000330 85 52 ac bd 91 43 29 3e 32 0c 93 bc 8a 5c 6b ba
       -0.08414177 0.16529681 -0.017950151 -0.0008978328
000340 85 21 9c 3c c3 ad 39 3d 30 29 2c be 73 91 78 3e
       0.019058952 0.045331728 -0.16812587 0.24274234
000350 3e 07 61 be 59 f2 37 be ac df e9 bc 77 e4 39 bc
       -0.21975419 -0.17963542 -0.028549038 -0.011345974
000360 66 78 31 3e ff 48 27 be 15 a0 18 3e 4f ba 38 bd
       0.17331085 -0.1633644 0.14904816 -0.045099553
000370 17 c2 70 bd 65 99 f8 3d fa c5 5f 3c 9b 28 a4 3d
       -0.05877885 0.12138633 0.013658041 0.080155574
000380 cd 1e 63 bd 64 90 7a 3e 56 84 87 bd 84 ce a3 bd
       -0.055449296 0.24469143 -0.06617038 -0.07998374
000390 17 ce bd 3d 5e ca 3b 3d 8c dd e7 3d ca f5 90 bc
       0.09267824 0.04584729 0.113215536 -0.017695326
0003a0 a9 17 03 be f3 08 f8 3d 4d 6b 82 3e c4 89 ac 3c
       -0.12801994 0.12111082 0.2547249 0.021061786
0003b0 fc dc 77 3e 87 99 a7 3a f5 83 a7 3c 52 fc 85 bc
       0.24205393 0.0012786844 0.020448664 -0.016355667
0003c0 e3 d3 25 3d 34 f1 75 3d 81 a6 46 3e cb b2 b4 3e
       0.040485274 0.060044482 0.19399454 0.35292658
0003d0 b2 c7 7e 3d 6c a5 10 bd f3 e0 04 bd 75 8a 8f bd
       0.062202163 -0.03531401 -0.03244109 -0.070088305
0003e0 cf f9 a7 bd aa 7f 9b 3d eb 14 14 3e d0 06 19 3e
       -0.08201944 0.07592709 0.14461105 0.14944005
0003f0 70 da 49 3d 25 ac a1 bd 61 ed 9b bd a7 0a 72 bd
       0.049280584 -0.07894162 -0.07613636 -0.05909219

ode_func.net.4.bias f4 [4]
000000 34 46 54 bd 69 61 71 bc 60 19 fa bc f5 70 3e 3c
       -0.051824763 -0.014732697 -0.030529678 0.011623611

decoder.fc1.weight f4 [25, 4]
000000 ab 3e 60 3d 72 b2 f0 be f5 d9 ef bd fb 4b e6 bd
       0.054747265 -0.47011143 -0.11711494 -0.11244961
000010 f1 25 c0 be fc d1 cc bd db 78 01 3f aa 99 be 3e
       -0.37528947 -0.10000989 0.50575036 0.3722661
000020 7d e5 11 3c 5e 1a d4 bd 82 73 b4 3d 8a 26 c5 3e
       0.008904812 -0.10356592 0.08811094 0.38505965
000030 b3 2d 93 be 5a c3 6e be 28 2e 0a 3d e4 a7 a0 3e
       -0.28745803 -0.23316708 0.033735424 0.3137809
000040 c9 e6 af bb 33 fe 18 bf 7e aa 08 be 48 eb 76 3e
       -0.005368088 -0.5976288 -0.13346288 0.2411319
000050 72 e9 f3 3e 8f d1 76 be e3 aa e5 3d 50 03 77 bd
       0.47639042 -0.24103378 0.11214235 -0.060305893
000060 3a b4 c9 3e 7a df 83 be b1 90 43 3c 50 50 1c be
       0.39395314 -0.25756437 0.011936353 -0.15265012
000070 d1 df b0 3e 0e c9 6d bd 24 d9 1a bf 6f 55 dc be
       0.34545758 -0.05805307 -0.6048758 -0.4303393
000080 55 d2 a5 3d 02 33 fc be 7a 65 34 3e 5d 76 03 bf
       0.08096758 -0.49257666 0.17616835 -0.51352483
000090 cf db 8e 3e f3 e2 58 3e b5 8c 5a be 7e 48 c1 be
       0.27902076 0.21180324 -0.21342738 -0.3775062
0000a0 d6 d5 5e be 87 fa e0 be 80 f2 0b bf c1 8c 58 be
       -0.2176126 -0.43941137 -0.546669 -0.21147443
0000b0 4c 4b d9 be dd 40 00 be 6b 2b 28 3e ec 7f 80 3e
       -0.4244026 -0.12524743 0.16422813 0.25097597
0000c0 ce 3c ba be 00 38 2f 3d 91 9c 6e be c2 69 7a 3d
       -0.36374515 0.042778015 -0.23301913 0.061136015
0000d0 dc 3a 07 bd 62 d2 14 3f e6 37 f0 3e 7f 2e c7 3e
       -0.033015117 0.5813352 0.46917647 0.3890266
0000e0 7f 9c d8 be 00 49 fe 3e a6 a2 47 3e 77 ba 01 be
       -0.42306897 0.4966507 0.19495639 -0.12668787
0000f0 52 bb b7 3e ca fe ad 3e 47 e2 db be 30 3f cd 3d
       0.35885102 0.3398345 -0.42946073 0.10021818
000100 56 d1 b6 3e e1 62 da be 5b bc 8e be 0f 18 4a 3e
       0.35706586 -0.42653564 -0.2787808 0.1973574
000110 37 8c fc bd 26 46 dd 3d 72 fe c4 3e 68 44 87 be
       -0.12331431 0.108043954 0.38475376 -0.26419377
000120 8c 15 df be 96 d7 2f bd fc c8 1d bd e8 2b 75 3c
       -0.43571126 -0.04293021 -0.03852175 0.014964081
000130 70 69 d0 be d5 4b 20 3f a3 49 00 3e d7 fc b3 3e
       -0.40705442 0.6261571 0.1252809 0.3515384
000140 d3 72 aa 3e b8 8b 23 bf 11 9d 96 be 51 fc 8d 3e
       0.3329073 -0.6388507 -0.29416707 0.27731565
000150 34 da 9c bd 6d 63 88 3e 47 23 26 3e 3a af 39 3c
       -0.076588064 0.26638356 0.16224395 0.011333281
000160 6f b5 bd be 2a b5 f2 be 11 09 0a 3f 25 e5 e0 3e
       -0.37052485 -0.47403842 0.53920084 0.43924823
000170 7a 6f c8 3e d0 cd 92 be 07 59 37 bd ed 31 d9 be
       0.3914755 -0.28672647 -0.044762637 -0.42420903
000180 1d b5 d7 be 1f b2 11 bf 0b 9b 19 be 04 32 21 be
       -0.42130366 -0.56912416 -0.1500055 -0.15741736

decoder.fc1.bias f4 [25]
000000 d8 7c 21 3e 22 d5 ce 3e fb 56 e6 be fa 89 7f be
       0.1577028 0.40396982 -0.44988236 -0.24954978
000010 75 87 91 3e 91 05 fc be b1 86 aa 3e 2f 3a 8c 3d
       0.28423658 -0.49222997 0.33305886 0.06847035
000020 dc 04 98 3e 26 a2 25 3e bf 99 27 be 52 da 36 3e
       0.29691207 0.16175136 -0.16367243 0.1785672
000030 0f af a1 3d 6e 44 17 3f ce a1 ee 3c b0 04 98 be
       0.07894718 0.5908879 0.029129889 -0.29691076
000040 38 f1 cc be 18 ed 90 bc 0b 73 0c bf 9b e1 04 bc
       -0.40027785 -0.01769118 -0.5486304 -0.008110429
000050 f0 9e 52 be 12 4e 58 3e 3d 32 d0 be 93 60 c8 bd
       -0.20568442 0.21123531 -0.4066333 -0.09784045
000060 d9 85 1e 3e
       0.15480746

decoder.fc2.weight f4 [2, 25]
000000 7a 2b 2e be 43 bd 76 3d 09 97 a3 bd 88 dc 73 bd
       -0.17008772 0.060239088 -0.07987792 -0.059536487
000010 ef 04 ad bd bd e3 26 3d 01 50 12 be e3 5a 5f be
       -0.08448207 0.040744532 -0.14288332 -0.21812014
000020 73 46 a3 bd e6 cb c5 bd 5c 3e 43 be 6f 3f 66 3e
       -0.079724215 -0.09658031 -0.19066757 0.22485135
000030 46 f3 cc bc bf 47 91 3e ea b4 5a 3e 39 61 72 bb
       -0.025018346 0.2837505 0.21358076 -0.0036984219
000040 3e 56 18 be 53 f6 c7 3d f6 e0 5e be 64 42 39 3e
       -0.14876649 0.097637795 -0.21765503 0.18091732
000050 dd f2 48 be e3 5c 1f 3e 3e 2f 0a 3d f4 73 fb 3d
       -0.19623895 0.15562777 0.03373646 0.12277976
000060 59 da 2e be d3 0b d5 bd 7d a0 ae 3d 1d 96 38 3e
       -0.1707548 -0.10402646 0.085267045 0.18026014
000070 dc 0d f6 bd f8 a8 77 bd 63 05 da 3c e6 84 a4 3d
       -0.12014362 -0.060463876 0.026613897 0.08033161
000080 21 a0 44 be 18 fd fd bd 8c 53 18 3e fb 2b 23 be
       -0.1920171 -0.124017894 0.1487562 -0.15934746
000090 a9 cd ca 3c 4a cf c4 bd 3e 20 f4 3d ed ae 0e 3e
       0.02475627 -0.0960985 0.11920212 0.13933916
0000a0 c9 25 07 3e 1a 9f 21 bd 0c 43 b9 3d 3c eb 2b be
       0.13198008 -0.03945837 0.09045991 -0.16788954
0000b0 37 42 62 3e 78 f6 0e be 32 53 80 3e b9 2e 09 3d
       0.22095571 -0.13961208 0.25063473 0.033491824
0000c0 06 a8 16 be 87 3e c3 bd
       -0.14712533 -0.095334105

decoder.fc2.bias f4 [2]
000000 60 e7 13 bb 19 9e 63 3c
       -0.002256833 0.013892674
