Results/latent_ode.pth (torch, 12085 bytes, 14 tensors)

encoder.i2h.weight f4 [25, 27]
00000000: 602a 403e 6f70 ecbc 3d95 00be a409 b13d
00000010: 55aa 913d f23b a23c 41cb 063e 4a2e fabd
00000020: 6498 07be d2e1 b63c 8797 8fbc 7a8d bbbd
00000030: 1d68 0abd 16eb 1cbe 4d75 ac3c 5dbf 923b
00000040: 35cf 9ebd 26c2 05be 70d5 07be bd30 593e
00000050: 94ef 023d b93a bebc 5bf7 183b 0280 85bd
00000060: 7e4e 0ebd 4afe 94bc 64a6 3b3a fd8c 3ebe
00000070: a0e2 3cbe b5aa d2bd 8637 f7bc 5b67 2cbc
00000080: 3568 373e 01d3 223c 4d22 fd3d 03d5 adbc
00000090: 3677 933d 68cf 89bd 9264 93bd fd4f 893b
000000a0: 1e52 07bc 0e04 1dbe 4fa8 debd d197 febd
000000b0: 00cb 883c 8dee c03d 8cc6 32be ba10 033e
000000c0: 842b aaba c6bd 343d d8d4 273d 5c62 42bd
000000d0: a85a 7f3d 0d2d 23be 280f e53d 0d91 393c
000000e0: dd63 af3d 0bb5 bfbd 835a 343d 8755 bc3d
000000f0: 0a3b 19be b86d a9bd 157b ce3d 4a10 9f3d
00000100: 6d00 1a3e 4664 e73d b952 3cbd 3773 d43d
00000110: 2482 bcbc 605a 0d3e 560c 4a3a b4f3 96bd
00000120: 59ea 1ebe e96e d3bd a2c8 073e 16d8 233c
00000130: 2c3e 9fbd c99a 083d 3744 1dbe bbea dc3d
00000140: 138c e2bd a7a6 223e ee6d 563e f0f5 81bd
00000150: d0e0 1a3e 8502 8cbd 9880 0ebd 2dd9 1abe
00000160: 3fc8 aa3d 2fbe 153e 9679 233e 02bf debc
00000170: 1b86 bd3d 24de 723d 2132 3bbc f623 e13d
00000180: 9a24 273b c222 60be 8c0e 3a3e d176 2e3d
00000190: 623c 40bd 4282 a1bd 5ee6 97bd db4d 173d
000001a0: 51db 833d 5362 4f3e 89de aabd 353d 21be
000001b0: be72 cc3d 423f 4b3e 1fff a53d 442c 1dbe
000001c0: bc00 4abe 5b58 fdbd 3148 913d a681 263d
000001d0: 861a 043d 46aa 38be 4e42 fdbd a94a 163e
000001e0: bf45 ac3d ca31 e5bd 45c7 35be a04e 413e
000001f0: fbc2 4f3d 8a02 17be 41fe edbd 41f9 3bbe
00000200: 978c 66bd a181 02be cac8 0c3e e3f7 28be
00000210: e576 98bd b7ef 983d 3260 a03d 1b2e e33b
00000220: e88c cfbd 2a93 863d 90fb 3e3e f90b ac3d
00000230: 2a88 d83d a305 d63b ee11 1ebc 9a38 db3d
00000240: 1d65 bbbb 15e8 ca3d f874 1d3d edef dfbd
00000250: eeab 313d ce5a 933d b886 513d 0f7a 31bb
00000260: ac5c ee3d b5c3 3d3e d3b6 92bd 56d1 023e
00000270: 3f4d e73d 79a2 cebc 953b b0bd f8fc 7dbb
00000280: c10c 85bd 3d2b 053e 8a48 10be 49f3 c63d
00000290: ac6b edbc 3a47 a43d 59bb 92bd c31a 933d
000002a0: a5da 15be e8dd 1d3e 4fee aa3d 6e8b a0bc
000002b0: ee5e a9bc 1acf 803d d80c 573e 6daf 92bd
000002c0: d8b1 9f3d 3b56 37be f566 d3bd 2648 72bd
000002d0: ea8d 583c 5d8e 26be b719 88bc adb9 debd
000002e0: b428 fa3d 1d41 ad3b 8d0f 26be ffcf 2f3d
000002f0: 54c4 863d 6340 903d ad70 02bd 7eb2 47be
00000300: 3a36 183c a704 233e 9bf1 b8bd dde4 523d
00000310: c215 d6bd 536a 33bd c80e 863d 53d1 203d
00000320: 0193 77bd 3557 0bbe de74 84bd 622e 9ebd
00000330: 5fd7 00be 97c8 933d 1f9c ca3d 2784 efbd
00000340: 91c9 ecbd e37f 183e e254 d8bc 6f11 06bc
00000350: dd92 4f3e e7bf 4ebe 1ab4 41bd 8df2 053d
00000360: c36c 2ebd 06b3 3d3c f485 c2bd 9659 8f3d
00000370: c6c3 593e d12a 1bbe b8a0 263e bb62 4fbb
00000380: f062 263e bb2e 853d a1e3 4ebe 8cdd 88bd
00000390: c075 183e e615 08be 1bf1 adbb deed 19be
000003a0: ae7f af3d 74ad 57bd 741b 87bd 9282 2a3d
000003b0: 6900 aa3d 7a99 f5bd a4b4 81bd faf8 4abe
000003c0: e40e 0cbe e2b1 35be 57df a73d 7243 343d
000003d0: d3a4 87bd bee9 783d ac3d 083e 746b 3f3e
000003e0: 301a 1fbe 4541 e0bd b909 f43c 66b6 29be
000003f0: 0f3a 89bd 9468 293e 5983 19be 0f04 3c3c
0.18766165 -0.028862206 -0.1255693 0.08644417 0.071125664 0.019803975 0.13163473 -0.1221586
-0.13241726 0.022324476 -0.017528309 -0.09157844 -0.033790696 -0.15324053 0.021052027 0.0044783787
-0.07754365 -0.13062343 -0.13265014 0.21209998 0.03196676 -0.02322136 0.0023340795 -0.06518556
-0.034742825 -0.01818766 0.0007158278 -0.1860847 -0.18445826 -0.10286466 -0.030177843 -0.010522689
0.17910846 0.009938003 0.12360058 -0.021219736 0.07200472 -0.06729013 -0.07196917 0.0041904435
-0.008259324 -0.15333578 -0.10871946 -0.124313004 0.01669836 0.094205 -0.17458552 0.1279935
-0.0012982939 0.044126295 0.040974468 -0.047457084 0.062342316 -0.15935154 0.111845315 0.011326087
0.08563969 -0.09360703 0.04403163 0.091960005 -0.14963928 -0.0827288 0.1008207 0.07766779
0.15039225 0.112984225 -0.045977328 0.10373538 -0.023011275 0.13804007 0.00077075267 -0.073707014
-0.15519084 -0.10323889 0.13260129 0.010000249 -0.0777553 0.03335074 -0.15358053 0.10786959
-0.11061873 0.15883885 0.20940372 -0.06345737 0.15124822 -0.06836418 -0.034790605 -0.15121908
0.08338975 0.1462333 0.1596435 -0.027190689 0.09254094 0.05929388 -0.011425526 0.10993187
0.0025503994 -0.21888259 0.18169612 0.04259378 -0.046932586 -0.07886173 -0.07416986 0.036939483
0.06438316 0.20252351 -0.083432265 -0.15746005 0.09982823 0.1984835 0.08105301 -0.15348917
-0.19726843 -0.12370368 0.070938475 0.040650986 0.032251857 -0.18033704 -0.12366162 0.14676918
0.084117405 -0.11191137 -0.17751797 0.1887765 0.050723057 -0.14747062 -0.11620761 -0.18356802
-0.05628642 -0.12744762 0.1374847 -0.16500811 -0.07444552 0.07467597 0.07830848 0.0069329864
-0.101342976 0.06571038 0.18650651 0.08400721 0.10572846 0.0065314337 -0.009647829 0.10704155
-0.0057188408 0.099075474 0.03844163 -0.10934434 0.043376856 0.07195054 0.05115387 -0.002708081
0.116387695 0.18531688 -0.07163777 0.12775168 0.112940304 -0.025223957 -0.08605114 -0.0038755517
-0.06496573 0.13004775 -0.14090171 0.09714372 -0.028982006 0.08021398 -0.0716464 0.07182839
-0.14634188 0.15416682 0.08346235 -0.019597735 -0.020675149 0.062895015 0.21000993 -0.07162366
0.07797593 -0.17903988 -0.10322372 -0.059150837 0.013217429 -0.16265245 -0.016613824 -0.108752586
0.12214795 0.005287303 -0.1621687 0.04292297 0.06580415 0.07043531 -0.031845737 -0.19501683
0.009290272 0.15919743 -0.090304576 0.051487792 -0.10453369 -0.04380257 0.06545788 0.039262127
-0.06044293 -0.13607486 -0.06467603 -0.077236906 -0.12582158 0.07215994 0.09893059 -0.11695128
-0.11561883 0.14892535 -0.026407663 -0.008182867 0.20270868 -0.20190392 -0.0472909 0.032702018
-0.042584192 0.011578327 -0.09498206 0.06999509 0.21266088 -0.15153052 0.16272247 -0.0031644541
0.16248679 0.06503054 -0.20204021 -0.06682882 0.14888668 -0.13289604 -0.005308283 -0.15032145
0.08569275 -0.052655652 -0.06597033 0.041628428 0.083008595 -0.11992164 -0.063332826 -0.1982154
-0.13677555 -0.17743638 0.081968956 0.044009633 -0.066232346 0.06076979 0.13304776 0.18693334
-0.15537333 -0.10949949 0.029789792 -0.16573486 -0.06700527 0.165438 -0.14991511 0.011475577

encoder.i2h.bias f4 [25]
00000000: d903 12be 4716 f3bd c8af 18bc 2137 cbbd
00000010: 9698 acbd af2a 00be d028 0dbe b947 c73c
00000020: e9df 003d b343 fbbc 8f24 b8bd ab83 f9bd
00000030: 6e1c 08bd 56b4 9cbd 6ca0 34be eae2 5dbd
00000040: 88ad 9ebd f2ac 02bc 8944 4e3e 7485 0fbe
00000050: 3269 ef3d 3dff 083e f63d 053e e8d6 f6bd
00000060: 6394 12be
-0.1425928 -0.118694834 -0.009319253 -0.099226244 -0.08427541 -0.12516282 -0.137851 0.024326192
0.031463537 -0.03067193 -0.08991348 -0.12183317 -0.033230238 -0.07651584 -0.17639321 -0.05417148
-0.07747942 -0.007975804 0.20143332 -0.14015752 0.11689986 0.13378616 0.13011917 -0.12052709
-0.14314418

encoder.h2o.weight f4 [8, 25]
00000000: b57c 213e b4ef 95bd 03b3 243e 905d 423c
00000010: df3c 7e3c 504b 2bbe 7f9c 143e 253b 243e
00000020: ddd8 82bd 6079 1d3d a589 00be a208 eb3d
00000030: a9a6 02be a048 a0bd 4db4 523e 6404 7c3d
00000040: 84c0 2d3d 943f 5ebc 5248 32be 57fc 1e3e
00000050: 5c0c 1e3e 1053 c0bd 4378 f4bd e0a2 0a3e
00000060: c9ff 83bd 1242 78bd 4ae4 dfbd eb58 253e
00000070: 5327 74bd 196e 2abe b248 1ebe cc7b f43d
00000080: 2976 86bd 35e0 db3d 4c04 a0bc 0ab9 093e
00000090: 08e1 353e 555d ecbc 9ce1 253e 532c f9bd
000000a0: 178e b9bc f245 033e 685b 173e 3e87 dfbd
000000b0: 26bf a6bd e721 293e 3da1 e8bd d287 943c
000000c0: c648 a2bb dfd0 f93d 3424 a2bc 6342 8c3d
000000d0: 9078 1a3e d075 9bbd 87af ec3d 5231 1bbd
000000e0: a387 8b3d 97af 163e 7567 1bbd 4be3 8d3c
000000f0: 6bb7 903c d6dd 4c3d a09e 8f3d d41c 12be
00000100: 82b3 223e 0dc3 753c 72a2 a9bd 8198 2d3e
00000110: f24f 77bc 854e f0bc a98d 313e a14e 12bd
00000120: 287d 5abe a20a 123e f666 26be cc6a a03b
00000130: e328 993b 1ccc 3bbe 1f40 073e c5b1 0f3e
00000140: daa5 7ebd ed25 db3d 2901 59be 9442 26be
00000150: b8de 92bd adc8 e23d a54e 963d ce49 273e
00000160: 9d40 b6bd bad9 a3bd 6106 15be d6c3 143e
00000170: abd2 6abc a88c 793c f123 a13d d1a4 cf3d
00000180: 44d5 c0bd ac88 d9bd b1d6 be3d 3382 943d
00000190: bd66 153d a404 b93d daf3 25bc e749 143e
000001a0: 4962 fdbd cea9 5d3c 25d1 3c3d 1505 03be
000001b0: 9f52 21be f73f 4abd 13f5 63be c689 723d
000001c0: fac6 02be fe2b 21be edf9 10be 200d 7abd
000001d0: 3e05 06bd 594b 2fbe 8ff9 023e c4ed b63c
000001e0: 7cfb 2e3d e59c 67bd e40e 273e a947 f53d
000001f0: 840f 143e 5daf d83c 47a4 30ba b8ff a4bd
00000200: 474f 24bd c186 8abc 6714 043e 4a73 163e
00000210: c1f4 12be 8d62 d93d ca36 af3d 92b3 af3d
00000220: d781 403d f4ad 09be 6021 c53c 705c afbd
00000230: f406 41bd f793 5ebd fc9a 973d f1ec ca3d
00000240: 4c7d b7bd ab22 f8bd 35d4 d13d 459e 5e3d
00000250: b54e 813d e847 98bd c5ca 103e 8750 333e
00000260: e42a 22bd 8d50 13be 10ab 933d 7264 d4bd
00000270: b136 2b3e 37fe c33d 689a 2b3e 985a 1abe
00000280: 796d cebc 5f3d 0e3e 84c0 173e f7d7 20bd
00000290: 9fba 41bd da7a d13d 0bc2 0ebe a9fe 3ebe
000002a0: 6814 9fbd 7c7e f9bd 94da 08be bf52 2dbe
000002b0: ebb7 92bc 3669 5d3d 43b4 313e befc 53bc
000002c0: 62e2 ff3d d887 3c3c aa3f 1fbe 429e cf3d
000002d0: e95a 9cbd 09b8 963c 9b2a 223d d67c 423d
000002e0: 6251 41be dc3e 0ebd 9233 f8bd 4534 6b3e
000002f0: c86d 2ebe 0a1a 303d f0e2 52be 673b aa3d
00000300: 27ad 02be 7cd4 0a3e a9b6 2bbd d907 a43d
00000310: 8745 fb3d fc0c 17be ca43 793d 3fb3 92bb
0.15770228 -0.0732111 0.16083913 0.011863127 0.0155174425 -0.16727948 0.14512824 0.16038187
-0.0638902 0.03844583 -0.12552507 0.11476256 -0.12758888 -0.07826352 0.20576592 0.061527625
0.042419925 -0.013564963 -0.174104 0.15525948 0.15434402 -0.09390843 -0.119370006 0.13538694
-0.064452715 -0.060609885 -0.109322146 0.16147201 -0.059607815 -0.16643561 -0.15457419 0.11937675
-0.06565506 0.107361235 -0.019533299 0.13449493 0.17761624 -0.028853098 0.16199344 -0.12166657
-0.022650762 0.12819651 0.14780962 -0.10914467 -0.081419274 0.16516839 -0.11358879 0.01813117
-0.004952523 0.12198042 -0.019792654 0.068486 0.15085053 -0.0759083 0.11556917 -0.037888832
0.0681298 0.1471542 -0.03794046 0.017320296 0.017665586 0.050016247 0.07012677 -0.1426881
0.1588879 0.015000117 -0.08282937 0.16952707 -0.015094744 -0.029334316 0.17339195 -0.035719518
-0.21336806 0.14261869 -0.16250214 0.0048955437 0.0046740635 -0.1833958 0.13208054 0.14032657
-0.062169887 0.10700593 -0.21191849 -0.16236335 -0.071713865 0.11073432 0.07339219 0.16336748
-0.08899043 -0.080005124 -0.14553215 0.1452783 -0.014332454 0.015231289 0.078681834 0.10138858
-0.09415677 -0.10621771 0.09318293 0.07251396 0.036474932 0.09034088 -0.0101289395 0.14481317
-0.12372262 0.013529254 0.046097893 -0.12794907 -0.15754174 -0.049377408 -0.22261457 0.059213422
-0.12771216 -0.15739438 -0.14157839 -0.061047673 -0.032719843 -0.17118587 0.12790512 0.022330172
0.042720303 -0.05654611 0.16314274 0.11976559 0.14459044 0.026450807 -0.00067383464 -0.08056587
-0.040114667 -0.016909959 0.12898408 0.14692417 -0.14351179 0.106145 0.08555372 0.08579172
0.046998825 -0.13445264 0.024063766 -0.08562553 -0.04712577 -0.05434033 0.07402608 0.09908474
-0.08959445 -0.121159874 0.102455534 0.054350156 0.0631384 -0.0743559 0.1413985 0.17511187
-0.039591685 -0.14386196 0.07210362 -0.10370721 0.16720082 0.09569972 0.1675812 -0.15073621
-0.025198685 0.13890599 0.14819533 -0.03926846 -0.047297116 0.1022851 -0.13941209 -0.18651833
-0.07767564 -0.12182328 -0.13364631 -0.16926096 -0.017909965 0.054055415 0.1735392 -0.012938676
0.12494351 0.011506997 -0.1555163 0.10137607 -0.07634527 0.018398302 0.039591413 0.047482334
-0.18878701 -0.034727916 -0.12119211 0.22969158 -0.17034066 0.042993583 -0.20594382 0.08312111
-0.12761365 0.13557619 -0.041922245 0.08009309 0.12269121 -0.14751047 0.060855664 -0.004476934

encoder.h2o.bias f4 [8]
00000000: f5c7 c63d aa18 ce3c 54bb 793d 787d 883d
00000010: 125d b1bd 8d42 163d 2ca4 bd3d 91df 87bd
0.097061075 0.025158245 0.060969666 0.06664556 -0.0866033 0.03668456 0.09259829 -0.06634439

ode_func.net.0.weight f4 [20, 4]
00000000: b565 0b3e 3341 8cbd 6c34 dabd 008d 843b
00000010: 311e fabc 8f0a ffbd 1cd9 f0bd a483 95be
00000020: 6815 34be bcf1 ea3d 8822 8ebc acf0 153d
00000030: e111 853d 58ff 8a3c 490c c23b 92be 57bd
00000040: 9107 57be 93f5 cdbd 80a0 23be 1b1a b53e
00000050: 435f 0d3d baef 493c 135f 56bc 555a d9bd
00000060: ab80 973d 5a25 c63d 4e88 1ebe 5098 91bb
00000070: 7d14 5fbe bbe1 34bb 544d a0bd 7421 973d
00000080: b375 613d 61e0 26be 547e 78bd f937 8abd
00000090: d732 58bd f571 18bd 4b9e 74bd 1715 cbbd
000000a0: 5667 8abd 0d62 57bd 72d0 093c 1b8e 2d3c
000000b0: 7fa6 55bd f498 2c3e 2041 723d 57f6 2a3e
000000c0: 0fb8 863c e954 3f3c bcb2 05be 185f 253e
000000d0: 88ec 673e f946 7bbd 516d 27be 1935 173d
000000e0: d447 0a3d 646c ffbc f022 95be aff1 d6bd
000000f0: b20c d9bd c929 d0bd 1bef b7be bef1 863d
00000100: 308f 0ebe 65c5 b33e 5715 f03c 17dd 8fbd
00000110: 457d 4a3e 9cb8 0f3e 1f09 6f3e 8ea5 053e
00000120: a39d 87bd 0b52 5a3e 0bb8 7dbd 1afc 423e
00000130: 5773 f73c 8690 7e3e 28cc e53d 65e9 fdbc
0.13613017 -0.06848373 -0.1065453 0.004045129 -0.030531975 -0.12453186 -0.1176016 -0.29201996
-0.17586291 0.114718884 -0.01735045 0.036606476 0.06497551 0.01696746 0.0059218747 -0.052671976
-0.2099898 -0.10056605 -0.15979195 0.3537148 0.034514677 0.012325222 -0.013084191 -0.106129326
0.07397588 0.09675093 -0.15481684 -0.004443206 -0.2178516 -0.0027600366 -0.07827249 0.073794276
0.055043887 -0.16296531 -0.06066735 -0.06748957 -0.05278286 -0.037218053 -0.059721272 -0.09916132
-0.06757991 -0.052583743 0.008411514 0.010592963 -0.052160736 0.16855222 0.05914414 0.16695534
0.016445188 0.011677959 -0.13056463 0.16149557 0.22648823 -0.06134698 -0.16350295 0.036915872
0.033759907 -0.031179614 -0.29128218 -0.10495316 -0.105981246 -0.1016422 -0.3592461 0.065890774
-0.13921809 0.35111538 0.02930705 -0.070245914 0.19774349 0.14035267 0.23343323 0.13051435
-0.06621864 0.2132036 -0.061943095 0.19041482 0.030206366 0.24859819 0.1122058 -0.03099508

ode_func.net.0.bias f4 [20]
00000000: 0bf6 83bc 914b 3d3c a6b7 18bd c7f2 d13c
00000010: 7f7a 09bd 2adc a53c 9338 de3c d149 e7bc
00000020: a829 053d 2512 383d f286 3a3c 452f 2d3c
00000030: ade8 a5bc 0009 b9bc f9dc dfbc 8a96 fabc
00000040: 8366 24bc dd9a 20bd ccc6 1cbd 9a18 5e3c
-0.016108533 0.011553661 -0.037284516 0.02562846 -0.033564087 0.020246584 0.027126586 -0.02823344
0.03251043 0.04493918 0.0113847125 0.010570352 -0.02025255 -0.0225873 -0.027327048 -0.03058936
-0.010034206 -0.03921019 -0.038275525 0.01355567

ode_func.net.2.weight f4 [20, 20]
00000000: d60c e63b 5a7f 1ebe 5259 0ebe d866 833c
00000010: be58 313d 161d c13d 6a03 e33d a00e afbd
00000020: 9ae3 6bbd b5b3 10bd 5fd3 54be db37 7e3e
00000030: 56f6 1c3e 2ae7 343c c6a6 843d 5826 e63c
00000040: 764d 5d3e ba32 d83d dfae b9bc 5aec 363d
00000050: 07d9 9bbb 2f5c a73d efab ac3d 4685 54bd
00000060: 015f 3f3b 05e0 fdbc 3243 4b3c baf9 633d
00000070: 2e94 0dbc 6bf1 c03c d3ce dcbc 9aea 93bd
00000080: be89 233e e3f3 a9bd 0f94 603e 98da c63d
00000090: 49e5 7e3d 359c 04be f496 163e e312 0bbe
000000a0: f120 acbd 72d6 993b 6987 e0bd f458 d4bc
000000b0: b770 65bb 2706 0dbd de18 41be 4fe9 1e3e
000000c0: d8d5 753d b51b 173e 5b91 5d3d 5b0b 10be
000000d0: 2431 e43d 085c baba e9f0 7c3d 1cd6 90bd
000000e0: 011b 3ebd 0a32 38bc eeda 0ebe 9c3f d0bd
000000f0: e7bc 3dbe 40ce d3bd 57c2 e93d b5d6 68be
00000100: 5bed e1bc 4b2a 52bc 8c7b 33be 4ec4 0c3e
00000110: ca05 33bd f38a a93b 5a99 903d 9a22 f93d
00000120: 605f 84bc 5a07 1dbe ded7 47be 7b0f abbd
00000130: 1dd9 8f3e c8fb f43d b1fb a53d 17ec 063c
00000140: 0811 2dbe 79be d3bc 016e 3dbd adb2 03bc
00000150: 5518 2c3d c153 3ebd aaee af3d 34a4 cebd
00000160: 5b89 15bd 00a4 e6bd 3bca 02be 8bd4 bb3d
00000170: cf30 d73d cc3c bf3b cb11 fabd f4c2 c5bd
00000180: e9ae 163e 5ae5 8abd 80b2 20bd 3cee 3abd
00000190: ee75 103e e1bf 14be 4ffb 19bd cb29 643c
000001a0: 93ec 643d 7232 a43d 539c 99be 6db0 babc
000001b0: 8a3b cabc 03ba 72bd be39 c7bd bdd5 90bc
000001c0: d7ba dfbd 0788 43bc 8cd0 1cbe 7726 9cba
000001d0: c6f9 a8bc 900d 5f3d 02a8 cfbd a657 813d
000001e0: c9b6 c4bb e51d 36be b486 0fbe ab70 92bc
000001f0: c60c 29bd 6dfe f3bd 6dc5 54be fc3a dabd
00000200: d7dc 26bd dc2b a5be 6066 903d 2aea 8c3d
00000210: ddde fb3d deab 5e3d ceac a7bc ae93 513d
00000220: b2d8 1b3d a54b a13b fe53 c03d 0e30 7a3d
00000230: 55f3 9d3d afcc 423e ca62 9ebd d3d3 003d
00000240: d081 e93d 0607 413c 2335 e43d be13 e03d
00000250: 3df3 ebbd ab52 e83d ee50 623e da04 f4bd
00000260: a971 7cbd e9e2 a2bd 3ad4 2dbe c187 983d
00000270: 216a 33be e32c 07be 3882 96bc be7e 13bd
00000280: e9a0 b0bc 8d8a ebbc aad7 4a3e e540 b03c
00000290: b27e 8fbc c8f0 38be c0ad 29bc b6a4 3f3e
000002a0: b9a1 16be 9071 a9bd ddad a83d c596 0ebe
000002b0: a130 51bd fbda 06be f073 0abe 8d27 21bc
000002c0: 93e1 993c 46be 80bc 104c cf3d 3daf 34be
000002d0: a9a1 20bd 9818 cc3c 8563 61bd 1b68 433e
000002e0: 01ae eb3c 777b 36be b71c 173e da13 d3bd
000002f0: 582a 13be 5842 e33d 244b f33d e648 4e3e
00000300: 5777 843d 7548 f63c 9130 6c3d db14 cdbd
00000310: dba6 74bd 7c9b e7bd bc2f 97bd 90a8 063e
00000320: 7e4d 30be 1fea d8bd 488d f9bc 5c0b d0bd
00000330: 3772 953e b4bc 93bd 9cfd bcbd d714 ac3d
00000340: 645d a7bd 9386 fcbd 4547 913d 82e9 aa3d
00000350: 3edc a63d 0c31 ceb9 e905 efbb e8f8 b6bc
00000360: f195 2dbe bdd4 37be 333c 5a3e 49ea 30be
00000370: 6164 83bd 627c 473c 211d 553d 6bbe c0bd
00000380: b4e8 b0bd 8ccc 1c3a e9e9 093a c24f 0abe
00000390: dea0 c6bc eb28 443e fab6 873d dd91 703e
000003a0: 3260 1bbe d685 a4be 6235 9cbe 61ec 5cbd
000003b0: 0c7a 20bd 8424 87bd 0af4 c3bd 04c9 dcbd
000003c0: dd72 243d 361e dfbd ff40 2b3c a955 edbd
000003d0: e193 163e afcb 71be 99e5 3ebe c000 9d3d
000003e0: 0e7c fabd 0167 a63c 68e1 c8bd e4ae 223e
000003f0: 0163 033e bdda 863c 6215 093d 226c ab3b
0.007020573 -0.15478268 -0.1390126 0.01604025 0.04329752 0.09429376 0.110846356 -0.08547711
-0.057590105 -0.035327632 -0.20783757 0.24825995 0.15328345 0.011041442 0.06477122 0.028094456
0.2161158 0.1055655 -0.022666393 0.044658996 -0.0047560963 0.081718795 0.08431231 -0.051884912
0.0029200914 -0.03099061 0.012406157 0.05565808 -0.008641286 0.023552617 -0.02695409 -0.07222481
0.15970513 -0.08298471 0.2193148 0.09709662 0.062230382 -0.12950213 0.14706022 -0.13581423
-0.084047206 0.0046947533 -0.109633274 -0.025921322 -0.003500981 -0.034429695 -0.18857142 0.15518688
0.06001839 0.14756663 0.0540937 -0.14066832 0.11142185 -0.0014218101 0.061753187 -0.07072088
-0.04641247 -0.011242399 -0.13950703 -0.101683825 -0.18529092 -0.103420734 0.114140205 -0.22738154
-0.027579 -0.012827466 -0.17527598 0.1374676 -0.043706693 0.0051740347 0.070604995 0.12164803
-0.01615876 -0.15334836 -0.1951594 -0.08352562 0.28095332 0.11962086 0.08104647 0.008234999
-0.16901028 -0.02584766 -0.046247486 -0.008038205 0.042015392 -0.046466593 0.085904434 -0.10089913
-0.036507946 -0.11261749 -0.12772457 0.09171399 0.105073564 0.005836105 -0.12210425 -0.09656325
0.1471516 -0.067820266 -0.03923273 -0.045637354 0.14107487 -0.14526321 -0.037593182 0.01392598
0.055889677 0.08017434 -0.30002078 -0.022789204 -0.024686594 -0.059259426 -0.0972781 -0.017680043
-0.10924309 -0.011934287 -0.1531393 -0.0011913319 -0.020626914 0.054456294 -0.10139467 0.06315546
-0.006003235 -0.17784841 -0.14016229 -0.01787599 -0.041271947 -0.11913762 -0.20778437 -0.106557816
-0.040737953 -0.32260025 0.070507765 0.06880601 0.12298367 0.054363124 -0.020468142 0.05116623
0.038048454 0.0049223476 0.0939102 0.061080985 0.077124275 0.19023393 -0.07733686 0.03145201
0.11401713 0.01178146 0.111429475 0.109412655 -0.115210034 0.11343893 0.22101185 -0.11914988
-0.061631832 -0.07953436 -0.1697549 0.07447768 -0.17520954 -0.13200717 -0.01837264 -0.036009543
-0.021561103 -0.02875259 0.19808832 0.02151532 -0.017516468 -0.18060601 -0.010356367 0.18715176
-0.1471013 -0.082736135 0.08236287 -0.13924702 -0.051071767 -0.13169472 -0.13520789 -0.00983609
0.01878432 -0.01571573 0.1012193 -0.17644973 -0.03921667 0.024914071 -0.05502655 0.19082682
0.028769495 -0.17820536 0.14757048 -0.10306521 -0.14371622 0.110966384 0.11879566 0.20144996
0.06468075 0.030063847 0.057663504 -0.100137435 -0.05972944 -0.11308953 -0.073821515 0.13150239
-0.17217061 -0.1059153 -0.030462876 -0.10158417 0.29188702 -0.07213727 -0.0922806 0.084024124
-0.0817211 -0.123303555 0.07093672 0.08345319 0.081474766 -0.00039327925 -0.0072944057 -0.022335485
-0.1695173 -0.17952247 0.21312027 -0.17276873 -0.0641563 0.012175651 0.052029733 -0.09411319
-0.086381346 0.00059814076 0.00052609906 -0.13506988 -0.02424663 0.19156234 0.06626697 0.23493142
-0.15173414 -0.3213336 -0.30509478 -0.053936366 -0.039178893 -0.06598762 -0.09568031 -0.10780528
0.040148605 -0.10894434 0.010452508 -0.11588604 0.14704849 -0.23612855 -0.18642272 0.07666159
-0.12230693 0.020312788 -0.09808618 0.15887028 0.12830736 0.016461724 0.033467658 0.0052313963

ode_func.net.2.bias f4 [20]
00000000: 2c22 34bd 61d9 05bd 55db 253d 4698 89ba
00000010: 59e0 6d3c 3721 57bb b7a8 f1bb a8a7 be3c
00000020: d6a1 d1bc c2fb d53c 68f4 b1bc f67b 0c3d
00000030: 6e7a 20bd 0c3f e9bc fc22 873c 1586 13bd
00000040: b2da 433b 61ab 7cbc 0571 633a 7920 e63c
-0.0439779 -0.03267801 0.040492374 -0.0010497652 0.014518821 -0.0032826194 -0.0073748487 0.023273304
-0.025589865 0.026121024 -0.021722987 0.034297906 -0.039179258 -0.028472446 0.016496174 -0.036016542
0.0029884991 -0.015421719 0.0008676204 0.028091656

ode_func.net.4.weight f4 [4, 20]
00000000: 6080 46bd 5504 d33a f192 353e cf32 be3d
00000010: 853b 7fbd 24aa 74bd bf59 a03d 2aca 903d
00000020: bd4a 393e 606e 583b f5ce 4d3e 8ce0 d43d
00000030: 8fb2 7abc c521 e43d 5dbb 0e3b 8aeb 313c
00000040: 7006 0bbe feb2 463e 3513 39bd d79a 403d
00000050: f6f9 38be e4df 01be d94f 7a3e db8e e5bd
00000060: 07ed ddbd 1d32 ec3c c0ac d4bd 5ef0 333e
00000070: 5e96 e9bc c4f8 a4bd baf8 b43d 14e0 c13d
00000080: 552a 16bd ffcc 71bd 45eb a8bd a8fc 84bd
00000090: 4120 84bd 2062 043e 1eaf e8bd e72b 17bd
000000a0: bf5b e43d 3fb0 5a3e 1fb1 e0bd 3ac4 98bd
000000b0: f250 09be 0551 2abe e0c8 b5bd a716 8b3d
000000c0: 965c 53bc a8b6 8f3c 049e 583d b101 8fbe
000000d0: 82c2 9f3d 76ad f53d 2f2c dfbd cb69 d93d
000000e0: c418 df3c 172d 583e 9524 1dbe d6ae 4bbc
000000f0: c777 9dbd 6208 7ebc 8a69 003e 2bba 10bd
00000100: 166e 04bd 0729 debd 81a6 bfbd 59d4 9a3d
00000110: 1fdc 18be d898 453e 3346 07be 0c91 803d
00000120: 2f9b 1dbe 31c6 55bd c646 7abc e102 42be
00000130: 5c7b 013d 79ac 15bc 8624 fdbd a29f 3a3e
-0.04846227 0.0016099314 0.17731835 0.09287035 -0.06231262 -0.05973257 0.07829618 0.0706981
0.18094917 0.0033024773 0.20098479 0.103943914 -0.015301361 0.111392535 0.0021779158 0.01085938
-0.13576674 0.19404218 -0.045184333 0.047022667 -0.18064103 -0.12683064 0.24444522 -0.11208888
-0.10836225 0.02883249 -0.10384512 0.17572162 -0.028514083 -0.08055261 0.08836503 0.09466568
-0.036661465 -0.05903339 -0.08247999 -0.06493503 -0.064514644 0.12928057 -0.11361526 -0.036907103
0.11150312 0.21356295 -0.10971283 -0.07459302 -0.13409784 -0.16632469 -0.088762045 0.0679143
-0.012900492 0.017543152 0.05288507 -0.27930978 0.07800771 0.11995976 -0.10897099 0.106158815
0.027233489 0.2111095 -0.15345986 -0.012431821 -0.07688861 -0.015504928 0.1254026 -0.035333794
-0.03233155 -0.10847669 -0.0935793 0.07560033 -0.1492772 0.19296587 -0.13210373 0.062776655
-0.15391229 -0.052190963 -0.015275663 -0.1894641 0.031611785 -0.009135359 -0.12360482 0.18224958

ode_func.net.4.bias f4 [4]
00000000: c38a 1eb8 daee ddba d700 cabc 20d2 f93c
-3.7799367e-05 -0.0016932145 -0.024658604 0.030495703

decoder.fc1.weight f4 [20, 4]
00000000: 2df9 c33d bea8 9dbe 129a 46be f81a bcbe
00000010: 15d3 ccbe 1966 dcbe 4649 1abe c06a d8be
00000020: 7faa c73d 7a9a e83d 5a3b 273e 1ea1 cebd
00000030: d073 85be 4dc5 bbbd c5bf acbd 09b9 babd
00000040: 79c2 c63d 2b5e 783d 696d d8be e5d2 c23c
00000050: 9788 bebe c28d 9a3e 56ea 093e 2999 ec3e
00000060: 549c 63be 45c7 c9be 05ca 063e 56e2 aa3e
00000070: f77b d0be bc0b a63e 749c 87bd 4b7f 90be
00000080: 3d8c 0b3e ca90 7cbe 81d3 473e 6aca ca3e
00000090: b5d7 d3be da1a 0ebc 7ada 93bd 7564 793e
000000a0: f384 b33d 6826 8d3e 25c6 e8be d7cc bbbd
000000b0: 2c98 3e3e 277f 9f3e 6ddb 8ebe a5f8 bdbe
000000c0: 1193 963d 8812 613e cb5e d0be 282f a13d
000000d0: bb58 bf3e 9f6c b33e 8940 cf3e 3149 cebe
000000e0: b6ac 813e 03e3 eebd bb7f 8ebd 6331 f33c
000000f0: 3563 7ebe d888 9c3e 74e9 e43e e641 f53e
00000100: f1a5 cf3e f155 db3e d8df f53e 4131 aa3e
00000110: 72eb f23c 6e57 9fbe 658b 903e 0a26 cc3e
00000120: 0c93 96be 92ef 19be 5a35 d2bc 56e2 9cbe
00000130: 8243 c8be 8e8b 123e 9e7a 85be ebb0 a03d
0.09569011 -0.30792803 -0.1939471 -0.36739326 -0.40004793 -0.43046644 -0.15067014 -0.42268944
0.097493164 0.11357589 0.16331235 -0.100893244 -0.2606492 -0.091684915 -0.08435015 -0.09117324
0.097050615 0.06063668 -0.42270973 0.023782203 -0.37213585 0.30186278 0.13468298 0.46210602
-0.22227603 -0.39409843 0.13163002 0.33375806 -0.40719578 0.32430828 -0.06621638 -0.28222117
0.13627715 -0.24664608 0.19514276 0.39607555 -0.4137551 -0.008673394 -0.072194055 0.24354728
0.087655924 0.27568364 -0.45463672 -0.091699295 0.18612736 0.31151697 -0.27901784 -0.37103763
0.073522694 0.21979725 -0.4069732 0.078703225 0.37372383 0.3504381 0.40478924 -0.40290216
0.2532708 -0.11664393 -0.069579564 0.029686635 -0.24842532 0.30573153 0.4470936 0.4790184
0.4055629 0.42839006 0.48022342 0.33240703 0.029653285 -0.3112139 0.2823135 0.39872772
-0.29409063 -0.15032795 -0.025660206 -0.3064143 -0.39114004 0.14311048 -0.26070112 0.078462444

decoder.fc1.bias f4 [20]
00000000: 5107 ccbe befc 6e3e 32b0 05bf 0eef d53e
00000010: 7650 42be add1 56be 1ed1 94be 1d96 b2be
00000020: a58d e2bc 8a53 1cbe 25cc c23e e91b 673d
00000030: b0c0 fdbe b413 ab3e 5f5f 9a3e f831 d4be
00000040: 9fdd 39be 6524 d0be 1a07 99bd c844 4fbd
-0.39849332 0.23338601 -0.5222198 0.41783947 -0.18976006 -0.20978422 -0.29065794 -0.34880152
-0.027655432 -0.15266243 0.38046375 0.0564231 -0.4956107 0.3341347 0.30150887 -0.41444373
-0.18150948 -0.40652767 -0.07472058 -0.050602704

decoder.fc2.weight f4 [2, 20]
00000000: c514 b43d baae 463d 0985 eabc bf17 7c3e
00000010: 065a a43d 96dd 883d 7d03 d53d 8c7b e73d
00000020: b4a7 83bd abce 36be 2e57 a2bb 8590 10be
00000030: 56f5 bf3d 7e2d 9e3d 9218 4c3e a8e4 5c3d
00000040: 1209 e33d 23e6 a8bd 456c 38be 62ca 093d
00000050: 502b e63d 2144 10be 13b3 40be dae1 473e
00000060: 3b9b 4abe 3928 1ebe c0a0 a33b 5f6f 073e
00000070: c811 40bc 8aa0 05bd 8289 803d fc41 a1bd
00000080: cd51 213e f53f 29be f499 053c 9ad7 04be
00000090: 57fd 273e 658f 8ebd 3650 cdbc 8957 28bc
0.08793024 0.048506476 -0.02862789 0.24618433 0.08024983 0.06682889 0.10401056 0.113028616
-0.06428471 -0.17852275 -0.0049542403 -0.1411763 0.09372966 0.07723521 0.19931248 0.053929
0.110857144 -0.0824702 -0.18010052 0.033640273 0.1123873 -0.14088489 -0.18818311 0.1951975
-0.19785778 -0.15445031 0.004993528 0.13226078 -0.011722989 -0.032623805 0.062762275 -0.07873914
0.15753861 -0.16528304 0.008154381 -0.1297287 0.16405235 -0.06960944 -0.025062662 -0.010274776

decoder.fc2.bias f4 [2]
00000000: b5c7 28be a6f3 17bd
-0.16482432 -0.037097596
