Results/latent_ode_spiral-3.pth (torch, 28969 bytes, 14 tensors)

encoder.i2h.weight f4 [25, 27]
-0.03655191 0.13125798 0.05931476 0.045848053 -0.084731594 0.083816886 0.10357953 -0.008490725
-0.14771444 -0.034302793 -0.0067122416 0.22362569 0.030553931 -0.27815413 0.2005435 0.12218089
0.22666936 0.0027230345 -0.060539585 -0.054322597 0.057793263 0.1029508 -0.15884954 0.19939971
0.04993434 0.22193243 -0.1279564 -0.102192484 0.17838429 0.24833019 0.07228046 -0.12398505
-0.057327587 -0.053621158 -0.015337384 0.1027856 -0.17665975 -0.16205396 0.035785675 0.16270018
-0.11133719 -0.07546881 0.10399799 0.19650955 -0.17032544 -0.09308563 0.060706474 -0.061502565
-0.013963579 0.0050705983 0.09520988 0.23442633 -0.08071931 0.14810666 0.07654926 0.10868746
0.09230397 0.12700881 0.12970062 -0.010103855 -0.21636133 0.13651729 -0.1798102 0.07548432
-0.13838966 0.13537061 -0.16743843 -0.107074924 -0.04978918 -0.038326193 -0.16277456 0.06897164
0.00051390764 -0.085569605 -0.16879073 -0.22575745 0.021419348 -0.012573373 -0.1635587 0.09508477
-0.037591856 0.16352305 0.037688185 0.15923227 -0.1109723 0.104755566 0.117304556 -0.035372112
0.12630334 0.1345117 -0.12513427 0.082525365 0.15922794 -0.17955588 -0.13301402 -0.10865524
0.10758677 0.034866303 0.15777877 0.14201851 0.033026736 -0.07241447 -0.25849962 -0.23464313
0.004560261 -0.081743196 0.08059873 -0.072210856 0.004726418 -0.11691644 0.061482716 0.029597724
0.04957294 -0.06837258 0.19582817 0.13272211 0.17800963 -0.19755296 0.021186708 -0.12577748
0.0037009602 -0.112899266 -0.09238543 0.030649185 -0.114823215 0.1031445 0.22394991 0.08360406
0.13876046 0.14047585 0.122624435 -0.008690024 -0.10075011 -0.21346651 -0.00086594326 0.08027693
-0.018933183 -0.021562912 -0.18823044 -0.20195584 0.032650374 0.16444543 0.076421164 -0.09680085
-0.06359042 -0.17060815 0.1551061 -0.01933366 0.041659866 -0.15678759 -0.013292521 0.21859474
-0.1749845 0.18874793 0.1349442 -0.11517477 0.13611913 -0.040456653 -0.0606441 -0.08029297
0.22694936 0.06786067 0.08027484 0.18312871 -0.1918676 -0.105222754 0.05657102 -0.19153999
0.12848373 -0.021729346 0.0504735 -0.1358066 -0.034765963 -0.1562978 0.00956264 0.018507209
-0.11638515 0.16097653 0.059867032 0.24785608 -0.04397433 -0.17153507 0.112350345 -0.18553875
0.059812766 -0.07386711 -0.18246967 -0.18980439 0.037897095 -0.05848905 -0.09021776 -0.11568567
0.07320452 0.034050476 -0.07630297 0.11790293 0.16712807 -0.07384971 0.0572285 -0.08507252
0.19818638 0.13708802 -0.016434856 0.03082023 0.12770844 0.15905635 -0.036816936 -0.14539374
-0.12789132 0.09765674 0.07953752 0.056838613 0.1552538 -0.08616412 0.12727882 0.23351707
0.025564674 0.107589245 0.04021525 0.0032667562 -0.18851511 -0.03490394 -0.00040550664 0.080038995
0.04260267 0.07621361 -0.118214905 0.10008888 -0.015566864 0.13311774 -0.042465393 0.130136
0.04156235 0.11056428 0.035888813 -0.056584876 0.16027102 0.060835674 0.10318801 -0.14411579
0.09592877 0.020719698 0.06980621 0.018525157 -0.09036443 -0.010386402 0.022029381 0.13325228
-0.16712761 -0.05692861 0.059571072 0.06661688 -0.04909123 -0.02791591 0.19430457 0.10803619
00000000: 75b7 15bd 7e68 063e 09f4 723d 2bcb 3b3d
00000010: c287 adbd 30a8 ab3d 8121 d43d af1c 0bbc
00000020: 7442 17be 1681 0cbd 5df2 dbbb 22fe 643e
00000030: 3d4c fa3c 386a 8ebe 465b 4d3e f939 fa3d
00000040: 031c 683e f074 323b 5bf8 77bd 5f81 5ebd
00000050: a1b8 6c3d ded7 d23d 74a9 22be 702f 4c3e
00000060: f387 4c3d 4142 633e 0107 03be 4b4a d1bd
00000070: 5faa 363e 454a 7e3e c707 943d e0eb fdbd
00000080: 55d0 6abd dca1 5bbd a749 7bbc 4281 d23d
00000090: 4be6 34be 79f1 25be 0094 123d e09a 263e
000000a0: c104 e4bd 648f 9abd e6fc d43d cd39 493e
000000b0: cb69 2ebe aea3 bebd 5aa7 783d 1dea 7bbd
000000c0: 7fc7 64bc 4327 a63b 66fd c23d 750d 703e
000000d0: 2a50 a5bd 46a9 173e dcc5 9c3d 8897 de3d
000000e0: dd09 bd3d 990e 023e 3dd0 043e a48a 25bc
000000f0: d38d 5dbe 30cb 0b3e 2a20 38be 8697 9a3d
00000100: 05b6 0dbe 989e 0a3e fb74 2bbe 194a dbbd
00000110: bdef 4bbd edfb 1cbd 60ae 26be 0141 8d3d
00000120: c2b7 063a 1e3f afbd 7ad7 2cbe f62c 67be
00000130: a177 af3c 8c00 4ebc ef7b 27be cebb c23d
00000140: ebf9 19bd 9672 273e ed5e 1a3d c90d 233e
00000150: 7245 e3bd 168a d63d 5f3d f03d 59e2 10bd
00000160: aa55 013e 6fbd 093e 3323 00be 0f03 a93d
00000170: a60c 233e 7fdd 37be d434 08be a386 debd
00000180: 7456 dc3d f8cf 0e3d c290 213e 4d6d 113e
00000190: 0b47 073d 0a4e 94bd 105a 84be 4a46 70be
000001a0: 3e6e 953b fa68 a7bd f210 a53d 49e3 93bd
000001b0: 11e0 9a3b e371 efbd 4dd5 7b3d ed76 f23c
000001c0: ff0c 4b3d ec06 8cbd 2e87 483e 4ee8 073e
000001d0: 2848 363e 534b 4abe bf8f ad3c d0cb 00be
000001e0: cf8b 723b bb37 e7bd 9334 bdbd 0014 fb3c
000001f0: 6f28 ebbd 6c3d d33d 2053 653e 9b38 ab3d
00000200: 3917 0e3e e7d8 0f3e 8522 fb3d 9a60 0ebc
00000210: 1356 cebd f796 5abe 7800 63ba 3b68 a43d
00000220: c319 9bbc b4a4 b0bc 7bbf 40be 83cd 4ebe
00000230: 66bc 053d 6264 283e b382 9c3d 863f c6bd
00000240: b23b 82bd e7b3 2ebe 22d4 1e3e a061 9ebc
00000250: 89a3 2a3d ed8c 20be e0c8 59bc 4dd7 5f3e
00000260: 232f 33be 2347 413e d02e 0a3e c0e0 ebbd
00000270: d062 0b3e e0b5 25bd f365 78bd a470 a4bd
00000280: 6a65 683e 89fa 8a3d 2367 a43d 1886 3b3e
00000290: f178 44be 077f d7bd 04b7 673d 0f23 44be
000002a0: 3d91 033e be01 b2bc 4dbd 4e3d e310 0bbe
000002b0: c166 0ebd 880c 20be 9fac 1c3c 6e9c 973c
000002c0: 565b eebd 08d7 243e 2237 753d fccd 7d3e
000002d0: 6d1e 34bd e4a6 2fbe f017 e63d dffd 3dbe
000002e0: 3bfe 743d a447 97bd 54d9 3abe 155c 42be
000002f0: fc39 1b3d 3792 6fbd 17c4 b8bd 9cec ecbd
00000300: 40ec 953d 8378 0b3d bb44 9cbd 1777 f13d
00000310: 9f23 2b3e 843e 97bd 6e68 6a3d 803a aebd
00000320: 5ff1 4a3e cd60 0c3e 64a2 86bc b57a fc3c
00000330: 00c6 023e abdf 223e 5bcd 16bd 19e2 14be
00000340: f1f5 02be 4200 c83d 91e4 a23d 9bcf 683d
00000350: dafa 1e3e d076 b0bd 6155 023e 191f 6f3e
00000360: 026d d13c c057 dc3d bfb8 243d 1317 563b
00000370: 1b0a 41be 6ff7 0ebd 2e9a d4b9 7ceb a33d
00000380: 2380 2e3d e215 9c3d a81a f2bd 66fb cc3d
00000390: 290c 7fbc 0450 083e 31f0 2dbd 5f42 053e
000003a0: 483d 2a3d 866f e23d 2600 133d 8bc5 67bd
000003b0: 161e 243e d42e 793d 3c54 d33d 1793 13be
000003c0: 4e76 c43d 5bbc a93c 8ff6 8e3d 12c2 973c
000003d0: fc10 b9bd ba2b 2abc f676 b43c 4973 083e
000003e0: 8023 2bbe f92d 69bd cc00 743d 6e6e 883d
000003f0: e313 49bd e8af e4bc c7f7 463e 1442 dd3d

encoder.i2h.bias f4 [25]
0.16601491 0.31848794 0.09202821 -0.104458995 0.12057829 -0.12056655 0.028047035 -0.15865642
-0.17748067 -0.18225202 0.28416008 -0.13696 0.17684871 -0.14557151 0.06227821 -0.009757399
0.023530943 -0.13734771 0.10696681 0.30603632 0.08295206 0.08831161 -0.11732391 -0.088212155
-0.094538264
00000000: d0ff 293e da10 a33e 4979 bc3d 99ee d5bd
00000010: c0f1 f63d 98eb f6bd e5c2 e53c d476 22be
00000020: 7ebd 35be 46a0 3abe 6e7d 913e 3e3f 0cbe
00000030: d417 353e b310 15be 7017 7f3d 7fdd 1fbc
00000040: f7c3 c03c e1a4 0cbe 6a11 db3d cbb0 9c3e
00000050: c5e2 a93d b8dc b43d 8547 f0bd 93a8 b4bd
00000060: 479d c1bd

encoder.h2o.weight f4 [8, 25]
0.08329946 0.048755936 -0.11639378 -0.14642426 -0.096051045 0.22564319 -0.23145859 0.1853752
0.111692175 0.20431472 -0.029289572 -0.1629985 -0.14354245 0.16465122 -0.04798516 -0.24852303
-0.22584811 0.023515556 -0.020282457 0.014434392 0.004485198 -0.11433253 0.27987173 0.100716025
-0.08029331 0.14922132 -0.06138422 -0.02653198 0.028958295 -0.17275901 -0.11652043 0.05665927
0.14885797 0.044011835 -0.12137546 0.09135058 0.07585332 -0.0410696 -0.059171326 0.09652614
0.01531054 0.014194091 0.07734256 0.0043688533 0.012661614 0.14135464 -0.005512539 -0.1357923
-0.01000191 -0.08552594 0.259711 0.20880906 0.29214907 0.14626884 -0.124898605 0.012675144
0.07643837 -0.07925116 -0.067041874 0.18000959 -0.20290692 -0.18766649 -0.04033389 0.057323635
-0.10902394 0.034630746 0.03772352 -0.31365344 0.007188736 -0.14471942 -0.20302224 0.26080114
-0.019307368 0.053874206 -0.27053186 -0.12622075 0.1821233 0.09767782 -0.022057386 -0.08390013
0.004615677 0.16701628 -0.02418471 -0.05059447 0.006704702 0.15086241 0.064604685 0.03965381
0.031737484 -0.023542192 0.038013875 -0.01278015 0.08371267 0.034388606 -0.11449186 -0.054939218
0.0008954731 0.06670415 -0.01935176 -0.16203794 -0.1306539 -0.28758603 0.09709755 0.18460009
-0.25366342 0.1041698 0.11610059 -0.023487637 0.0702863 0.19599016 -0.2859741 -0.0020255828
0.016073985 0.24651717 0.08149116 -0.06700281 0.047599133 0.11103885 -0.04512774 -0.18006836
-0.07182458 -0.18988988 -0.19537497 0.21222539 0.2955368 -0.03397912 0.03669337 -0.14633048
0.037819725 -0.077381276 -0.0083618285 -0.10143837 -0.0748214 -0.0090954285 0.13641486 0.20692708
-0.12471848 0.17793427 -0.094652295 0.08269475 0.18614833 -0.13986064 -0.07316583 -0.061522692
-0.0411924 0.031361934 -0.098016694 -0.15314002 -0.18761851 0.15201786 0.05314242 -0.35306016
-0.042185422 0.2929211 -0.174327 0.14501978 0.07916834 0.16971244 0.3204496 -0.09204525
-0.26812533 0.0037209229 -0.18542619 0.08593048 0.109373584 -0.069302924 0.14780141 0.108307794
-0.060337983 -0.45025343 -0.11145955 -0.039935548 -0.028540054 0.2116113 0.23794709 -0.07030966
-0.027443493 -0.047314968 0.0071529057 0.06890217 0.030196361 -0.008301021 -0.20734175 0.2316835
0.06126307 0.034705855 -0.15811846 -0.14190118 0.028352996 -0.0816126 -0.177982 0.05219111
-0.11401989 0.0972694 0.011447259 0.1234368 0.039319944 -0.11581234 0.14454485 -0.102197826
00000000: e898 aa3d 4eb4 473d dd5f eebd 3ef0 15be
00000010: 69b6 c4bd 020f 673e 7b03 6dbe ffd2 3d3e
00000020: debe e43d e137 513e aff0 efbc 14e9 26be
00000030: cbfc 12be 549a 283e 168c 44bd d27c 7ebe
00000040: ba44 67be b2a3 c03c 6527 a6bc 3a7e 6c3c
00000050: 91f8 923b 2c27 eabd 594b 8f3e 3444 ce3d
00000060: d270 a4bd 79cd 183e 056e 7bbd 9859 d9bc
00000070: f239 ed3c bde7 30be 43a2 eebd 8d13 683d
00000080: 396e 183e c145 343d b293 f8bd 0316 bb3d
00000090: fc58 9b3d 9938 28bd a25d 72bd 7faf c53d
000000a0: 0fd9 7a3c 558e 683c c765 9e3d 9928 8f3b
000000b0: a972 4f3c 45bf 103e 87a2 b4bb 230d 0bbe
000000c0: 0ddf 23bc 3928 afbd d7f8 843e 0bd2 553e
000000d0: 9094 953e 80c7 153e d7ca ffbd 68ab 4f3c
000000e0: b88b 9c3d 6f4e a2bd 404d 89bd 6f54 383e
000000f0: d5c6 4fbe a52b 40be 2635 25bd 30cc 6a3d
00000100: f247 dfbd f8d8 0d3d fa83 1a3d 2f97 a0be
00000110: 7d8f eb3b 5431 14be 10e5 4fbe ba87 853e
00000120: 7c2a 9ebc 33ab 5c3d 2783 8abe 0340 01be
00000130: 887e 3a3e 4f0b c83d b1b1 b4bc d5d3 abbd
00000140: 1b3f 973b 5106 2b3e 031f c6bc 263c 4fbd
00000150: 1eb3 db3b ad7b 1a3e 764f 843d 096c 223d
00000160: 2aff 013d 8edb c0bc 70b4 1b3d d663 51bc
00000170: 8c71 ab3d 11db 0c3d b57a eabd f207 61bd
00000180: 2fbe 6a3a 2f9c 883d 9587 9ebc 46ed 25be
00000190: 23ca 05be 7a3e 93be 15db c63d ce07 3d3e
000001a0: 2ce0 81be fa56 d53d 25c6 ed3d 2569 c0bc
000001b0: 43f2 8f3d a5b1 483e 326b 92be a4bf 04bb
000001c0: 97ad 833c ff6e 7c3e d6e4 a63d c538 89bd
000001d0: 4ff7 423d 5668 e33d ddd7 38bd d763 38be
000001e0: c418 93bd 7e72 42be 6010 48be 9d51 593e
000001f0: 9950 973e b12d 0bbd ca4b 163d a8d7 15be
00000200: dbe8 1a3d 137a 9ebd 0d00 09bc ecbe cfbd
00000210: f63b 99bd fe04 15bc 56b0 0b3e b1e4 533e
00000220: 676c ffbd 6734 363e 10d9 c1bd dd5b a93d
00000230: ab9d 3e3e a137 0fbe f7d7 95bd 38ff 7bbd
00000240: 5db9 28bd 5f75 003d fabc c8bd bdd0 1cbe
00000250: 111f 40be 92aa 1b3e deab 593d 4dc4 b4be
00000260: 9fca 2cbd c1f9 953e c782 32be 1180 143e
00000270: 0323 a23d 19c9 2d3e f811 a43e 3882 bcbd
00000280: b947 89be bada 733b 5de0 3dbe 52fc af3d
00000290: 42ff df3d b1ee 8dbd 4159 173e 7ad0 dd3d
000002a0: f624 77bd 9e87 e6be e844 e4bd 7593 23bd
000002b0: d5cc e9bc a2b0 583e 67a8 733e 83fe 8fbd
000002c0: 2dd1 e0bc 57cd 41bd ec62 ea3b 951c 8d3d
000002d0: 5c5e f73c 0101 08bc 6551 54be 703e 6d3e
000002e0: fcee 7a3d ba27 0e3d cee9 21be 8b4e 11be
000002f0: 8b44 e83c 8224 a7bd ea40 36be 58c6 553d
00000300: 4383 e9bd 2e35 c73d 498d 3b3c 6fcc fc3d
00000310: f30d 213d 052f edbd 9103 143e 184d d1bd

encoder.h2o.bias f4 [8]
0.111281626 -0.03318941 -0.20629364 -0.07097629 -0.45554695 -0.07841348 -0.20817855 0.012102919
00000000: 9fe7 e33d 9ef1 07bd a43e 53be 045c 91bd
00000010: 733d e9be 3f97 a0bd c22c 55be 524b 463c

ode_func.net.0.weight f4 [64, 4]
-0.02297287 0.10125945 0.1427752 -0.026355563 -0.053695615 -0.03360241 -0.07858144 0.037625343
0.15067063 -0.073927924 0.036433477 -0.07505101 -0.17467555 -0.24525037 0.043595724 -0.06481797
0.17387676 0.02720809 0.15759686 0.113690026 0.14808232 0.124247 0.06516397 0.025112547
0.019864267 0.09106923 0.088449635 0.035756923 -0.019720422 -0.0023155045 -0.2084179 -0.04659705
-0.17771551 0.032977697 0.0035466081 0.047686927 -0.024430063 -0.115172885 -0.108907215 0.007141837
0.19726199 -0.20572646 0.08395953 -0.07204845 -0.050282307 -0.020729499 0.16163963 0.0048477273
0.4231474 -0.3084201 -0.136957 -0.17754366 0.16854326 -0.13480406 -0.026772141 0.14159186
0.10638363 0.1608117 -0.049394045 -0.08285511 -0.015160507 -0.072118856 -0.13516621 0.035229627
-0.057349477 -0.057156205 0.16250886 0.018071067 -0.013356854 -0.015613639 -0.12519015 -0.105563104
-0.14481975 0.081231035 -0.12711668 -0.11019223 -0.09586031 0.009450988 0.064282306 -0.13191783
-0.038498957 -0.090258546 0.17856026 -0.056711663 -0.038009375 0.13677499 -0.010933202 0.023363106
-0.058965307 0.10424302 0.020296251 0.13359569 -0.05913601 0.10301045 0.041622296 0.020181978
-0.059385203 -0.118381806 -0.0031810827 -0.24782054 0.008305897 0.04522116 0.110899135 0.08810563
-0.13677588 0.17030703 -0.010767229 -0.07489349 0.2531654 0.015198561 -0.052301027 0.1105442
0.124066755 0.19755757 0.024370415 0.07665569 -0.02708212 0.001162391 0.09412643 -0.026590815
-0.003069068 -0.11987174 0.042693175 -0.055050477 0.10226065 0.08455843 0.13879466 -0.051297043
-0.12773696 -0.04606198 0.13479917 0.10970048 -0.078055166 -0.08948217 -0.07285886 0.09875689
-0.0972874 -0.10217347 -0.0056271823 0.059669677 0.053965524 0.06039414 -0.07070858 -0.016486188
0.023413245 0.09702625 -0.031876225 -0.01095893 0.1497768 0.026504986 -0.010161503 0.25677755
-0.008676892 0.067823485 0.099457555 -0.14976794 -0.06430548 -0.056393806 -0.07768139 0.091845505
-0.12273543 0.02159795 -0.034697343 -0.09738865 0.1604896 0.073498346 0.028966764 0.10981971
-0.025253767 0.03495168 -0.09824606 -0.06542882 -0.06347102 -0.085999615 0.018183028 -0.014762926
-0.039157376 -0.2140947 -0.014423473 0.077851154 0.027105115 0.07049971 0.105353534 -0.08367416
-0.03700742 -0.017930394 -0.10102444 -0.05520598 -0.014515956 -0.16671991 0.06504825 -0.116136216
0.07523676 -0.08615248 -0.08762853 0.12135439 0.12148297 -0.07680583 -0.03489816 -0.017701728
0.029680988 0.06421697 -0.08617255 -0.058208715 0.07458286 0.14461383 0.089698166 -0.004126398
-0.0929072 -0.02260571 -0.21609965 0.08446985 0.14005984 0.16248469 0.044245478 -0.06494433
0.22966145 -0.043846432 -0.11099446 -0.067263246 0.044305917 0.12592211 -0.0027131066 -0.2567884
-0.18863237 0.017717535 -0.075907044 0.041554242 0.14645983 -0.00861948 -0.06113905 0.14070699
0.16227931 0.20767662 0.08956544 -0.08999267 0.015040945 -0.075904615 -0.13501745 -0.021078818
0.07243383 0.22279723 0.072301604 -0.08550343 0.0007938851 -0.09792194 0.16627944 -0.039192233
-0.067667305 0.022093765 -0.07332779 0.121446155 0.069980256 0.009421042 -0.08194745 -0.049240008
00000000: 9a31 bcbc 1d61 cf3d a933 123e 9fe7 d7bc
00000010: efef 5bbd aea2 09bd 4eef a0bd 081d 1a3d
00000020: 6749 1a3e 8667 97bd 453b 153d 58b4 99bd
00000030: 26de 32be ea22 7bbe 6e91 323d 49bf 84bd
00000040: c00c 323e 80e3 de3c 1261 213e 51d6 e83d
00000050: e4a2 173e 3675 fe3d b074 853d d4b8 cd3c
00000060: 63ba a23c 8182 ba3d 1525 b53d da75 123d
00000070: b98c a1bc b8bf 17bb 816b 55be 8cdc 3ebd
00000080: 0efb 35be 9f13 073d 366e 683b 5e53 433d
00000090: 8e21 c8bc c3df ebbd bf0a dfbd 1206 ea3b
000000a0: 0cff 493e f5a9 52be f9f2 ab3d 238e 93bd
000000b0: d2f4 4dbd e9d0 a9bc dc84 253e afd9 9e3b
000000c0: c7a6 d83e 3de9 9dbe 753e 0cbe 01ce 35be
000000d0: 9b96 2c3e 130a 0abe 4051 dbbc 75fd 103e
000000e0: a9df d93d d3ab 243e 6951 4abd f1af a9bd
000000f0: c663 78bc 0db3 93bd 0369 0abe f14c 103d
00000100: 49e7 6abd a01c 6abd b968 263e c609 943c
00000110: b5d6 5abc 59d0 7fbc d931 00be 7831 d8bd
00000120: a14b 14be 755c a63d e02a 02be 77ac e1bd
00000130: 6952 c4bd 51d8 1a3c 71a6 833d 7815 07be
00000140: 15b1 1dbd 79d9 b8bd 80d8 363e 7d4a 68bd
00000150: b8af 1bbd be0e 0c3e 2c21 33bc fc63 bf3c
00000160: 9b85 71bd 5d7d d53d 5344 a63c 4fcd 083e
00000170: 9a38 72bd 25f7 d23d 247c 2a3d ad54 a53c
00000180: e63d 73bd 2972 f2bd b679 50bb abc4 7dbe
00000190: 7515 083c d339 393d 161f e33d b970 b43d
000001a0: fa0e 0cbe f764 2e3e 0869 30bc c261 99bd
000001b0: e59e 813e 6303 793c 9a39 56bd ff64 e23d
000001c0: b616 fe3d 884c 4a3e 77a4 c73c a9fd 9c3d
000001d0: 52db ddbc 5f5b 983a 5cc5 c03d fbd4 d9bc
000001e0: 6b22 49bb 517f f5bd 0adf 2e3d 9c7c 61bd
000001f0: 086e d13d f82c ad3d 3020 0e3e d91c 52bd
00000200: 7acd 02be 7dab 3cbd cb08 0a3e a5aa e03d
00000210: 63db 9fbd 6e42 b7bd 0737 95bd 0d41 ca3d
00000220: 9e3e c7bd 5340 d1bd 3a64 b8bb 3168 743d
00000230: f40a 5d3d d95f 773d a9cf 90bd 0b0e 87bc
00000240: 22cd bf3c b3b5 c63d a590 02bd 158d 33bc
00000250: 175f 193e fc20 d93c 6f7c 26bc 5978 833e
00000260: 8629 0ebc 0ae7 8a3d 67b0 cb3d c45c 19be
00000270: 97b2 83bd 31fd 66bd 6c17 9fbd 7f19 bc3d
00000280: b75c fbbd 2fee b03c cd1e 0ebd b373 c7bd
00000290: 6357 243e 4d86 963d b54b ed3c 28e9 e03d
000002a0: fde0 cebc 7e29 0f3d 3b35 c9bd 8cff 85bd
000002b0: 18fd 81bd 9120 b0bd 93f4 943c 33e0 71bc
000002c0: 7c63 20bd a43b 5bbe 6e50 6cbc 6d70 9f3d
000002d0: 8c0b de3c 2762 903d 98c3 d73d 5c5d abbd
000002e0: 1895 17bd c3e2 92bc e7e5 cebd aa1f 62bd
000002f0: 55d4 6dbc a0b8 2abe 0438 853d d3d8 edbd
00000300: bb15 9a3d b670 b0bd 9676 b3bd a788 f83d
00000310: 10cc f83d 604c 9dbd 5ff1 0ebd 3703 91bc
00000320: 8b25 f33c 3084 833d 3c7b b0bd 436c 6ebd
00000330: e6be 983d a615 143e acb3 b73d bc36 87bb
00000340: 2146 bebd 9c2f b9bc 3a49 5dbe 87fe ac3d
00000350: d96b 0f3e 6362 263e bf3a 353d 8801 85bd
00000360: 5f2c 6b3e 5198 33bd 1051 e3bd 50c1 89bd
00000370: 1f7a 353d baf1 003e 60ce 31bb c579 83be
00000380: d828 41be 5d24 913c 2775 9bbd c834 2a3d
00000390: 91f9 153e b838 0dbc f16c 7abd 7e15 103e
000003a0: 8c2c 263e 2ea9 543e 166e b73d 144e b8bd
000003b0: 4c6e 763c e173 9bbd 0442 0abe 7cad acbc
000003c0: 3058 943d f524 643e dd12 943d 6c1c afbd
000003d0: ba1c 503a 4c8b c8bd 2845 2a3e 0988 20bd
000003e0: 2895 8abd fcfd b43c e12c 96bd c3b8 f83d
000003f0: cf51 8f3d b75a 1a3c 11d4 a7bd e4af 49bd

ode_func.net.0.bias f4 [64]
0.004645369 -0.04276912 -0.053897027 -0.034475613 -0.01866494 -0.033001978 0.040260747 -0.0032475244
0.040996492 0.032629542 -0.008264124 0.07703837 -0.11138622 -0.022328814 -0.0104537895 -0.0117621
-0.0047592637 -0.039890278 0.036174517 0.0451768 -0.0049716053 0.0069225933 0.06374798 0.03294225
0.0029898207 0.061002307 0.022391338 -0.047473114 0.0009768328 0.054104388 0.003906246 0.02409798
0.058370106 0.06910617 0.018659452 -0.002463627 -0.053256564 0.012601784 0.01710017 0.032817986
-0.012113257 -0.036560938 -0.029612618 0.033384297 -0.00015482395 -0.027067501 -0.01627251 -0.023288626
-0.058219127 -0.009854235 -0.055997543 -0.019318076 -0.017324261 -0.0657076 -0.09515126 -0.051005524
0.06943577 -0.031028278 -0.062338796 -0.044238903 0.028981749 0.041792963 0.028774073 -0.07731892
00000000: 2e38 983b ac2e 2fbd 21c3 5cbd 4d36 0dbd
00000010: 37e7 98bc 152d 07bd 74e8 243d 6bd4 54bb
00000020: f0eb 273d 8ea6 053d 4066 07bc 4bc6 9d3d
00000030: 751e e4bd ebea b6bc 5f46 2bbc d3b5 40bc
00000040: 99f3 9bbb fd63 23bd bb2b 143d 4f0b 393d
00000050: d9e8 a2bb ecd6 e23b 4d8e 823d 74ee 063d
00000060: def0 433b 8edd 793d 0a6e b73c 2b73 42bd
00000070: 1209 803a 909c 5d3d efff 7f3b 2069 c53c
00000080: 7e15 6f3d 8987 8d3d b5db 983c cd74 21bb
00000090: 8e23 5abd b777 4e3c a815 8c3c 276c 063d
000000a0: af76 46bc ecc0 15bd 2996 f2bc f9bd 083d
000000b0: 3d58 22b9 aabc ddbc ed4d 85bc cac7 bebc
000000c0: 2e77 6ebd a873 21bc ae5d 65bd f140 9ebc
000000d0: 9ceb 8dbc b591 86bd aade c2bd 2beb 50bd
000000e0: 5734 8e3d 042f febc f756 7fbd da33 35bd
000000f0: 226b ed3c 192f 2b3d 9bb7 eb3c 6259 9ebd

ode_func.net.2.weight f4 [64, 64]
-0.04810602 0.107883856 -0.0054202643 -0.15722053 0.24124454 0.051722933 0.08571583 0.039504815
-0.1689781 -0.16035262 0.12881818 0.04433809 0.15965462 0.030853001 0.18599746 0.037635688
-0.27144742 0.09381692 -0.040323038 -0.11554025 -0.08722265 -0.097448 -0.10325955 -0.036554083
-0.12646133 0.07849999 -0.21492633 0.056946218 0.14390238 0.09835995 -0.061197363 -0.008886406
0.03995776 0.070750974 -0.09763554 -0.006129066 -0.03740314 0.25085372 -0.053721935 -0.037237607
0.046784014 0.11249511 0.08944931 -0.021451477 0.02606328 0.01895788 -0.07343935 -0.2568775
0.11888532 -0.12860613 -0.1916621 0.13318045 -0.27060103 -0.14834209 -0.0074673453 0.06012913
0.012486422 0.105154485 -0.008929636 0.03349916 0.12118177 0.121956795 0.051514216 0.021649117
-0.114429116 0.052583255 -0.07699847 0.09142222 -0.14124705 -0.050834414 -0.1166569 0.075911395
-0.008453285 -0.00556608 -0.11679541 -0.1875939 -0.15306614 0.06366014 0.07147919 0.10126431
-0.15522937 0.06502562 0.0090227295 -0.07713298 0.035039444 0.068841666 0.023262873 0.075026415
-0.084794216 -0.11452801 -0.08909346 0.09915427 -0.083090946 0.05347838 -0.013126323 -0.0326563
-0.035035275 0.00205709 -0.089510575 0.089824945 0.03572863 -0.1239285 -0.064112015 -0.07494834
-0.05217673 -0.20113583 0.14874895 0.037056167 0.04996663 0.08618844 0.03685686 0.1432755
-0.007051515 0.048975937 0.09650232 -0.18513364 0.13919246 0.083957456 0.055745013 -0.0031641722
0.041192073 0.029566566 0.0603561 -0.0050879014 0.04337476 -0.0032632481 -0.061691515 0.20813723
0.09232511 -0.038594775 -0.07949128 0.21094646 -0.19615142 0.15326162 -0.0074623968 -0.020741327
0.093608774 -0.015413155 0.04379899 -0.05573039 0.008775623 -0.012213644 -0.058594305 -0.090671465
-0.013303974 -0.0675067 0.006379132 0.01853261 -0.13940544 -0.033331797 0.11248254 0.18787763
0.0014493222 -0.10761381 0.07774707 -0.05349439 -0.18934056 0.011884141 0.0021247233 -0.16490613
0.1375049 0.0936247 0.037646428 -0.14050345 -0.098790176 -0.028284736 -0.20697038 0.14140831
0.04141293 -0.08836993 0.056295842 -0.08434575 0.12506877 0.05434559 0.0688017 -0.03784547
0.039725956 -0.15005092 -0.0015258589 -0.008888276 0.108422525 -0.040703885 0.12821786 -0.087749384
0.08480538 0.10479197 -0.004450727 0.03651375 -0.11583109 -0.1395122 0.0036365776 -0.07797905
0.023045674 0.13263531 -0.14780797 -0.23927799 -0.20130241 0.14101975 -0.05305083 0.044082277
-0.040429488 -0.03806822 -0.083606154 0.0825591 0.047255937 -0.12093849 0.05425202 0.048049334
-0.024374489 0.017999236 0.028324293 -0.1413447 -0.09474994 0.09172976 -0.03634737 0.015935257
-0.04398364 -0.09678358 0.06399894 -0.08891769 0.28924918 -0.15491776 -0.18820702 -0.041648697
-0.062460206 -0.083607905 -0.13913254 0.07896457 0.08431709 -0.11168965 0.07756993 0.07857166
0.030640826 -0.27175042 0.26715666 0.001865534 0.13308288 -0.036168776 0.016365547 -0.21835147
-0.035160355 -0.17994452 0.049379304 0.088784926 0.23858194 0.05721257 0.07422712 0.16498908
-0.016069645 -0.028393103 0.1408164 -0.023487195 -0.11152076 0.02154098 0.38847303 -0.03953746
00000000: d10a 45bd 36f2 dc3d 799c b1bb 6bfe 20be
00000010: cf08 773e 6ddb 533d c88b af3d cdcf 213d
00000020: 9808 2dbe 7a33 24be eae8 033e db9b 353d
00000030: 807c 233e 6fbf fc3c 1e76 3e3e e127 1a3d
00000040: 28fb 8abe 1623 c03d c529 25bd 5ea0 ecbd
00000050: caa1 b2bd d192 c7bd be79 d3bd bcb9 15bd
00000060: 147f 01be 9ac4 a03d a615 5cbe 7040 693d
00000070: 255b 133e f170 c93d 16aa 7abd 4a98 11bc
00000080: c0aa 233d e3e5 903d 24f5 c7bd 55d6 c8bb
00000090: 0934 19bd e66f 803e 880b 5cbd 7686 18bd
000000a0: 98a0 3f3d d663 e63d 3331 b73d 02bb afbc
000000b0: a982 d53c 8e4d 9b3c 5f67 96bd 7385 83be
000000c0: 267a f33d 53b1 03be 1243 44be 7560 083e
000000d0: 388c 8abe fde6 17be a2b0 f4bb f649 763d
000000e0: da93 4c3c 3c5b d73d 9c4d 12bc 6a36 093d
000000f0: 262e f83d 7cc4 f93d 9200 533d 7d59 b13c
00000100: d059 eabd 8a61 573d 60b1 9dbd 933b bb3d
00000110: 11a3 10be bf37 50bd d0e9 eebd 6f77 9b3d
00000120: a67f 0abc aa63 b6bb 6f32 efbd 9e18 40be
00000130: 5fbd 1cbe 3f60 823d ae63 923d aa63 cf3d
00000140: 73f4 1ebe 272c 853d 12d4 133c e5f7 9dbd
00000150: 8585 0f3d dcfc 8c3d c891 be3c 73a7 993d
00000160: 97a8 adbd a98d eabd a276 b6bd 6511 cb3d
00000170: 962b aabd 250c 5b3d ca0f 57bc 9dc2 05bd
00000180: 2681 0fbd 3ed0 063b 5251 b7bd 24f6 b73d
00000190: 2f58 123d 3ace fdbd 294d 83bd 847e 99bd
000001a0: 44b7 55bd 8df6 4dbe a551 183e 35c8 173d
000001b0: cfa9 4c3d 9183 b03d 38f7 163d d0b6 123e
000001c0: 6510 e7bb fe9a 483d 02a3 c53d ac93 3dbe
000001d0: 7888 0e3e e3f1 ab3d e254 643d 005e 4fbb
000001e0: 05b9 283d 9535 f23c f537 773d 69b8 a6bb
000001f0: bba9 313d 38dc 55bb 3eb0 7cbd ed21 553e
00000200: f314 bd3d 8e15 1ebd 53cc a2bd 5902 583e
00000210: ebdb 48be 9df0 1c3e 1f87 f4bb b7e9 a9bc
00000220: f5b5 bf3d 7587 7cbc 9266 333d 8d45 64bd
00000230: a1c7 0f3c bc1b 48bc 9500 70bd f6b1 b9bd
00000240: e9f8 59bc f440 8abd 0a08 d13b b3d1 973c
00000250: 4dc0 0ebe ec86 08bd 3f5d e63d fe62 403e
00000260: 2ff7 bd3a a164 dcbd db39 9f3d ef1c 5bbd
00000270: 7ee2 41be b3b5 423c f13e 0b3b 27dd 28be
00000280: 16ce 0c3e 4fbe bf3d 2433 1a3d 23e0 0fbe
00000290: 8152 cabd 64b5 e7bc 0bf0 53be 57cd 103e
000002a0: 9ba0 293d 4bfb b4bd 7896 663d 77bd acbd
000002b0: 0712 003e 7b99 5e3d e8e7 8c3d da03 1bbd
000002c0: afb7 223d f3a6 19be 54ff c7ba 22a0 11bc
000002d0: a10c de3d 1eb9 26bd 8b4b 033e f3b5 b3bd
000002e0: 71ae ad3d 2c9d d63d 67d7 91bb 718f 153d
000002f0: da38 edbd 49dc 0ebe a653 6e3b 7bb3 9fbd
00000300: 48ca bc3c 8dd1 073e f95a 17be 4a05 75be
00000310: 3822 4ebe 7b67 103e d44b 59bd 9e8f 343d
00000320: 6499 25bd 6ced 1bbd b439 abbd bf14 a93d
00000330: 718f 413d 99ae f7bd 5e37 5e3d 61cf 443d
00000340: 02ad c7bc 2273 933c 5908 e83c aabc 10be
00000350: 420c c2bd d0dc bb3d fbe0 14bd a88a 823c
00000360: 3028 34bd 7836 c6bd e011 833d 7a1a b6bd
00000370: 7818 943e c3a2 1ebe 57b9 40be d397 2abd
00000380: 46d6 7fbd 9f3a abbd c378 0ebe 2db8 a13d
00000390: 70ae ac3d 8bbd e4bd fcdc 9e3d 2eea a03d
000003a0: 7802 fb3c df22 8bbe c2c8 883e ef84 f43a
000003b0: e146 083e b625 14bd 0a11 863c 8797 5fbe
000003c0: 4e04 10bd 6043 38be f441 4a3d dfd4 b53d
000003d0: d34e 743e ba57 6a3d 6304 983d e6f2 283e
000003e0: 7da4 83bc a798 e8bc 2d32 103e 3868 c0bc
000003f0: ff64 e4bd b676 b03c f0e5 c63e 08f2 21bd

ode_func.net.2.bias f4 [64]
0.02210691 -0.03232314 0.03884809 -0.035758153 -0.019182906 -0.004772161 0.02525989 -0.0059112925
-0.040198065 -0.037260044 -0.04082065 0.051653963 0.026061065 0.0064849043 0.0043052468 0.00522448
-0.020068953 0.0070565287 0.013969663 0.041660234 -0.012379623 0.02410548 -0.005280702 0.034437355
0.03871659 -0.020108461 0.04577095 -0.006140521 0.029365737 0.041577835 0.02269962 -0.06351282
0.023403313 0.028766636 0.025915572 0.011339572 -0.02741874 -0.035317853 -0.06759715 -0.008220069
0.016222177 -0.015612386 0.01877985 0.0072629903 0.0097993715 0.031118365 0.0018975312 -0.007312649
0.012651588 0.03639049 -0.005722243 0.035435792 -0.034940656 0.025633967 -0.022228595 0.09222576
0.017251914 -0.01851424 -0.007628358 0.007677516 0.0079523595 -0.017458398 0.013554171 -0.009616625
00000000: 8d19 b53c 4565 04bd 2d1f 1f3d 2477 12bd
00000010: 7825 9dbc ca5f 9cbb d4ed ce3c 84b3 c1bb
00000020: baa6 24bd fd9d 18bd 8e33 27bd 1b93 533d
00000030: 047e d53c 527f d43b 0713 8d3b 1d32 ab3b
00000040: a567 a4bc 743a e73b 03e1 643c eca3 2a3d
00000050: e7d3 4abc db78 c53c bd09 adbb 2f0e 0d3d
00000060: 4995 1e3d 80ba a4bc 527a 3b3d 6c36 c9bb
00000070: 6a90 f03c 854d 2a3d 8ef4 b93c 0213 82bd
00000080: 4eb8 bf3c 02a8 eb3c e54c d43c 9dc9 393c
00000090: 449d e0bc 74a9 10bd 6070 8abd 78ad 06bc
000000a0: 5fe4 843c 18cb 7fbc 33d8 993c 61fe ed3b
000000b0: 8b8d 203c f1eb fe3c 95b6 f83a f29e efbb
000000c0: 9b48 4f3c 320e 153d a781 bbbb 1f25 113d
000000d0: ef1d 0fbd 53fe d13c be18 b6bc dce0 bc3d
000000e0: e353 8d3c 2dab 97bc 4ef7 f9bb ac93 fb3b
000000f0: 9d4a 023c ea04 8fbc 5012 5e3c 0c8f 1dbc

ode_func.net.4.weight f4 [4, 64]
-0.0001590243 -0.21649773 0.0037469454 -0.060038902 0.030714095 0.121632755 0.14705934 -0.07975225
-0.17492242 -0.24100037 -0.2798767 -0.04981793 0.29724115 0.00863051 0.21303697 0.06451802
-0.17625207 0.12829053 0.022741074 0.020443853 -0.17382187 -0.026778864 -0.116499625 0.0038088209
0.058888026 -0.104256704 0.11428657 -0.06861952 0.0017697064 0.081821 0.14843774 -0.13006034
-0.082778744 0.025177985 0.30310595 0.03326438 -0.1492581 -0.045525867 -0.05436474 -0.07947235
0.07188547 -0.08312548 0.07222853 -0.014327248 0.1116087 -0.048382077 -0.07015885 -0.087814525
0.07580958 0.18599765 0.11468363 -0.027903587 -0.11652434 -0.02218038 -0.0058410172 -0.001754061
0.029857242 -0.104246445 0.047542542 0.08324341 0.14567523 -0.21151964 -0.036597572 0.13386916
-0.13163984 0.13422571 0.13253033 -0.010568555 -0.12933733 0.0067648795 -0.01910052 -0.027619878
0.016136942 -0.17420852 0.036244124 -0.086928986 -0.0039557135 0.11677749 -0.05069417 -0.17323743
0.15522103 -0.036197215 -0.08658396 0.03632029 0.0911803 0.16813369 0.018508274 0.10848935
0.15899089 -0.0023730749 -0.023339612 0.0055941488 0.060234755 0.13332735 -0.07692514 -0.00422744
0.075405814 0.10189866 -0.14746729 0.07677523 0.13413356 -0.24389875 -0.14397636 0.023870401
-0.043913685 -0.17402808 0.2521731 -0.0860794 0.25025335 0.19085504 0.1974468 0.02255132
0.104173474 0.01831687 -0.14620435 0.12402218 0.0473738 0.23778662 -0.22864763 0.1531364
-0.11293655 -0.081976205 -0.24503744 -0.15602326 -0.17751873 -0.06405054 0.04153207 0.07295411
-0.11780811 -0.023114169 0.12365569 0.18537973 0.067943044 0.007841819 0.25650632 -0.01968036
0.18671228 0.051581327 -0.0658607 -0.06894081 0.097916715 -0.028355159 -0.16420402 0.07721296
0.022480587 0.16123213 0.033325847 0.15507565 0.24208622 0.12403189 0.03803506 -0.107392505
0.13242626 0.087940924 0.018958628 -0.14632374 -0.22241455 0.026588595 -0.070801616 -0.019029448
-0.13810636 -0.2134871 -0.037079014 -0.08647013 0.15829548 -0.024171727 0.01819458 0.17126942
-0.17872144 -0.21816264 0.1926195 0.074014045 0.064246684 -0.11918289 0.09946766 0.29125312
0.19673975 -0.100937575 -0.034948766 0.21213678 0.08130095 0.04662183 -0.13325799 0.02491807
-0.10372796 0.041439943 -0.16228443 -0.06844734 -0.024574745 -0.016050378 -0.087099865 0.09527087
-0.29177225 0.2688228 -0.07388063 0.12923484 -0.033101786 0.0832924 -0.119170375 -0.10558367
0.13627917 0.15467648 0.10203588 -0.29307333 0.023198033 0.08555718 0.2551518 -0.20317969
0.12724066 -0.035806786 -0.20643638 -0.024840752 0.044032406 -0.12509114 -0.013198717 -0.1660862
-0.010433974 -0.036923636 -0.04438734 0.017450286 -0.10482342 0.009952504 -0.10537062 0.2705981
-0.1232828 -0.047859658 0.015302418 0.1404658 0.12682103 -0.11349962 0.25572744 -0.08642823
-0.09872691 -0.15769331 -0.0089495685 -0.14813575 0.17682575 -0.11881403 0.09819186 -0.055241734
0.164461 -0.16727519 -0.021357806 -0.1300159 0.13151602 0.01567624 0.14087917 -0.20404421
-0.09656252 -0.04496402 0.06803531 -0.21765818 -0.08827345 -0.05828297 -0.08262438 0.30027
00000000: c3bf 26b9 95b1 5dbe 508f 753b 5aeb 75bd
00000010: 209c fb3c 981a f93d b996 163e 2655 a3bd
00000020: dd1e 33be cdc8 76be 004c 8fbe e30d 4cbd
00000030: fe2f 983e fc66 0d3c 5d26 5a3e 0622 843d
00000040: 6c7b 34be 985e 033e 7d4b ba3c de79 a73c
00000050: 5cfe 31be 595f dbbc 5b97 eebd 699d 793b
00000060: 9234 713d 8a84 d5bd 140f ea3d 6488 8cbd
00000070: 7ef5 e73a c591 a73d 1000 183e 8a2e 05be
00000080: e787 a9bd 1042 ce3c b430 9b3e 3b40 083d
00000090: 1ed7 18be 5579 3abd 90ad 5ebd 66c2 a2bd
000000a0: b038 933d b13d aabd 8dec 933d d5bc 6abc
000000b0: 1a93 e43d 492c 46bd 71af 8fbd 1ad8 b3bd
000000c0: 0e42 9b3d 2b76 3e3e 40df ea3d 1096 e4bc
000000d0: 50a4 eebd a1b3 b5bc 0166 bfbb 85e8 e5ba
000000e0: 2d97 f43c 297f d5bd f8bb 423d 857b aa3d
000000f0: e32b 153e 9b98 58be 56e7 15bd ff14 093e
00000100: 98cc 06be 7772 093e 08b6 073e bc27 2dbc
00000110: 0171 04be ecab dd3b b278 9cbc 1543 e2bc
00000120: 9f31 843c b863 32be b874 143d d307 b2bd
00000130: ee9e 81bb 0929 ef3d b1a4 4fbd 2765 31be
00000140: 43f2 1e3e 8843 14bd ee52 b1bd 96c4 143d
00000150: bdbc ba3d 3d2b 2c3e aa9e 973c aa2f de3d
00000160: 82ce 223e 9785 1bbb b732 bfbc 1f4f b73b
00000170: b8b8 763d f786 083e ee8a 9dbd 5686 8abb
00000180: 5d6e 9a3d 3fb0 d03d aa01 17be 553c 9d3d
00000190: 4f5a 093e 98c0 79be 8a6e 13be dc8b c33c
000001a0: d6de 33bd 6b34 32be d51c 813e 654a b0bd
000001b0: 3521 803e 816f 433e 7e2f 4a3e 8cbd b83c
000001c0: e758 d53d 430d 963c 98b6 15be 57ff fd3d
000001d0: 080b 423d 567e 733e 9b22 6abe cacf 1c3e
000001e0: 474b e7bd 24e3 a7bd 18eb 7abe 90c4 1fbe
000001f0: 78c7 35be ee2c 83bd 881d 2a3d f768 953d
00000200: 6145 f1bd ed59 bdbc 323f fd3d 2fd4 3d3e
00000210: b925 8b3d f97a 003c cc54 833e b538 a1bc
00000220: 8131 3f3e f146 533d fae1 86bd d730 8dbd
00000230: 8f88 c83d 1449 e8bc 1925 28be d421 9e3d
00000240: 3529 b83c 091a 253e af80 083d 27cc 1e3e
00000250: 73e5 773e 6e04 fe3d a7ca 1b3d 9af0 dbbd
00000260: c09a 073e 5f1a b43d 204f 9b3c e4d5 15be
00000270: a4c0 63be 53d0 d93c 7000 91bd a5e3 9bbc
00000280: c16b 0dbe 5d9c 5abe 2ae0 17bd 4017 b1bd
00000290: 3618 223e c903 c6bc cd0c 953c 4061 2f3e
000002a0: c102 37be 0766 5fbe 0c3e 453e ad94 973d
000002b0: c493 833d 2916 f4bd b3b5 cb3d 211f 953e
000002c0: 2576 493e 5cb8 cebd 7026 0fbd 623a 593e
000002d0: 1d81 a63d 88f6 3e3d c874 08be fb20 cc3c
000002e0: 536f d4bd eebc 293d e42d 26be 1e2e 8cbd
000002f0: fa50 c9bc 157c 83bc 6a61 b2bd 601d c33d
00000300: 2c63 95be 24a3 893e ba4e 97bd 2356 043e
00000310: bd95 07bd 3595 aa3d 990f f4bd 403c d8bd
00000320: c48c 0b3e 8363 1e3e 30f8 d03d b50d 96be
00000330: cd09 be3c 9a38 af3d 42a3 823e 560e 50be
00000340: 604b 023e 23aa 12bd 0f64 53be d57e cbbc
00000350: 535b 343d e417 00be 6e3f 58bc 8012 2abe
00000360: 42f3 2abc 3d3d 17bd 80cf 35bd e7f3 8e3c
00000370: a9ad d6bd d40f 233c 8dcc d7bd d68b 8a3e
00000380: b17b fcbd 7d08 44bd feb6 7a3c 44d6 0f3e
00000390: 5fdd 013e 7d72 e8bd b5ee 823e 4901 b1bd
000003a0: 5631 cabd 5b7a 21be 36a1 12bc e6b0 17be
000003b0: cf11 353e c554 f3bd d018 c93d 2845 62bd
000003c0: 7768 283e 304a 2bbe 91f6 aebc e322 05be
000003d0: 23ac 063e 756b 803c a142 103e f7f0 50be
000003e0: 92c2 c5bd 312c 38bd 1956 8b3d c9e1 5ebe
000003f0: b6c8 b4bd 20ba 6ebd f936 a9bd fdbc 993e

ode_func.net.4.bias f4 [4]
0.017140936 0.02486147 -0.04181661 -0.076125115
00000000: 266b 8c3c 48aa cb3c e547 2bbd 7ce7 9bbd

decoder.fc1.weight f4 [25, 4]
-0.59758353 0.043648645 -0.46445227 -0.2533716 0.21283601 -0.4379976 0.33151147 0.39316955
0.50940317 0.38170013 -0.3926503 -0.039375033 0.25139672 0.5281312 -0.21859594 0.27682656
0.25015876 0.24766645 -0.44380778 0.410175 -0.52573144 0.14587103 0.016935395 0.174802
0.24240129 -0.32070354 0.06500261 -0.089858495 -0.4000923 0.32816017 -0.14083704 -0.4748562
0.24621943 -0.46066633 -0.40820894 -0.32282248 -0.2508785 -0.36819118 0.09765997 -0.083607405
-0.020981489 0.36325544 -0.48737782 0.005864762 -0.17491962 -0.3681812 -0.46391612 0.18754394
-0.71791583 -0.33113813 -0.19350207 0.27396566 0.7069596 0.16715214 0.22267948 -0.11074692
-0.17298119 0.11753106 -0.22859249 -0.13062178 -0.74660724 0.43325624 -0.018562244 -0.06696813
0.3719179 -0.36594883 -0.4767452 -0.018551067 0.65446216 -0.39074585 -0.21563464 0.24883024
0.44488075 -0.36298552 -0.42498967 -0.114025526 0.37382966 -0.047558147 -0.37456983 0.25398377
0.37410137 -0.034440786 -0.16497557 -0.026001869 -0.47051418 0.14306766 0.47448632 -0.33488628
0.33840778 0.21235241 0.09700858 -0.12696949 -0.21187463 0.4651441 -0.31316996 0.08207682
0.35612538 0.017597552 0.17021738 -0.042963907
00000000: 3cfb 18bf ecc8 323d b0cc edbe ecb9 81be
00000010: aff1 593e 3941 e0be dfbb a93e 854d c93e
00000020: 3f68 023f 336e c33e 7609 c9be b747 21bd
00000030: 12b7 803e 9b33 073f 9dd7 5fbe 36bc 8d3e
00000040: cf14 803e 469c 7d3e c63a e3be 7502 d23e
00000050: 5696 06bf 375f 153e 19bc 8a3c 4cff 323e
00000060: 0b38 783e 4133 a4be 1720 853d bb07 b8bd
00000070: e6d8 ccbe 9c04 a83e 9637 10be 5a20 f3be
00000080: f220 7c3e 75dc ebbe c300 d1be fd48 a5be
00000090: 2673 80be 8e83 bcbe f301 c83d 5c3a abbd
000000a0: 5fe1 abbc 9efc b93e 9689 f9be 302d c03b
000000b0: 211e 33be 3f82 bcbe 6a86 edbe 850b 403e
000000c0: 55c9 37bf f08a a9be 6825 46be 3a45 8c3e
000000d0: 4efb 343f ee29 2b3e 1706 643e 48cf e2bd
000000e0: fb21 31be 20b4 f03d 2614 6abe b7c1 05be
000000f0: a721 3fbf c3d3 dd3e d90f 98bc 9626 89bd
00000100: 066c be3e a55d bbbe f217 f4be 68f8 97bc
00000110: d58a 273f d70f c8be 54cf 5cbe 5bcd 7e3e
00000120: 69c7 e33e 3dd9 b9be 3f98 d9be 3786 e9bd
00000130: 9a66 bf3e 55cc 42bd 9ec7 bfbe 290a 823e
00000140: 378a bf3e c811 0dbd 5bef 28be df01 d5bc
00000150: 3ce7 f0be 5480 123e dfef f23e 3776 abbe
00000160: c943 ad3e e972 593e 6fac c63d 4a04 02be
00000170: aaf5 58be 5e27 ee3e d057 a0be e417 a83d
00000180: 1156 b63e be28 903c 774d 2e3e ecfa 2fbd

decoder.fc1.bias f4 [25]
0.28079063 -0.0018804417 0.3401963 -0.20306745 -0.23270196 0.4706724 0.11073129 -0.39615798
-0.5874097 0.15177351 0.42877865 0.361115 0.53527427 0.13427563 -0.18876044 0.5458376
0.115829445 0.36401477 -0.08008519 0.0045963125 0.23955165 0.49907652 -0.022933058 0.1483193
0.09699049
00000000: cac3 8f3e 2779 f6ba 362e ae3e eaf0 4fbe
00000010: 6c49 6ebe f9fb f03e 16c7 e23d 38d5 cabe
00000020: 7b60 16bf 846a 1b3e e088 db3e 11e4 b83e
00000030: bc07 093f 8d7f 093e 6b4a 41be 03bc 0b3f
00000040: fd37 ed3d 2560 ba3e b403 a4bd aa9c 963b
00000050: 074d 753e f586 ff3e 1cde bbbc 04e1 173e
00000060: f3a2 c63d

decoder.fc2.weight f4 [2, 25]
-0.044536736 0.23470509 -0.019430099 0.21365386 0.082144454 -0.10631958 -0.06615959 0.13990171
-0.13991396 0.17683102 -0.12764534 -0.09492453 0.034171224 0.033510707 -0.09459801 0.0079159895
-0.10607035 0.16550508 0.11165833 0.13675298 -0.1713871 -0.06650977 0.10619408 0.18439625
0.16387972 0.124626055 0.09171527 -0.17572106 -0.2606734 0.15747042 0.22632188 -0.15171345
-0.10878824 0.27398342 0.07117037 0.16942264 0.09715281 0.20812377 -0.22014219 -0.03499633
0.27295345 -0.24525186 -0.22976078 -0.19438109 -0.010632486 -0.18316604 0.15855253 -0.26177317
0.18768588 -0.23428899
00000000: 276c 36bd 8856 703e df2b 9fbc 14c8 5a3e
00000010: 5a3b a83d 14be d9bd ae7e 87bd 6542 0f3e
00000020: 9b45 0fbe 3113 353e 76b5 02be cb67 c2bd
00000030: 20f7 0b3d 8642 093d 9abc c1bd 11b2 013c
00000040: 693b d9bd 2a7a 293e 1fad e43d f908 0c3e
00000050: 1a80 2fbe 4636 88bd 487c d93d 5fd2 3c3e
00000060: 16d0 273e f23b ff3d 37d5 bb3d 39f0 33be
00000070: fc76 85be ed3f 213e ecc0 673e c55a 1bbe
00000080: 5ecc debd 8e47 8c3e c5c1 913d 217d 2d3e
00000090: 0df8 c63d 661e 553e f46c 61be 5058 0fbd
000000a0: 8ec0 8b3e 4e23 7bbe 6946 6bbe d60b 47be
000000b0: e133 2ebc e18f 3bbe 985b 223e 2207 86be
000000c0: ba30 403e 74e9 6fbe

decoder.fc2.bias f4 [2]
0.06354724 0.12529285
00000000: 0e25 823d c54c 003e
