Results/latent_ode.pth (torch, 28661 bytes, 14 tensors)

encoder.i2h.weight f4 [25, 27]
0.05882161 0.12499045 -0.20903726 0.114623256 0.15039194 -0.17505902 0.108133435 0.16126268
0.08353616 0.16780832 0.15788896 -0.25618708 0.22195202 0.07815313 0.17683277 -0.21453154
-0.13543789 0.0991903 -0.11817055 0.08664896 -0.11148756 -0.07945585 -0.031162739 0.09639093
-0.0056314687 0.08987447 -0.010634219 0.03769268 -0.11397 0.20674627 0.09290151 0.1613402
0.09480501 -0.11664204 -6.2819316e-05 -0.03137759 -0.10345002 -0.22667548 -0.046200037 -0.0861161
-0.014545283 -0.11931816 -0.16014595 -0.02221954 0.04891129 0.18442033 -0.098251946 0.055132266
-0.10889055 0.01742077 0.111009665 0.052108217 -0.119035766 -0.08036543 0.12711412 0.15954623
-0.18515635 -0.084960215 -0.07937398 0.14218113 0.0039416496 -0.15826584 -0.07155786 -0.123920955
0.12600435 0.08271927 0.10857022 0.22460389 0.0616818 0.095648214 -0.042899698 -0.20648503
0.085672945 -0.046799093 -0.118096314 -0.23202813 -0.058854513 0.12356059 -0.16829813 -0.1121644
0.08926359 0.06840025 0.11450742 -0.10576036 0.07435189 -0.027212152 -0.19899379 0.14926998
0.11529965 0.047314692 0.20537053 -0.1834699 -0.06803079 0.20645148 0.035464957 0.063552834
-0.15539572 0.047822773 -0.08449544 0.15222836 -0.09428496 -0.14324115 -0.10869501 0.0035648076
-0.065405354 0.07355947 -0.13960858 -0.08646567 -0.09693537 0.115422495 0.1366736 0.04713288
-0.124504276 0.07127513 -0.13581474 0.21209338 0.087396264 -0.058101375 -0.22500885 -0.057445966
-0.021709273 0.06504076 -0.059205357 -0.1895375 -0.06555318 0.04543114 0.0926742 0.0531467
-0.09954222 0.20549287 -0.071510196 0.023243256 -0.13731006 0.074038774 -0.11093935 0.067026205
-0.04526127 -0.029362189 -0.048521806 0.14684635 0.08982729 -0.1291813 -0.02009165 0.10153381
-0.017725468 0.020977402 0.059167292 0.029624067 -0.034700986 -0.09334411 -0.052785963 -0.12184451
0.11428703 0.08657038 0.025513547 0.19101308 -0.16453584 -0.064486615 -0.18627599 -0.09520912
-0.019533077 -0.12245632 0.008279721 -0.0047251577 0.08982666 0.14214116 0.15613155 -0.005278194
-0.08225096 -0.070647575 -0.08990801 -0.112152874 -0.21164012 -0.09085691 0.11941269 -0.13530476
0.09849711 0.17204706 -0.06258079 0.05991026 -0.11251104 -0.10482998 -0.06562162 -0.15057786
-0.17496213 0.051122338 -0.1770524 0.019556297 -0.008185036 0.050767355 0.089071676 -0.015970666
-0.17058183 -0.12897126 -0.045262624 0.074189946 -0.030265234 -0.08291178 -0.12079671 -0.12414287
0.08025016 0.1144 0.046964206 -0.078728475 0.06866793 0.1192828 -0.0349645 -0.07935498
-0.09499808 -0.15694495 -0.097544394 -0.15014952 -0.08117666 0.11251578 0.082106374 0.09833109
0.11180704 -0.08323517 -0.081388 0.070231274 -0.1261968 0.16114354 0.10787654 -0.08974768
-0.083867565 -0.12928233 0.18712628 -0.16161224 -0.09992506 0.066509224 -0.1694878 0.0066599348
0.14032984 -0.092155084 0.13055526 0.16508193 0.035932515 -0.013513974 0.07913588 0.0922041
0.026333438 -0.047168985 -0.17311159 -0.023443624 0.14578757 -0.039014112 0.13169526 -0.12240888
0.11988363 0.058972508 -0.19935048 -0.022955043 0.16338024 0.018323151 -0.09803372 0.051855605
00000000: eeee 703d fefa ff3d dd0d 56be 99bf ea3d
00000010: 5800 1a3e ac42 33be 1075 dd3d 0b22 253e
00000020: 0215 ab3d f2d5 2b3e a5ad 213e f42a 83be
00000030: 6447 633e c00e a03d a613 353e 28ae 5bbe
00000040: 3bb0 0abe 4924 cb3d 6703 f2bd 0375 b13d
00000050: 9753 e4bd c0b9 a2bd 0049 ffbc 9c68 c53d
00000060: 2f88 b8bb 1b10 b83d 263b 2ebc a463 1a3d
00000070: 1a69 e9bd 4bb5 533e 2643 be3d 5e36 253e
00000080: 2129 c23d 06e2 eebd ddbd 83b8 ca85 00bd
00000090: 9bdd d3bd 9e1d 68be 403c 3dbd a35d b0bd
000000a0: 574f 6ebc 145d f4bd 4dfd 23be c105 b6bc
000000b0: 3457 483d afd8 3c3e 5138 c9bd 5fd2 613d
000000c0: 0202 dfbd 01b6 8e3c 0959 e33d 6d6f 553d
000000d0: 06c9 f3bd a196 a4bd 342a 023e 1660 233e
000000e0: a099 3dbe 9fff adbd d38e a2bd ee97 113e
000000f0: f428 813b 7110 22be ed8c 92bd 45ca fdbd
00000100: 4907 013e b868 a93d 105a de3d 90fe 653e
00000110: 0ea6 7c3d 36e3 c33d 98b7 2fbd d070 53be
00000120: 4c75 af3d 68b0 3fbd 7bdc f1bd c898 6dbe
00000130: 6e11 71bd 560d fd3d 5856 2cbe 73b6 e5bd
00000140: d4cf b63d 6e15 8c3d de82 ea3d e398 d8bd
00000150: ce45 983d 05ec debc 07c5 4bbe 3bda 183e
00000160: 3922 ec3d 0dcd 413d a74c 523e 89df 3bbe
00000170: ba53 8bbd 0468 533e b443 113d fd27 823d
00000180: 0e20 1fbe d0e1 433d f20b adbd c0e1 1b3e
00000190: 7918 c1bd cfad 12be 7d9b debd 8c9f 693b
000001a0: 3ef3 85bd 59a6 963d 8df5 0ebe ea14 b1bd
000001b0: 0d86 c6bd a162 ec3d 2af4 0b3e 680e 413d
000001c0: 19fc febd b2f8 913d 0513 0bbe 022f 593e
000001d0: d0fc b23d b5fb 6dbd b868 66be 764c 6bbd
000001e0: a5d7 b1bc 1734 853d 5181 72bd 1e16 42be
000001f0: bf40 86bd 0116 3a3d f9cb bd3d 5bb0 593d
00000200: cbdc cbbd b96c 523e f073 92bd a468 be3c
00000210: 029b 0cbe a4a1 973d 2c34 e3bd 0945 893d
00000220: e263 39bd f988 f0bc cdbe 46bd e45e 163e
00000230: 5ff7 b73d 1a48 04be 3e97 a4bc f5f0 cf3d
00000240: 0035 91bc cdd8 ab3c 6759 723d 2cae f23c
00000250: 9f22 0ebd 322b bfbd 1836 58bd 9d89 f9bd
00000260: 520f ea3d d04b b13d c901 d13c ef98 433e
00000270: 157c 28be 8f11 84bd 22bf 3ebe 00fd c2bd
00000280: d503 a0bc 61ca fabd aba7 073c 7fd5 9abb
00000290: 0af7 b73d 748d 113e f3e0 1f3e b3f4 acbb
000002a0: 3173 a8bd adaf 90bd b121 b8bd 68b0 e5bd
000002b0: 30b8 58be 3013 babd a48e f43d 558d 0abe
000002c0: dab8 c93d 1b2d 303e 5b2a 80bd 7664 753d
000002d0: 306c e6bd 1ab1 d6bd a164 86bd 1531 1abe
000002e0: 4629 33be a865 513d 394d 35be 8734 a03c
000002f0: 871a 06bc 6ef1 4f3d 366b b63d ead4 82bc
00000300: 01ad 2ebe 0b11 04be 4d65 39bd e6f0 973d
00000310: ccee f7bc a7cd a9bd 4464 f7bd 9e3e febd
00000320: 325a a43d 8c4a ea3d 8a5d 403d 653c a1bd
00000330: c6a1 8c3d 8a4a f43d f036 0fbd dd84 a2bd
00000340: 5a8e c2bd 2db6 20be 5bc5 c7bd ccc0 19be
00000350: f33f a6bd ac6e e63d 6327 a83d cf61 c93d
00000360: 17fb e43d 3377 aabd c0ae a6bd 6ad5 8f3d
00000370: bc39 01be d002 253e 60ee dc3d a2cd b7bd
00000380: c2c2 abbd 9662 04be 089e 3f3e ae7d 25be
00000390: 83a5 ccbd fd35 883d 368e 2dbe 953b da3b
000003a0: a0b2 0f3e cebb bcbd 47b0 053e 3d0b 293e
000003b0: f92d 133d b769 5dbc fe11 a23d 81d5 bc3d
000003c0: 39b9 d73c 4434 41bd 2a44 31be d80c c0bc
000003d0: 5649 153e 43cd 1fbd 1fdb 063e 82b1 fabd
000003e0: 8c85 f53d 288d 713d 8822 4cbe 370c bcbc
000003f0: 264d 273e 6f1a 963c e7c5 c8bd 8b66 543d

encoder.i2h.bias f4 [25]
0.19897094 0.004228151 0.07714469 -0.09796219 -0.04384343 0.11041701 -0.17670889 -0.12334603
-0.093119025 0.03927958 0.059628922 -0.026037168 0.09003645 -0.008259524 0.14212412 -0.0051207105
-0.035392664 0.0047476604 -0.006812164 -0.039677568 -0.23469475 0.012109821 0.17631583 0.20506798
0.05516786
00000000: 0abf 4b3e 4d8c 8a3b 09fe 9d3d 67a0 c8bd
00000010: 2b95 33bd 5022 e23d 2df3 34be d89c fcbd
00000020: 30b5 bebd a0e3 203d 753d 743d e64b d5bc
00000030: 0865 b83d f452 07bc fc88 113e a2cb a7bb
00000040: e6f7 10bd 4392 9b3b 9338 dfbb f284 22bd
00000050: d253 70be 4568 463c 238c 343e 57fd 513e
00000060: b2f7 613d

encoder.h2o.weight f4 [8, 25]
0.1378641 0.13995624 0.10323663 -0.06881877 0.034377947 -0.010652161 -0.13402073 0.11667331
-0.06941326 0.15239781 0.17715652 -0.08854652 -0.029978564 -0.047106862 0.16953461 -0.11668331
0.0039752508 -0.16267288 0.07647178 -0.07228697 0.0062312274 -0.091419764 0.19309276 0.14138076
-0.017760832 -0.06515663 -0.011138993 -0.06528288 0.010887067 0.14204955 -0.08394182 -0.006575782
-0.048838682 0.025743011 -0.013198695 0.108303435 0.066658996 -0.15574238 0.126538 -0.096161
0.1382596 -0.23211333 0.10938018 -0.030155577 0.13456327 -0.117053 0.12960207 0.16138746
0.1938469 -0.044841085 -0.16302012 0.0055767167 0.051870245 -0.027875118 -0.13832067 0.1406304
0.042649228 0.21777871 0.06023535 0.15950306 0.122036 0.18708998 -0.060959924 -0.010288092
-0.09916616 0.15001209 -0.029302632 -0.16498028 -0.16024117 -0.1710841 0.12821549 0.06537623
-0.021247191 0.04326021 0.1433795 0.06491424 -0.13276106 -0.1555328 -0.13422027 -0.17248113
-0.06029314 0.10163031 -0.04174325 -0.024971245 -0.0102382535 0.0023563302 -0.057318635 -0.007617676
0.1290118 -0.09079769 0.15188427 0.04181178 0.14793122 0.17711818 -0.038837995 -0.17981467
0.17202775 -0.1107509 -0.0073438752 -0.06525645 0.06173282 0.07778955 -0.11189607 0.07154162
0.15251845 -0.052776787 0.020708695 -0.073581025 0.051108506 -0.10460009 -0.075508185 0.15089971
0.030877503 0.07519478 0.110744104 -0.09714227 0.09183499 0.08328032 -0.11554697 -0.06862685
-0.145845 0.11487057 0.027529417 0.08927733 0.049948573 0.10604648 -0.04084793 0.016512917
0.014647919 0.08173865 -0.17679977 -0.111051984 -0.100569464 0.067409605 -0.22217853 -0.09196664
0.08915853 0.14020166 -0.100033544 0.12678215 0.08555145 0.10841025 0.13384971 -0.026393944
-0.008112513 0.14158903 -0.075005315 -0.05664819 0.098736204 0.13337764 -0.036472443 0.15356988
-0.11221102 -0.086440794 0.110707484 0.03483659 0.077225335 0.042652085 -0.058506683 0.054407496
0.058110587 -0.09591222 -0.11086039 -0.0650287 0.014253377 0.14337012 0.043889727 -0.083827
0.043589637 0.08435328 -0.040507123 -0.100062884 0.088167146 -0.10397047 0.15553126 0.047240708
-0.06576449 -0.12682573 -0.19342929 -0.13657747 0.20822842 -0.042479582 0.10763408 -0.13927093
0.108787864 -0.023277534 0.015638933 0.13202628 -0.036745526 -0.07213945 0.013614473 0.0009221807
0.13530642 0.11623514 0.09548434 0.12269311 0.07581833 0.14294025 -0.11508056 0.113375336
00000000: 3f2c 0d3e b050 0f3e ba6d d33d dbf0 8cbd
00000010: e4cf 0c3d 6786 2ebc bb3c 09be 6bf2 ee3d
00000020: 8a28 8ebd 2c0e 1c3e 8568 353e e157 b5bd
00000030: 9b95 f5bc 20f3 40bd 7b9a 2d3e a9f7 eebd
00000040: d242 823b b893 26be 3d9d 9c3d 310b 94bd
00000050: 532f cc3b 493a bbbd 1cba 453e 1ec6 103e
00000060: 2a7f 91bc d770 85bd 5380 36bc 08b3 85bd
00000070: ab5f 323c 7075 113e b0e9 abbd a879 d7bb
00000080: 120b 48bd 02e3 d23c 573f 58bc 31ce dd3d
00000090: 8384 883d ee7a 1fbe 2d93 013e 0ff0 c4bd
000000a0: ed93 0d3e 1eaf 6dbe b702 e03d d408 f7bc
000000b0: f4ca 093e 7cb9 efbd 68b6 043e c142 253e
000000c0: cd7f 463e 49ab 37bd bfee 26be e4bc b63b
000000d0: e575 543d 5c5a e4bc efa3 0dbe 6a01 103e
000000e0: f5b0 2e3d 6201 5f3e 58b9 763d c554 233e
000000f0: 03ee f93d 8494 3f3e 1db1 79bd 638f 28bc
00000100: a117 cbbd c59c 193e 130c f0bc 97f0 28be
00000110: 4316 24be ac30 2fbe ec4a 033e f9e3 853d
00000120: 970e aebc 9e31 313d 13d2 123e c2f1 843d
00000130: 84f2 07be fe43 1fbe 0a71 09be e59e 30be
00000140: f1f5 76bd 8d23 d03d f8fa 2abd 7f90 ccbc
00000150: 59be 27bc a96c 1a3b f2c6 6abd b39d f9bb
00000160: ab1b 043e 24f4 b9bd 8d87 1b3e d442 2b3d
00000170: 487b 173e 785e 353e 9714 1fbd 5621 38be
00000180: 0b28 303e 5ed1 e2bd e4a4 f0bb 2ca5 85bd
00000190: 8edb 7c3d 2150 9f3d c429 e5bd 6a84 923d
000001a0: cc2d 1c3e 792c 58bd 48a5 a93c a6b1 96bd
000001b0: 2757 513d 9238 d6bd 09a4 9abd 7485 1a3e
000001c0: d1f2 fc3c b9ff 993d cecd e23d 87f2 c6bd
000001d0: fc13 bc3d df8e aa3d e4a3 ecbd 3c8c 8cbd
000001e0: 6458 15be 4341 eb3d 5f85 e13c 08d7 b63d
000001f0: e096 4c3d e62e d93d 2950 27bd 1946 873c
00000200: d3fd 6f3c 9866 a73d 000b 35be 396f e3bd
00000210: 5df7 cdbd 0c0e 8a3d c582 63be 0159 bcbd
00000220: bf98 b63d 0691 0f3e 63de ccbd 2ed3 013e
00000230: 9935 af3d 3106 de3d e60f 093e 1d38 d8bc
00000240: 59ea 04bc b7fc 103e 639c 99bd ef07 68bd
00000250: 3536 ca3d 2694 083e 2164 15bd 6c41 1d3e
00000260: e4ce e5bd df07 b1bd 9bba e23d d0b0 0e3d
00000270: 5128 9e3d f4b3 2e3d b4a4 6fbd 65da 5e3d
00000280: 5e05 6e3d a06d c4bd c60a e3bd c42d 85bd
00000290: ff86 693c 9ecf 123e b7c5 333d 7dad abbd
000002a0: 0c8b 323d 6ac1 ac3d ccea 25bd c5ed ccbd
000002b0: fa90 b43d 78ee d4bd 9643 1f3e 797f 413d
000002c0: 88af 86bd 9bde 01be 5412 46be f7da 0bbe
000002d0: d539 553e 12ff 2dbd 426f dc3d 0a9d 0ebe
000002e0: 2ccc de3d 87b0 bebc 381d 803c e631 073e
000002f0: 7a82 16bd d9bd 93bd 3d0f 5f3c 80be 713a
00000300: c48d 0a3e b00c ee3d 4b8d c33d 8646 fb3d
00000310: a446 9b3d ee5e 123e 5baf ebbd 5431 e83d

encoder.h2o.bias f4 [8]
-0.13780427 -0.050770737 0.045870498 -0.03624543 -0.07070084 0.002298749 -0.008314027 -0.031557273
00000000: 901c 0dbe faf4 4fbd b4e2 3b3d 1776 14bd
00000010: 9acb 90bd 9ca6 163b 8f37 08bc 3342 01bd

ode_func.net.0.weight f4 [64, 4]
-0.03469329 -0.00052711857 0.049685493 0.10876266 0.014609809 0.07597922 -0.002362188 -0.022241207
0.058759037 0.014687954 -0.047452215 0.030916175 0.05111453 -0.07118223 0.093113706 -0.032906216
0.22982673 -0.052474998 -0.11177805 0.0096117 0.034625158 0.10239889 0.046941068 -0.0820659
-0.21780099 0.060827967 0.11738077 0.123900004 -0.15387098 0.039750032 0.062306292 0.046228338
-0.1322903 -0.022100337 0.07231471 0.16247082 -0.016435163 0.050378986 -0.028853126 -0.058243833
0.028318517 0.107315406 0.035803754 0.12111572 0.023895903 0.08948372 -0.03505914 -0.08049178
0.16433175 -0.09524109 -0.052601017 -0.045107197 0.064491704 0.018742425 0.015067539 0.033082306
-0.20302396 -0.045203917 0.103554204 -0.13786064 0.051327154 -0.07115506 0.019309258 -0.09003351
0.03207372 -0.041674785 -0.21822295 -0.082260214 -0.0066942354 0.061292365 -0.043547295 -0.089007966
0.13021684 -0.008536875 0.004233433 -0.20757484 0.0067884116 -0.016980475 -0.05347729 0.039287027
0.026410412 -0.030931441 -0.20834164 -0.0017398926 0.024336416 -0.09338727 -0.021766618 0.15717053
-0.101699315 0.07043845 0.0032297682 0.1036302 0.0062642316 0.10059814 -0.16658477 -0.032644752
-0.0126248645 -0.043883104 0.020027138 0.10000637 -0.05481322 0.09543039 0.087731145 0.05503617
0.051304493 0.04159127 -0.046043985 -0.05904835 0.15306333 0.22587389 0.076116584 0.034229733
-0.18302636 -0.026677694 -0.03392322 -0.14024499 0.026887067 -0.0041427594 0.13689198 -0.1979325
-0.14894137 0.08870889 -0.1630882 -0.13731785 -0.0038519464 0.005944666 0.2213864 0.012210162
0.395821 0.10399028 -0.08780419 0.22787085 0.051492374 -0.05083884 0.06455871 -0.155634
0.13875014 -0.058186375 -0.103436306 0.03934333 0.098265745 0.00910467 -0.14529698 0.076138414
-0.19332436 -0.20569903 -0.029424049 0.0068017277 -0.13443074 0.14691505 0.04885478 -0.05003064
0.0564357 -0.023419 0.044882085 -0.05066027 -0.11192996 0.19343989 -0.0017067245 0.007136206
-0.10939576 0.028440284 0.1487403 -0.08114673 -0.10559882 0.11202478 0.09422762 -0.003390706
0.083311565 0.021242136 0.023355782 -0.08910359 0.02041359 0.05960955 -0.031041896 0.014097187
0.044806864 -0.046934426 -0.06391568 -0.060258973 -0.03312873 -0.052735765 0.08666864 -0.036622252
0.033040244 -0.072557405 0.08545488 -0.075822555 -0.010733608 -0.009642829 -0.34997553 -0.2547804
-0.12532471 -0.0019119612 0.03559272 -0.014573447 -0.03439358 0.019975977 0.13696365 -0.121952266
0.13033381 -0.08357626 0.077146195 0.2038052 -0.09382344 0.014156095 0.17865424 0.028601414
-0.016741943 0.03545944 -0.044902224 0.07641226 -0.3083127 -0.27431 -0.0860888 -0.040042244
0.1593578 -0.11283255 0.067207925 0.10488943 -0.1525777 0.06900102 -0.010940512 -0.020065943
0.27100557 0.070076175 -0.13318565 0.07247674 0.013364991 0.08801019 0.145983 0.064224936
0.020400455 -0.05713386 0.04237631 0.054528125 0.073975876 0.010434936 0.16986535 -0.023366533
-0.01487968 -0.0025519475 -0.06308916 0.028490873 0.03784589 -0.044529162 0.06802997 -0.008231066
-0.085803606 0.006755478 -0.024101226 -0.18227388 -0.0772704 0.075601906 0.00808155 0.015359241
00000000: 8d1a 0ebd 542e 0aba 0483 4b3d f5be de3d
00000010: fb5d 6f3c fe9a 9b3d f0ce 1abb 3133 b6bc
00000020: 51ad 703d bfa5 703c 415d 42bd eb43 fd3c
00000030: 785d 513d fdc7 91bd 66b2 be3d abc8 06bd
00000040: b357 6b3e 06f0 56bd e4eb e4bd 647a 1d3c
00000050: 1cd3 0d3d 82b6 d13d 4745 403d 2b12 a8bd
00000060: 3907 5fbe bf26 793d 5465 f03d 49bf fd3d
00000070: 5b90 1dbe eed0 223d e234 7f3d ed59 3d3d
00000080: 1c77 07be c40b b5bc bc19 943d c05e 263e
00000090: 09a3 86bc 325a 4e3d 645d ecbc 1691 6ebd
000000a0: 3cfc e73c 2ec8 db3d f5a6 123d 850b f83d
000000b0: 57c1 c33c 3e43 b73d 2c9a 0fbd e0d8 a4bd
000000c0: 9546 283e c30d c3bd 2a74 57bd 53c2 38bd
000000d0: 3a14 843d b789 993c d7dd 763c 5081 073d
000000e0: 83e5 4fbe be27 39bd 3a14 d43d 572b 0dbe
000000f0: 6c3c 523d beb9 91bd 732e 9e3c 7d63 b8bd
00000100: bc5f 033d 2eb3 2abd d675 5fbe 0b78 a8bd
00000110: 515b dbbb b40d 7b3d a65e 32bd cf49 b6bd
00000120: 9057 053e 40de 0bbc 9cb8 8a3b 808e 54be
00000130: 5371 de3b a31a 8bbc 010b 5bbd 6feb 203d
00000140: a65a d83c ef63 fdbc 8357 55be 1c0d e4ba
00000150: 2a5d c73c d341 bfbd e84f b2bc 50f1 203e
00000160: bb47 d0bd 0942 903d 85aa 533b 123c d43d
00000170: 2f44 cd3b 6606 ce3d 3395 2abe 81b6 05bd
00000180: 85d8 4ebc c5be 33bd f40f a43c 24d0 cc3d
00000190: d483 60bd 0271 c33d 63ac b33d 9b6d 613d
000001a0: a924 523d 9c5b 2a3d 9e98 3cbd afdc 71bd
000001b0: a2bc 1c3e 7c4b 673e 03e3 9b3d 7a34 0c3d
000001c0: 436b 3bbe 2e8b dabc 13f3 0abd 629c 0fbe
000001d0: 4442 dc3c fcbf 87bb 692d 0c3e d1ae 4abe
000001e0: 1684 18be 02ad b53d 9800 27be 0d9d 0cbe
000001f0: f070 7cbb 79cb c23b 1eb3 623e 220d 483c
00000200: 0da9 ca3e dbf8 d43d afd2 b3bd fa56 693e
00000210: abe9 523d 633c 50bd 5b37 843d 855e 1fbe
00000220: 8414 0e3e d654 6ebd 6ad6 d3bd 7926 213d
00000230: 8d3f c93d c12b 153c bbc8 14be 75ee 9b3d
00000240: d2f6 45be c4a2 52be b40a f1bc 07e1 de3b
00000250: 36a8 09be e670 163e f31b 483d eeec 4cbd
00000260: 1f29 673d 34d9 bfbc 47d6 373d 2581 4fbd
00000270: 893b e5bd 1b15 463e 2cb4 dfba d6d6 e93b
00000280: e20a e0bd 99fb e83c 614f 183e 4230 a6bd
00000290: 3244 d8bd 3f6d e53d 69fa c03d 9b36 5ebb
000002a0: 419f aa3d fd03 ae3c a054 bf3c f17b b6bd
000002b0: 673a a73c 2529 743d 934b febc e3f7 663c
000002c0: 6787 373d 503e 40bd 39e6 82bd 1dd2 76bd
000002d0: feb1 07bd 7501 58bd 547f b13d 3701 16bd
000002e0: 3555 073d fa98 94bd f802 af3d db48 9bbd
000002f0: 04dc 2fbc f5fc 1dbc fe2f b3be 9472 82be
00000300: 1f55 00be c69a faba acc9 113d 78c5 6ebc
00000310: 48e0 0cbd a9a4 a33c 3340 0c3e 1cc2 f9bd
00000320: 3a76 053e 082a abbd d3fe 9d3d 4fb2 503e
00000330: 8126 c0bd f7ee 673c 23f1 363e 834d ea3c
00000340: 6626 89bc eb3d 113d 65eb 37bd 087e 9c3d
00000350: 2adb 9dbe 5c72 8cbe 534f b0bd 5603 24bd
00000360: b12e 233e c114 e7bd 4fa4 893d 45d0 d63d
00000370: 543d 1cbe 6850 8d3d d53f 33bc 5561 a4bc
00000380: 3ec1 8a3e 1984 8f3d d261 08be af6e 943d
00000390: d6f8 5a3c b03e b43d 917c 153e 5d88 833d
000003a0: db1e a73c 3205 6abd c892 2d3d e258 5f3d
000003b0: aa80 973d 4bf7 2a3c 2ff1 2d3e 2c6b bfbc
000003c0: e7c9 73bc 933e 27bb e434 81bd b165 e93c
000003d0: 4b04 1b3d 3664 36bd 4c53 8b3d 98db 06bc
000003e0: cdb9 afbd 0f5d dd3b ef6f c5bc 01a6 3abe
000003f0: f23f 9ebd 2cd5 9a3d 7a68 043c 53a5 7b3c

ode_func.net.0.bias f4 [64]
0.0030723352 -0.10489374 0.028216252 -0.08092397 -0.03273158 -0.045261152 -0.05946503 0.05738752
0.026627913 0.0005117915 -0.0607852 -0.15003155 0.081104495 -0.22226052 0.05256656 0.006070096
-0.0018043645 -0.059482075 -0.03134391 -0.15981998 -0.09000853 -0.004071239 -0.0347659 -0.079458244
-0.19027646 0.05220772 -0.06752241 0.075777635 0.013537041 0.08132382 -0.086639404 0.056767274
-0.057930846 -0.025117459 0.15633875 -0.07926725 -0.044565674 0.13442917 0.0151093565 -0.032063883
0.03348168 -0.14903152 0.033194236 -0.10077632 -0.011210899 -0.06395564 -0.03805168 0.04357119
0.121162236 -0.06749409 -0.11555839 0.08089413 -0.054003272 -0.05726226 -0.10062633 -0.001094701
0.16838335 -0.15697919 0.08864219 0.005523623 -0.14874057 -0.08094958 0.10096282 0.06674556
00000000: 3b59 493b 87d2 d6bd c525 e73c 77bb a5bd
00000010: 8d11 06bd c263 39bd 9a91 73bd 2d0f 6b3d
00000020: c822 da3c bf29 063a e7f9 78bd dfa1 19be
00000030: 1d1a a63d 4398 63be 0950 573d a8e7 c63b
00000040: 6d80 ecba 7aa3 73bd 7962 00bd d9a7 23be
00000050: 6456 b8bd 0768 85bb b066 0ebd 01bb a2bd
00000060: d5d7 42be c3d7 553d 3049 8abd 4e31 9b3d
00000070: 77ca 5d3c 1a8d a63d 0070 b1bd cd84 683d
00000080: e548 6dbd 21c3 cdbc 4417 203e de56 a2bd
00000090: 7f8a 36bd cda7 093e 3c8d 773c 6b55 03bd
000000a0: 1624 093d b89b 18be aef6 073d d163 cebd
000000b0: ebad 37bc 2dfb 82bd 14dc 1bbd b477 323d
000000c0: e823 f83d 573a 8abd e1a9 ecbd d2ab a53d
000000d0: 8932 5dbd d58b 6abd 2d15 cebd 127c 8fba
000000e0: af6c 2c3e 27bf 20be 098a b53d 82ff b43b
000000f0: 734f 18be e5c8 a5bd 98c5 ce3d e5b1 883d

ode_func.net.2.weight f4 [64, 64]
-0.0029286675 -0.22537985 -0.17672655 0.11579218 -0.0031923763 0.038450208 -0.042919938 0.072190285
0.04545688 -0.09745879 -0.123607606 0.010819598 0.08542513 -0.23565862 -0.27291447 -0.0347762
-0.08833596 -0.078908145 -0.060860265 -0.22951977 -0.023796925 -0.081280276 0.14316815 0.028701134
-0.12354978 -0.05158091 -0.045224577 -0.072289094 0.050725468 -0.07198713 -0.119223334 0.035730496
0.06292734 -0.06455379 0.019615693 -0.19528198 0.009522189 0.11297088 0.00018120836 -0.1563811
0.20150016 -0.13487066 0.18165886 0.056552775 0.004866117 -0.09530281 -0.004439213 -0.082913294
0.16867226 0.038219847 -0.07258675 -0.015509121 0.012315364 -0.051560637 0.07715613 -0.044591114
-0.053650055 -0.07090772 0.051478308 -0.095547855 -0.09291152 0.016523026 -0.07194956 0.05429774
-0.022758562 -0.006792125 -0.14244282 -0.0009385555 0.06461764 0.04720883 0.111711465 0.12868132
0.062165733 0.06576264 -0.044379603 -0.121610545 0.03172647 -0.11835978 -0.07707386 -0.025330165
-0.087245375 0.00679648 0.02920019 -0.06441712 -0.06098111 0.10232732 0.1562992 -0.020050304
-0.14176555 0.16734618 -0.13499336 -0.01650896 -0.009929158 0.05653962 -0.06687254 0.15800972
-0.028763756 0.15783548 0.13697541 -0.10358243 -0.03039452 -0.07130541 0.09175123 0.2530803
0.050864413 -0.0073439297 0.13670468 0.020320931 0.27153608 0.12313582 0.043179736 0.08615117
-0.0328691 -0.128742 -0.003287342 0.18606961 -0.06877349 -0.2014619 0.116913386 -0.08750352
0.19606198 0.0203977 0.1568253 -0.0042690774 -0.13973986 -0.059471156 -0.00028953658 -0.0799906
-0.10466498 -0.0669394 0.07883095 -0.087633565 -0.06159488 0.04048626 -0.125317 -0.09002869
-0.07689673 0.1084019 -0.097047225 -0.14321066 0.22481576 -0.126974 -0.0035085268 -0.014009768
0.18127863 -0.12193854 -0.052209117 -0.12092104 -0.09193361 -0.033803668 0.1519335 -0.005690034
0.042317662 -0.064797 -0.19718003 0.0012702091 0.118464835 0.037818275 0.00068684964 0.04233138
0.09502616 0.18822512 0.12988502 -0.15433653 -0.12969941 0.011281842 -0.03853473 -0.027364524
0.03505036 -0.087448336 -0.12924983 -0.087984264 -0.098395675 -0.04710248 -0.08535725 0.03069648
0.13106632 -0.071979456 -0.0035281896 0.027063677 0.047266226 -0.012658443 -0.042133156 0.064049214
0.08580311 -0.043981224 0.13296957 -0.035104144 -0.16766933 0.056479968 0.1179108 0.013767374
0.10952516 -0.01419042 -0.07636087 -0.031051373 -0.015593181 0.026931347 0.11333389 -0.11186615
0.06495766 0.021306777 0.027211376 -0.18117957 -0.17019692 0.13196447 -0.072398104 0.04601985
0.0011577179 -0.16697925 -0.09531507 0.060724303 -0.075853005 0.089028426 0.11220194 -0.061013974
0.025945663 0.15666302 -0.16507621 -0.018490624 -0.021462478 0.008414166 0.113605075 0.010984106
-0.00020003378 -0.034714513 -0.013537774 -0.021347778 -0.06333665 0.061453354 -0.05424488 0.012927849
0.083729826 0.04538202 -0.03703621 0.034678604 -0.13466121 -0.015440764 0.14143896 -0.17065889
0.009939307 -0.15923953 -0.03171387 0.17255095 0.019052584 -0.020507228 0.15213794 0.13183199
0.08290242 0.048965123 0.2936027 0.04878444 0.10670895 0.051030323 0.03196261 0.22735862
00000000: e3ee 3fbb fac9 66be cef7 34be 7324 ed3d
00000010: 3037 51bb f77d 1d3d d1cc 2fbd 80d8 933d
00000020: fe30 3a3d 7998 c7bd fc25 fdbd af44 313c
00000030: 5ff3 ae3d 7e50 71be 72bb 8bbe 7d71 0ebd
00000040: 7ce9 b4bd 989a a1bd 9d48 79bd 3b07 6bbe
00000050: c5f1 c2bc 4676 a6bd ac9a 123e a41e eb3c
00000060: ab07 fdbd 8146 53bd 683d 39bd 4e0c 94bd
00000070: 82c5 4f3d fd6d 93bd 5d2b f4bd 245a 123d
00000080: 0de0 803d c734 84bd 17b1 a03c 00f8 47be
00000090: f502 1c3c 475d e73d c002 3e39 5e22 20be
000000a0: 0f56 4e3e 891b 0abe c804 3a3e e2a3 673d
000000b0: f373 9f3b 1f2e c3bd d176 91bb 72ce a9bd
000000c0: 6cb8 2c3e 6a8c 1c3d 5da8 94bd f819 7ebc
000000d0: 61c6 493c 3f31 53bd 0804 9e3d 2ca5 36bd
000000e0: 29c0 5bbd 1138 91bd ebda 523d 98ae c3bd
000000f0: 6548 bebd 4c5b 873c 4a5a 93bd 4f67 5e3d
00000100: 2a70 babc 7990 debb 88dc 11be 6509 76ba
00000110: 4156 843d 0c5e 413d fbc8 e43d 09c5 033e
00000120: 7fa1 7e3d 90ae 863d 63c7 35bd f30e f9bd
00000130: 9df3 013d 9d66 f2bd e6d8 9dbd 3581 cfbc
00000140: b4ad b2bd 02b5 de3b 3d35 ef3c 1fed 83bd
00000150: 54c7 79bd fc90 d13d e60c 203e 8940 a4bc
00000160: fd2a 11be cc5c 2b3e b33b 0abe cc3d 87bc
00000170: e8ad 22bc 1796 673d 78f4 88bd 4dcd 213e
00000180: f8a1 ebbc a09f 213e 4843 0c3e 0623 d4bd
00000190: eefd f8bc 9208 92bd 12e8 bb3d be93 813e
000001a0: 3457 503d 59a5 f0bb 50fc 0b3e 1578 a63c
000001b0: c706 8b3e a22e fc3d 3cdd 303d 0670 b03d
000001c0: c0a1 06bd f1d4 03be 7270 57bb 0889 3e3e
000001d0: 1ed9 8cbd 074c 4ebe 4970 ef3d 0c35 b3bd
000001e0: 79c4 483e 1419 a73c d096 203e 9ee3 8bbb
000001f0: f717 0fbe 0798 73bd f1cc 97b9 1dd2 a3bd
00000200: 985a d6bd 8617 89bd 1f72 a13d 3a79 b3bd
00000210: ea4a 7cbd ecd4 253d 1a53 00be f660 b8bd
00000220: 087c 9dbd d101 de3d b2c0 c6bd d1a5 12be
00000230: 1a36 663e 7905 02be 50ef 65bb 3a89 65bc
00000240: 1ba1 393e eaba f9bd 3ad9 55bd 73a5 f7bd
00000250: b047 bcbd b775 0abd 7594 1b3e 7773 babb
00000260: 4955 2d3d 4ab4 84bd 90e9 49be 257d a63a
00000270: b19d f23d 56e7 1a3d b30d 343a ab63 2d3d
00000280: 139d c23d 16be 403e 9400 053e 650a 1ebe
00000290: eccf 04be 7ad7 383c 98d6 1dbd 912b e0bc
000002a0: f790 0f3d 1d18 b3bd 115a 04be 1831 b4bd
000002b0: ac83 c9bd 88ee 40bd c8cf aebd 2f77 fb3c
000002c0: 4036 063e f769 93bd 3339 67bb a5b4 dd3c
000002d0: 3b9a 413d 5c65 4fbc d193 2cbd 3c2c 833d
000002e0: 8ab9 af3d a825 34bd 2d29 083e 5dc9 0fbd
000002f0: 82b1 2bbe 8a57 673d 387b f13d 8d90 613c
00000300: ba4e e03d ef7e 68bc 1663 9cbd 735f febc
00000310: 8b7a 7fbc 219f dc3c 991b e83d 141a e5bd
00000320: 8608 853d 8d8b ae3c 64ea de3c 2387 39be
00000330: 1a48 2ebe b221 073e 7545 94bd 4f7f 3c3d
00000340: 91be 973a 9cfc 2abe 8c34 c3bd 0cba 783d
00000350: d258 9bbd 8954 b63d 21ca e53d cae9 79bd
00000360: 008c d43c 456c 203e bd09 29be a679 97bc
00000370: 14d2 afbc 92db 093c c7a9 e83d aef6 333c
00000380: 29c0 51b9 ce30 0ebd 8acd 5dbc 89e1 aebc
00000390: a5b6 81bd 83b6 7b3d e12f 5ebd 54cf 533c
000003a0: 8b7a ab3d 7fe2 393d 48b3 17bd 270b 0e3d
000003b0: a1e4 09be 42fb 7cbc 60d5 103e 34c1 2ebe
000003c0: 7ad8 223c b00f 23be 67e6 01bd 32b1 303e
000003d0: 2a14 9c3c c6fe a7bc 0cca 1b3e f7fe 063e
000003e0: bec8 a93d a78f 483d 1853 963e 31d2 473d
000003f0: 398a da3d 2c05 513d 3aeb 023d b3d0 683e

ode_func.net.2.bias f4 [64]
0.11586425 0.080574274 0.040835086 0.03600603 0.01685369 -0.07594358 0.018190432 -0.025331942
-0.063682996 -0.066124365 0.06016872 -0.018766906 0.084499374 -0.044031274 0.001059108 -0.064782254
0.06943923 0.064460374 -0.105860785 0.0825987 -0.13034157 0.08465523 0.030199453 -0.066959605
0.0019447316 0.022948401 0.0041155955 0.09773388 -0.045927767 0.043044366 -0.00905314 0.0760076
0.009222739 -0.036332045 0.051416636 0.12943238 0.1266183 0.099489056 0.028638015 -0.081829116
-0.013217148 -0.05147741 -0.025127564 -0.15235066 -0.039151262 -0.09701002 0.0108056255 -0.024266357
0.026102735 0.060685053 0.05048079 0.059104588 0.020707807 -0.004426591 -0.004738957 0.10666353
0.0636384 -0.028562762 -0.016452905 0.035768572 0.014798058 0.06984561 0.034523573 0.0038089205
00000000: 3c4a ed3d 2004 a53d b142 273d 0f7b 133d
00000010: c010 8a3c 4f88 9bbd 1a04 953c ef84 cfbc
00000020: 3b6c 82bd 366c 87bd 7a73 763d 0ebd 99bc
00000030: 020e ad3d 235a 34bd c4d1 8a3a 8fac 84bd
00000040: 2836 8e3d cd03 843d 8acd d8bd 8229 a93d
00000050: 4378 05be b95f ad3d d864 f73c 1e22 89bd
00000060: 5de6 fe3a 49fe bb3c 1edc 863b b328 c83d
00000070: c11e 3cbd 4a4f 303d 9f53 14bc dfa9 9b3d
00000080: f91a 173c e9d0 14bd 409a 523d ec89 043e
00000090: 3aa8 013e ebc0 cb3d 459a ea3c 0696 a7bd
000000a0: bd8c 58bc fad9 52bd 52d8 cdbc d001 1cbe
000000b0: 135d 20bd 30ad c6bd 140a 313c 3dca c6bc
000000c0: 67d5 d53c e490 783d f2c4 4e3d a717 723d
000000d0: 6ba3 a93c f00c 91bb 4149 9bbb 6972 da3d
000000e0: d954 823d 74fc e9bc 3ec8 86bc 1182 123d
000000f0: 8e73 723c 370b 8f3d 9768 0d3d 159f 793b

ode_func.net.4.weight f4 [4, 64]
-0.10224596 -0.0981945 -0.04416931 -0.044192802 0.19691524 0.10719975 0.04257579 0.1135765
0.102895886 -0.064232714 0.07622607 -0.016876629 -0.020255974 -0.11872316 -0.11901861 0.037917998
-0.16131885 -0.10375121 0.10215832 -0.02514948 0.02764165 -0.08746327 0.12573148 -0.12730595
0.10169164 -0.03585418 -0.07123482 0.020452049 0.063265346 -0.17671971 -0.077518985 -0.11577953
0.02033459 -0.14480531 -0.015558346 -0.045727424 -0.067136824 -0.09038782 -0.10557056 -0.07482183
0.014124144 0.03027327 -0.009770922 0.051897515 0.34116098 0.0379852 -0.15033159 0.115175605
0.059604194 -0.0028982454 -0.049930196 -0.023657594 0.017724305 -0.006493776 0.07727018 -0.10032712
0.12631866 -0.094483316 0.046608105 0.0151107935 -0.18318082 -0.00345992 0.0077836327 0.1785589
0.08296097 0.123489656 -0.030987883 0.15154837 0.0408204 -0.16578107 0.12527086 -0.007433507
-0.13909951 -0.20450604 0.06103747 -0.07356088 0.0576659 -0.09706636 0.09272061 -0.034259524
0.10436114 0.15071659 -0.21902421 0.23911774 -0.022805722 0.077845655 0.31309816 -0.18996848
0.025904814 -0.087682255 0.0067885164 0.1707474 -0.13834117 0.11110361 0.030631412 -0.0057297507
0.22541592 -0.06054321 0.26943585 0.12726916 0.1279098 0.046936914 -0.107885696 -0.14730059
-0.102189206 -0.15930653 -0.04459422 -0.031497743 -0.007873973 -0.09016759 -0.03498045 0.050285608
0.02731395 0.09554893 0.16210783 0.023897495 0.11580205 -0.03550974 0.025218034 0.03464565
0.1760631 -0.11583205 -0.17813103 0.24088927 0.044951998 0.023832284 -0.045289688 0.22764242
0.10768436 0.050829884 0.09931733 -0.111460716 -0.07621469 -0.04425522 0.10714722 0.24854352
-0.017758332 -0.04246102 -0.025343925 0.079929836 -0.1033916 -0.033970956 0.1070375 -0.1323886
0.026464365 -0.1967551 -0.17727323 0.1790558 -0.097851425 0.08784776 0.07188974 -0.015700785
0.16370319 0.1394402 -0.14090747 0.14878114 -0.114994176 -0.12037352 -0.040354475 0.11306348
-0.22666448 -0.0977933 -0.08539744 0.040107347 0.09187951 0.041830778 0.021738429 -0.097454965
0.027652446 -0.061251406 0.0855496 -0.24930662 0.073278174 -0.14051688 -0.023981921 0.070893556
-0.15150575 0.16633323 -0.18016306 -0.08067551 0.13384767 -0.060399033 0.09063476 0.010738384
-0.07505499 0.09968947 0.05063673 -0.035979602 0.075372584 0.11272548 0.318329 0.0019846167
0.16596922 0.0868118 0.08274252 0.011073562 0.16354045 -0.14728586 -0.08207326 -0.10606878
-0.07577924 -0.043379962 0.27650803 0.034400437 0.27733612 -0.06715295 -0.19721301 -0.013999561
0.12159973 0.17658 -0.21260661 0.12468326 -0.12502502 0.10016963 -0.08182622 -0.043759037
0.0066479207 0.092387125 0.02369365 0.12241055 -0.010602455 0.032331444 -0.07126466 0.15250523
-0.113034755 -0.13160557 0.043003358 0.17734241 0.17804223 0.11548929 0.24558192 -0.043434087
0.051595315 -0.006115091 -0.0021255007 -0.16350034 -0.068166085 -0.14779283 0.06790543 -0.052701328
0.23015134 0.027871883 0.09324595 0.15300344 -0.03166648 0.10547975 0.043048892 0.19472949
0.056364145 0.010153577 0.12194287 -0.014245179 -0.06801515 0.046935506 0.119348966 -0.18279912
00000000: 5466 d1bd 331a c9bd e1ea 34bd 8303 35bd
00000010: 26a4 493e 8b8b db3d f463 2e3d cc9a e83d
00000020: 14bb d23d 718c 83bd 6a1c 9c3d db40 8abc
00000030: dbef a5bc 2125 f3bd 07c0 f3bd e74f 1b3d
00000040: c530 25be 847b d4bd 6238 d13d 4806 cebc
00000050: be70 e23c f11f b3bd c1bf 003e 7e5c 02be
00000060: b543 d03d d5db 12bd 90e3 91bd 0e8b a73c
00000070: 4391 813d 03f6 34be 46c2 9ebd d11d edbd
00000080: ba94 a63c d847 14be 6fe8 7ebc ae4c 3bbd
00000090: 087f 89bd 401d b9bd 6135 d8bd 303c 99bd
000000a0: f468 673c a6ff f73c 3816 20bc 7d92 543d
000000b0: a7ac ae3e 5e96 1b3d 86f0 19be 30e1 eb3d
000000c0: 8723 743d 7df0 3dbb 9b83 4cbd 92cd c1bc
000000d0: 9032 913c bec9 d4bb d43f 9e3d 4e78 cdbd
000000e0: ae59 013e 7880 c1bd 24e8 3e3d 4393 773c
000000f0: c193 3bbe d3bf 62bb d80d ff3b 25d8 363e
00000100: 71e7 a93d 25e8 fc3d 4dda fdbc 7f2f 1b3e
00000110: 4b33 273d 83c2 29be 0147 003e c794 f3bb
00000120: 1a70 0ebe 086a 51be 6d02 7a3d 16a7 96bd
00000130: 1433 6c3d baca c6bd 4ee4 bd3d b753 0cbd
00000140: 4bbb d53d 7355 1a3e e247 60be 48db 743e
00000150: 11d3 babc 8b6d 9f3d 674e a03e 1987 42be
00000160: 5536 d43c c192 b3bd 3472 de3b 68d8 2e3e
00000170: 4fa9 0dbe 4a8a e33d baee fa3c a2c0 bbbb
00000180: 6ed3 663e 28fc 77bd 7ff3 893e d952 023e
00000190: c9fa 023e ec40 403d 2df3 dcbd f7d5 16be
000001a0: 9348 d1bd 4021 23be 6ea8 36bd c703 01bd
000001b0: d601 01bc c9a9 b8bd a947 0fbd 48f8 4d3d
000001c0: 81c1 df3c 28af c33d 98ff 253e aec4 c33c
000001d0: a029 ed3d a972 11bd 0d96 ce3c 99e8 0d3d
000001e0: e349 343e 5b39 edbd fb67 36be adab 763e
000001f0: 961f 383d ec3b c33c ae81 39bd 181b 693e
00000200: 9e89 dc3d ff32 503d e266 cb3d 8445 e4bd
00000210: 7316 9cbd f644 35bd 0070 db3d 3182 7e3e
00000220: ec79 91bc 9beb 2dbd 109e cfbc 41b2 a33d
00000230: fabe d3bd 2125 0bbd 7a36 db3d e190 07be
00000240: cccb d83c 2b7a 49be 1d87 35be 675a 373e
00000250: 5466 c8bd 87e9 b33d ee3a 933d ef9e 80bc
00000260: cfa1 273e 69c9 0e3e 0c4a 10be 155a 183e
00000270: 1182 ebbd 6486 f6bd bc4a 25bd d38d e73d
00000280: bc1a 68be db47 c8bd dae4 aebd 9a47 243d
00000290: 532b bc3d c056 2b3d ca14 b23c 7896 c7bd
000002a0: 6287 e23c c1e2 7abd a134 af3d 3c4a 7fbe
000002b0: de12 963d a8e3 0fbe bc75 c4bc a430 913d
000002c0: 5324 1bbe 4253 2a3e aa7c 38be 3439 a5bd
000002d0: 5d0f 093e fa64 77bd b89e b93d 0cf0 2f3c
000002e0: 6eb6 99bd fe29 cc3d 7668 4f3d 595f 13bd
000002f0: f15c 9a3d 9edc e63d 05fc a23e 5810 023b
00000300: d6f3 293e 63ca b13d e974 a93d e36d 353c
00000310: 2677 273e 1bd2 16be 0616 a8bd 973a d9bd
00000320: 2532 9bbd 30af 31bd 7692 8d3e 79e7 0c3d
00000330: 00ff 8d3e 7c87 89bd 35f2 49be 6a5e 65bc
00000340: 4709 f93d 63d1 343e 8cb5 59be f059 ff3d
00000350: 8f06 00be bc25 cd3d 8194 a7bd ad3c 33bd
00000360: cdd6 d93b 7635 bd3d 2f19 c23c 62b2 fa3d
00000370: ebb5 2dbc fa6d 043d 35f3 91bd 552a 1c3e
00000380: c47e e7bd 9cc3 06be 4a24 303d 4099 353e
00000390: b450 363e a685 ec3d d479 7b3e f1e7 31bd
000003a0: 9c55 533d 1a61 c8bb fc4b 0bbb a26c 27be
000003b0: a99a 8bbd 0157 17be 0112 8b3d 59dd 57bd
000003c0: cbac 6b3e 9353 e43c bcf7 be3d efac 1c3e
000003d0: b6b4 01bd c405 d83d 0954 303d 2b67 473e
000003e0: 17de 663d 305b 263c 2fbd f93d 9c64 69bc
000003f0: 874b 8bbd 723f 403d 3b6d f43d b12f 3bbe

ode_func.net.4.bias f4 [4]
-0.020901011 0.050588198 0.004212578 0.059926957
00000000: 9938 abbc 9235 4f3d aa09 8a3b f875 753d

decoder.fc1.weight f4 [20, 4]
0.11521671 -0.28141835 -0.5081469 -0.45310518 -0.075233504 -0.3641786 0.32663247 -0.24771804
0.11098552 0.09947128 -0.30493462 -0.16814744 0.09107808 0.04864204 -0.36969775 0.32481062
-0.34398505 -0.119987145 -0.3035764 0.42572036 0.13104554 -0.006687717 0.486997 -0.04886373
-0.23883703 -0.04958825 -0.060852353 0.17424162 0.34769574 -0.28226385 -0.022298042 -0.35036317
0.2878877 -0.11588322 0.2844035 0.26196194 -0.5036796 0.1991148 -0.11670658 -0.3799091
0.3777395 -0.24283257 0.1344279 0.52638537 0.49792844 0.08987203 -0.22165585 0.072167866
-0.45067835 0.1875415 -0.12192633 0.31924495 -0.009884097 -0.22543454 -0.3972207 0.15883106
0.028694106 0.026464362 0.4422045 -0.40767148 -0.4390727 0.17933892 -0.37345314 0.31968305
0.40786168 -0.2839725 0.12850903 0.53748816 0.05025506 0.15058891 -0.45362276 0.1438694
-0.40884027 0.0035492668 -0.5338349 0.20036757 0.36260188 0.3848752 0.118020095 -0.46983632
00000000: bdf6 eb3d 1116 90be ea15 02bf 67fd e7be
00000010: 0614 9abd 9e75 babe 5f3c a73e cca9 7dbe
00000020: 604c e33d 99b7 cb3d 6420 9cbe d82e 2cbe
00000030: 2587 ba3d e03c 473d 0649 bdbe 944d a63e
00000040: cf1e b0be d2bb f5bd 5e6e 9bbe 05f8 d93e
00000050: cd30 063e a324 dbbb ac57 f93e 5625 48bd
00000060: b291 74be 0d1d 4bbd 5140 79bd 656c 323e
00000070: 2d05 b23e e384 90be 62aa b6bc cd62 b3be
00000080: 0466 933e 2f54 edbd 569d 913e e01f 863e
00000090: 25f1 00bf c0e4 4b3e dc03 efbd 7283 c2be
000000a0: 1267 c13e 1aa9 78be 78a7 093e 31c1 063f
000000b0: 7af0 fe3e d40e b83d c0f9 62be bfcc 933d
000000c0: 50bf e6be e10a 403e 83b4 f9bd 1374 a33e
000000d0: e8f0 21bc 50d8 66be 8360 cbbe 9ca4 223e
000000e0: e70f eb3c cacb d83c a168 e23e 51ba d0be
000000f0: 23ce e0be 9fa4 373e 4035 bfbe 7fad a33e
00000100: 3fd3 d03e d864 91be df97 033e d398 093f
00000110: 40d8 4d3d fb33 1a3e 3e41 e8be 8052 133e
00000120: 8353 d1be d19a 683b 67a9 08bf 282d 4d3e
00000130: f4a6 b93e 5d0e c53e 85b4 f13d 638e f0be

decoder.fc1.bias f4 [20]
0.4666755 0.18215738 -0.06894933 -0.07715652 0.2131576 0.14789927 -0.14244772 0.29685122
0.28215894 0.33835268 -0.19747953 0.40222698 -0.26695892 -0.21774922 0.19859616 0.20062959
0.26422927 -0.15813114 -0.020948336 -0.4976047
00000000: 17f0 ee3e 7787 3a3e 4e35 8dbd 3d04 9ebd
00000010: fc45 5a3e e872 173e d1dd 11be e2fc 973e
00000020: 2377 903e 903c ad3e 1338 4abe b2f0 cd3e
00000030: d7ae 88be a7f9 5ebe cb5c 4b3e d871 4d3e
00000040: 0f49 873e 21ed 21be d89b abbc 0bc6 febe

decoder.fc2.weight f4 [2, 20]
0.09062433 0.008852764 0.13185419 -0.078638576 0.112146564 -0.024678437 -0.19957016 -0.0017020082
0.13197649 0.096155904 -0.022508902 0.1312267 0.07410737 -0.12022568 0.20248917 -0.20879447
-0.065801196 -0.03487501 0.26856643 -0.07977865 -0.20384358 -0.078723945 -0.012307767 0.02716838
0.26135612 -0.174377 0.114410624 0.011260679 -0.1483256 -0.13098428 -0.108847365 0.061640736
0.109321274 -0.21138598 -0.13913865 -0.05941359 -0.14675808 -0.031271797 -0.21682669 -6.228564e-05
00000000: 4099 b93d 2f0b 113c c904 073e 430d a1bd
00000010: 19ad e53d 6f2a cabc 1f5c 4cbe eb15 dfba
00000020: d824 073e 63ed c43d 9764 b8bc 4b60 063e
00000030: 9bc5 973d e238 f6bd 5259 4f3e 38ce 55be
00000040: c7c2 86bd 19d9 0ebd 8a81 893e fd62 a3bd
00000050: 5fbc 50be 053a a1bd 84a6 49bc 3990 de3c
00000060: 78d0 853e e28f 32be 1e50 ea3d b67e 383c
00000070: abe2 17be be20 06be 5eeb debd ff7a 7c3d
00000080: d5e3 df3d 9175 58be 5d7a 0ebe aa5b 73bd
00000090: c047 16be db16 00bd d107 5ebe 599f 82b8

decoder.fc2.bias f4 [2]
-0.21795845 -0.035896618
00000000: 8030 5fbe 5508 13bd
