Results/latent_ode_spiral-4-paper.pth (torch, 29153 bytes, 14 tensors)

encoder.i2h.weight f4 [25, 27]
00000000: d903 9abd 32bc 00bd dbe1 523e d92d 93be
00000010: f31a 4dbe 9761 02be 8dc2 e8be 7841 e43c
00000020: e1a3 72be a131 133f a531 983c bd57 9ebd
00000030: 4fb5 593e a5f9 7cbd 79b5 973e c321 803c
00000040: 921a 21be a865 943c aea0 cfbd f139 48be
00000050: d094 05be 0d58 183e 178c af3e ede0 70bd
00000060: aed4 dc3e ce37 403d 7091 d8bc c38e 0a3d
00000070: 1b80 bc3d 5f2a 77be 3496 213e eb37 5cbd
00000080: 95a4 213e 0ffd 833e 54e3 9e3c 31a0 343e
00000090: 1a29 c1be 4fdf 21bc 7ea1 a7bc 7d3f 153e
000000a0: 7084 cabd e37a 3ebe 2685 acbd bdcf a83e
000000b0: 877e 05bf 0a95 50bd fce2 d4bc 03be 803e
000000c0: 21bf 043d 3b4a c0be 0c62 43be 7717 09be
000000d0: d4b1 74bd de4c 47bd d457 be3e 6df7 ff3d
000000e0: 2e49 fcbd 726a cf3d e08d 9c3e 9da9 283e
000000f0: 816d 4a3d daf5 c23e 1d6e 973d 8cee ffbb
00000100: 684e d4be 3baf 92be a02d 0e3e e02b 8e3e
00000110: d1e1 ce3c 9e0c e2be 5012 ebbd d5fd 8e3e
00000120: 7bf1 593e 9a90 bdbe 34ff 8fbc 8796 af3e
00000130: 3db6 a83e 38f3 a9be 2f26 af3e 762c 70be
00000140: 9475 613e d2a8 743e 34a8 0e3e 4f35 643d
00000150: 5e71 003e 7cb6 343e 081b 243e eff5 1f3e
00000160: 2ddd ce3e d288 bebe 1d54 23be ca24 c2bd
00000170: 795f dabe f0b6 b33e 4d66 6abe d0a9 a5bd
00000180: 78db 74bd 5add b63e b09a e6be 5038 b03e
00000190: d289 1abe a301 87bd ebdd 18bf c40f d93d
000001a0: 752c 68be a5c3 c83d a209 a4be 2d79 89be
000001b0: a95f a13c 2ca0 073d f2c9 85be 404f 4c3e
000001c0: 57a9 a1bd c75b d53c 29bd a3bd 518b 263e
000001d0: 39f3 3e3d 3c4e 84be d171 06be af77 0cbe
000001e0: 19ae bbba 4f6b 00bd f8e7 96be b2c7 5ebd
000001f0: 4b2b f0bd 9a55 70be b8cd 7d3c 8a86 24bd
00000200: 0e77 c83d 2d67 123e 2543 0abe 677c 453d
00000210: b2ab 3ebe 7870 b9bd cbcd aebe 3bad ea3d
00000220: a2d3 3e3f 4af0 12be c3cd f43c 1a73 823b
00000230: 1ee5 f23d 1d04 9e3e 4b88 863e 5a6b 933e
00000240: 19d2 283d bf1a c3bd 205a 24be 7c38 a6be
00000250: 4a1e dfbb f7c8 a5be 852b 69be 88e7 93be
00000260: eaac 8fbd e124 a83e 71cb 7fbe e509 383e
00000270: 3f79 e93e b5de a3bd 3feb adbe 2ed0 1fbd
00000280: 1978 c4be 41d2 b83d 0133 abbe 6b74 873e
00000290: f59a 02bd 169d 69be d335 6e3e 2f26 633d
000002a0: 6a92 d3bd 7009 babe e03e 5c3f 1837 9fbd
000002b0: 1d77 3abe dedd cdbe 7e30 b6be 8b8f d63d
000002c0: b0ac 2f3d 1a61 25be abb7 59be c220 d23e
000002d0: a3cc dfbd ada3 c33c 5a0a ac3e cfa8 063f
000002e0: 936f 48be e940 213e 9513 513c 6639 9cbe
000002f0: 91a2 8a3e d1d4 1b3b 3982 8ebd b1a4 cd3b
00000300: ac6a cfbd 364a 74bd 3950 bcbd 4381 8dbe
00000310: 3434 88bd e531 843e 1ef7 9bbc f7bd 823e
00000320: b283 b83d 8fd7 15be 7119 153b e196 e33e
00000330: a0fc 95bd cd14 23be 526c 0bbd 818b c13c
00000340: 23d7 2ebd f840 b23a 19e8 f13d 55b6 063e
00000350: 4c60 d53d b8dc c93d baa3 3a3e 51db 233e
00000360: f8c9 cbbe a4a3 0dbe 215a 353b e5d5 423d
00000370: 2877 e5be 9ef7 6dbe e956 2b3d 5567 c7be
00000380: e536 343e f156 1dbe c295 7b3e 8bfb 873e
00000390: 4e1b 5b3c ffb1 44bd 748e 0fbd 5474 7b3e
000003a0: fb84 29bd b2a8 4fbd 34e3 f2bd 7f40 0b3f
000003b0: 0202 883e e335 0abd 8ede 06be e1f0 0f3d
000003c0: 5022 b9be 3228 8e3e 0ddf 643c c91c 3cbe
000003d0: 0ad5 0bbf 3228 1e3f 2f0e fabe 729a 1bbe
000003e0: cb0e 89be 3329 ccbe f4eb 23be d0d0 c4be
000003f0: 2281 fa3d 98ee 47bc 4784 fe3e 289d 79bd
-0.07520265 -0.031429477 0.2059397 -0.28745916 -0.20029812 -0.1273254 -0.4546093 0.02786325
-0.23695327 0.574976 0.01857836 -0.077315785 0.2126057 -0.061761517 0.2963064 0.015641099
-0.15732792 0.01811488 -0.10138069 -0.19553353 -0.13045049 0.14877339 0.34286568 -0.058808256
0.43131012 0.04692822 -0.026436538 0.033827554 0.09204122 -0.24137257 0.15779954 -0.053764265
0.1578544 0.25779006 0.019395508 0.17639233 -0.3772667 -0.009879901 -0.020462748 0.14575
-0.09888542 -0.18601565 -0.084238335 0.32970992 -0.5214619 -0.050923385 -0.02598714 0.25144967
0.032408837 -0.37556633 -0.1908037 -0.13387857 -0.059739903 -0.04865729 0.37176383 0.124983646
-0.123186454 0.10127725 0.30576992 0.16470952 0.049420837 0.38078195 0.07394049 -0.0078104194
-0.4146607 -0.28649315 0.13884592 0.2776785 0.025254162 -0.4415025 -0.11478102 0.27928033
0.21283524 -0.37024385 -0.017577745 0.3429453 0.32951537 -0.33193374 0.3420882 -0.2345446
0.22017509 0.23892525 0.13931352 0.0557149 0.12543246 0.17647737 0.16025937 0.1562116
0.4040312 -0.3721376 -0.15950055 -0.09479673 -0.42650965 0.35100508 -0.22890587 -0.0808903
-0.059779614 0.35715753 -0.45039892 0.34417963 -0.15091637 -0.06592109 -0.5971362 0.1059871
-0.22673209 0.09802941 -0.320386 -0.26850262 0.019698935 0.033111736 -0.26130635 0.19952106
-0.07893627 0.02604474 -0.07995064 0.16264082 0.046618674 -0.25840938 -0.13129355 -0.1371753
-0.0014318853 -0.031352337 -0.29473853 -0.054389663 -0.117270075 -0.23470154 0.015490942 -0.04016737
0.09788333 0.14297171 -0.13502176 0.048214342 -0.18620184 -0.09054655 -0.34141383 0.11458822
0.74541676 -0.14349476 0.029883271 0.0039810063 0.11860107 0.30862513 0.26275858 0.2879284
0.04121599 -0.09526586 -0.16050005 -0.3246497 -0.0068090307 -0.32379887 -0.22770508 -0.28887582
-0.070154026 0.32840636 -0.2497995 0.17972524 0.45600316 -0.08001462 -0.3396854 -0.039016895
-0.38372877 0.09024478 -0.3343735 0.26456007 -0.03188606 -0.2281383 0.2326272 0.055456337
-0.10330661 -0.36335325 0.8603344 -0.0777418 -0.182095 -0.40208334 -0.35583872 0.104765974
0.042889297 -0.16150323 -0.2126147 0.41040617 -0.10927703 0.023881758 0.33601648 0.5260133
-0.19573812 0.15747418 0.012761016 -0.30512542 0.27077153 0.0023777972 -0.06958432 0.0062757363
-0.10127768 -0.059641086 -0.09194989 -0.2763768 -0.06650582 0.25819317 -0.019038733 0.25535557
0.09009494 -0.1463301 0.002275076 0.4445105 -0.07323575 -0.15925904 -0.03403885 0.023626091
-0.04268564 0.0013599684 0.11811847 0.13155492 0.10418758 0.09856552 0.18226519 0.16001631
-0.39802527 -0.13831955 0.002767213 0.047567267 -0.44817472 -0.2323899 0.04183093 -0.38946024
0.17599066 -0.15365197 0.24568847 0.265591 0.013373209 -0.048021313 -0.035047963 0.24556094
-0.041386586 -0.05069799 -0.11859742 0.5439529 0.26564032 -0.033742797 -0.13170835 0.03514183
-0.3615899 0.27765042 0.013969195 -0.18370356 -0.54621947 0.61780083 -0.48838946 -0.15195635
-0.267691 -0.39875183 -0.16007978 -0.3844056 0.122316614 -0.012202881 0.49710295 -0.06094089

encoder.i2h.bias f4 [25]
00000000: 846c f2be 94b4 d13e 5504 843d f479 553e
00000010: 0f3f 0f3f a8be 8d3e 41d4 5d3e 7a30 01bf
00000020: 8db6 03bd 857a f8be 0a0c 293e 6f55 dfbe
00000030: 268b 3bbf 9d1e 053e c44a 003f 126c c0be
00000040: e41f 623e a239 0dbd 03e1 ba3e 6f64 a4bd
00000050: 5d4a 14bf fa20 1ebe f6dc f1be 8470 4dbe
00000060: d1b1 aabe
-0.47348416 0.40958083 0.06446139 0.20847303 0.55955595 0.27684522 0.21663 -0.50464594
-0.032156516 -0.48530975 0.16508499 -0.43619868 -0.732592 0.1299996 0.50114083 -0.3758245
0.22082478 -0.03447879 0.36499795 -0.08026969 -0.5792597 -0.15442267 -0.47238892 -0.20062453
-0.33338788

encoder.h2o.weight f4 [8, 25]
00000000: 89f2 1dbe bb10 70bd 4d21 c2bd db64 02bd
00000010: a891 a63d b5f9 9a3c 680d 9c3c 8397 66bb
00000020: ac29 fc39 86ec 083e fc9d 413d 3657 1a3c
00000030: fe2d 62bc 9239 743d b37c 503e 3647 cf3d
00000040: 867f 1c3d 3b6f d23d cb21 993c 11d9 27bd
00000050: 506f 083e 0ac6 0cbe 3af5 2e3e 82a5 59bd
00000060: de7f 283d cf6c 443e 9a98 823e fe6f f73c
00000070: 2a3f 643e 8c89 0dbd bdb1 30be 435d 9fbe
00000080: 2923 f1bd eaab 19be bad7 1d3d ff12 973e
00000090: 986c a13d eae9 8bbd 036b 8a3d 2208 bcbd
000000a0: 1450 37be 45c3 933d a931 0e3c 6a96 54be
000000b0: 2898 96be 20ec 7e3e 655c c63d 5385 68be
000000c0: e431 9dbc 784d 7abe 48e5 0dbd c706 40be
000000d0: dab1 5c3e ab41 9c3d b2b0 55bd 668d f63d
000000e0: 5da0 443d 92a2 803c ca18 353d c406 92be
000000f0: 8d25 0fbd a840 193e 8887 1f3d 5c48 f4bb
00000100: cf8b 9dbe 9c0a 4d3e ea13 1b3e 426f bdbd
00000110: f2d0 e13a b01c 3ebc 0fd5 d23c 9864 95bd
00000120: eb39 273e 9991 a8be 81c9 8d3d 86a1 653d
00000130: 4c67 3bbc e974 37be f5db 53bd edcc 9c3d
00000140: 154f 1cbd 39de 13bd e68f a9bd 4bcf bb3b
00000150: 3c31 88bc ef7a bc3c 9982 fc3c 0e1b c13d
00000160: 960a cbbd a4d9 c53c b3bd f53c fa63 8d3d
00000170: 29dc 89bd 68f2 b43b 39b5 5f3c 2869 e2bc
00000180: dbc6 8bbc 19b1 4b3c 65bc c6bc df4f 98bd
00000190: 880e 48bd 28c6 183e c88e d7bd 281d bfbd
000001a0: 610f 94bd 8446 6dbc 9f5e 6b3d 4c8c af3d
000001b0: 9c10 a0bd e8a0 b6bd 07e4 113d 0b36 533d
000001c0: 8383 debd 1a66 ddbd f2fe 1b3c d775 11bc
000001d0: 4082 103a f6c0 97bb 46d3 293c 6f88 97bd
000001e0: 7b08 cbbd 14f0 673d cf81 10bd e917 db3c
000001f0: 6b47 093d 5ee9 9c3e 488e 04be aac4 75be
00000200: b6c8 83bd 535f 93be ba40 783e 708d d63d
00000210: 98d9 a73e 8b12 703e 4719 2abe 21c5 323d
00000220: f23d f1bd 467f af3e dad3 1dbd 7485 623d
00000230: a46f 363e e74b d73d ab06 01bc d50c ecbd
00000240: 542a 0e3e 5508 643e 8826 85bd 10af 32bc
00000250: 1282 2fbc a9c3 933d 049b b93e 750a 82be
00000260: 8c52 a0be 9f23 09be 527f 94be 2835 0ebe
00000270: 8c20 383d f4e6 2f3e 1811 5c3e 8460 93bc
00000280: 10a0 51bd 3e1c 8f3e 2a24 e83e cafb 9b3b
00000290: 5d9d 72be 872a 933e ba2b 91be 3575 d13d
000002a0: d0f5 123e 9632 cebc eda5 ae3e b325 cc3e
000002b0: d0ff a43e 608b 9bbe b33a c73e c112 43bd
000002c0: 8551 023e 35ca de3d b6f4 ebba 1b1f 0bbd
000002d0: 9702 203d ce89 cc3b 478f d33d 2585 de3d
000002e0: 357f 3abc bf04 9c3c 8d02 b73c 7fad d93d
000002f0: 21ee b63d da2b d7bb 890b 0c3c 33e5 f6bc
00000300: 92ac d2bd d713 b23c d4b6 f9bc aeb8 27bd
00000310: e0bd ea3c 3c0e 3abd f084 863b 18b9 e23c
-0.15424551 -0.058609705 -0.09479008 -0.031834465 0.081332505 0.018917898 0.019049361 -0.0035185523
0.00048096234 0.13371477 0.047269806 0.009420207 -0.013804911 0.059625216 0.20360069 0.10121004
0.038207553 0.10275122 0.018692872 -0.040978495 0.13323712 -0.13747421 0.17085734 -0.053136356
0.04113757 0.19182132 0.2550705 0.03020477 0.2228972 -0.034555003 -0.17255302 -0.3112584
-0.117742844 -0.15006986 0.03853581 0.2950668 0.07882041 -0.06831725 0.06758692 -0.09181239
-0.17901641 0.07214979 0.008678832 -0.20760503 -0.2941296 0.24894762 0.096855916 -0.22707109
-0.019188829 -0.24443614 -0.034642488 -0.18752585 0.2155222 0.07629713 -0.052170463 0.12038688
0.048004497 0.01570252 0.044213094 -0.28520787 -0.03494792 0.1496607 0.038947612 -0.007454915
-0.30770728 0.20023578 0.15144315 -0.09249736 0.0017228408 -0.011603519 0.02573636 -0.07294577
0.16330688 -0.32923582 0.069231994 0.056062244 -0.011438202 -0.17915691 -0.05172344 0.07656274
-0.038161356 -0.0361006 -0.082793996 0.0057314984 -0.01662504 0.023007838 0.030823993 0.094289884
-0.099141285 0.02415163 0.029997682 0.06903835 -0.06731445 0.005522061 0.013654047 -0.027638033
-0.017062595 0.01243236 -0.024259755 -0.07437109 -0.048841983 0.1491934 -0.1052528 -0.09331733
-0.07229496 -0.014482144 0.057463285 0.085716814 -0.07815668 -0.08917409 0.035617854 0.05156521
-0.108649276 -0.1081049 0.009521233 -0.008878193 0.0005512573 -0.004631157 0.010365313 -0.073990695
-0.09913727 0.05662544 -0.035280045 0.0267448 0.033515375 0.30646795 -0.12944901 -0.24000803
-0.06434767 -0.28783664 0.24243441 0.10476196 0.32783198 0.23444574 -0.16611205 0.043645028
-0.11779393 0.3427679 -0.038532116 0.055303052 0.17816025 0.10512524 -0.007875125 -0.11525885
0.13883334 0.22268803 -0.0650149 -0.010905996 -0.0107121635 0.072150536 0.3625108 -0.25398603
-0.31312978 -0.13392495 -0.29003388 -0.13887465 0.044952914 0.17177945 0.21490896 -0.017990358
-0.051178038 0.27951235 0.4534009 0.00476024 -0.23692842 0.28743383 -0.28353673 0.102274336
0.14351583 -0.025170606 0.34110966 0.39872512 0.3222642 -0.30379772 0.3891197 -0.047625307
0.1272641 0.10878412 -0.0018002007 -0.03396521 0.03906497 0.0062420135 0.10330062 0.10865239
-0.011382868 0.019045232 0.022340083 0.10628795 0.08932138 -0.006566507 0.008547672 -0.030138588
-0.102868214 0.021737976 -0.030482687 -0.04094761 0.028654993 -0.04542373 0.004105203 0.02767615

encoder.h2o.bias f4 [8]
00000000: b35c 02bd c6ed 03be b601 033d 3737 57bd
00000010: 0e0b a6be c2ad 53bd f307 c3be c950 20bd
-0.031826686 -0.12883672 0.031984054 -0.05254289 -0.3243031 -0.05167938 -0.38092002 -0.039139543

ode_func.net.0.weight f4 [64, 4]
00000000: de8a 8d3e aad6 323e b510 abbf 9799 ce3c
00000010: c8d1 0f3c 5dd2 cdbd 2de0 d9be 3f32 b9bc
00000020: e255 a6be 51d1 1d3e 77c8 ad3f 3532 5cbd
00000030: 7e59 33bd 9b27 973e 03ad ecbe e77b af3d
00000040: 5d3d f13b 09a9 06be d8ab adbf 2724 a7bd
00000050: 532a 99be bc38 b43e 4e84 10be 1e64 713e
00000060: 1e20 6dbd bb86 94bc 50d8 dd3d 8d9a a0be
00000070: 43d2 9fbd 1c60 f2bd 661a 1fbf 98bb 49be
00000080: 2536 86be fead 1c3e b9f1 9a3f 53e2 e33c
00000090: 120c c1bc e36a a93e be3a d43d a1e9 3c3c
000000a0: b3a2 20be d326 443e 38e1 31be 8734 64be
000000b0: f99a d23d 397d 04be 8d08 52bd 5a5a 1f3e
000000c0: 6c27 233e 9862 f5be 4fe4 c4be ecd1 41be
000000d0: 46ff 48bb a279 343e acf6 e33e 88c3 cfb9
000000e0: 2b2b ba3e 50f0 3b3c 25c7 65be de7f 4bbf
000000f0: ecdc c5be c812 023f 167c 773f 12b3 013d
00000100: 59c3 bb3c 054b b8bc 6e94 2c3f 4b21 a83e
00000110: 0d00 593c 73c0 b8be 688e c93d 2484 a7bd
00000120: e730 983d 1b98 1ebe 06a8 143f 3a1f 77bd
00000130: 0125 10bc dab5 a93e a7bf 8d3e bc44 003d
00000140: d029 473d a3c9 81be 6cce 92bb 1969 babe
00000150: 8895 233e ce39 82bf b73b c2be 3a25 36be
00000160: 5653 363f 4cd5 033f 4de7 753e 614e b1be
00000170: a852 a3bc bb81 90bd 3df1 dfbe e3aa 3b3e
00000180: f3ab b5be 660c 03bf 7024 463e ee74 803e
00000190: 5c33 0bbd 6884 bb3e 31e1 8c3c 2b82 3d3c
000001a0: 23e8 77be 5233 e9bd d9bc 2fbf 7604 90bd
000001b0: 17f2 433d 2ee6 2b3e 95ce 66be ee50 18be
000001c0: 0fd1 a73e 12cb 6f3f da18 d9be a0fd 0ebf
000001d0: d4a0 ce3d ff34 5dbc 5bde b2bd 6bc5 103e
000001e0: 9517 d53e eff0 b9be edae 99bf 01e4 103d
000001f0: e715 fd3d 0c97 51be 8a45 333f 398b 4b3c
00000200: 4263 d33c 38c5 813d 1121 c1be 51ca 81bd
00000210: ec45 a2be 655b 9b3e 4660 e03f e344 37bd
00000220: 3141 e83c 16a9 f63c 3610 c3be dbc2 0bbd
00000230: 967a b73c 1da3 a7bd 6508 cbbe eeff 283d
00000240: 7338 e63d fa01 ebbd 894c 45bd 9495 1b3e
00000250: 0547 073f 72eb 1f3e 95de c83c 54b3 1b3e
00000260: 282e 99bc 1460 3a3e 4081 b13e 99c9 563d
00000270: 1b27 73be 034e e4bd 5bfc a13f 55db 0ebd
00000280: 8d10 a63d 3f6a e3bc 7ad2 1b3f 8e51 65bd
00000290: 9b48 b33d 5ebe a73c 4223 6c3f de9a 863d
000002a0: 4103 ac3d 67c5 963e 7db2 98bd f6d1 8d3e
000002b0: 524f 023d d032 bfbd 279b 2e3f 72cc b73d
000002c0: 6169 21bd cfe1 5f3b 78ed ef3e 4530 5cbd
000002d0: b9d8 763d 2f6f 7abd 95e2 76be 732a 203d
000002e0: 2757 743f a4a9 a73e 9d6c 9e3e cef7 a3be
000002f0: 2a11 123d c0ec 5ebe 886f a83e c73a 9dbd
00000300: c779 25bd 15be 36bc 824a 16bf fc0f c0bd
00000310: ddb4 0fbe 0f44 563e a6f1 703d fab9 1dbe
00000320: 2695 e63d 99b3 8bbd adca 96bd 03ae cd3d
00000330: d264 58be c8fb 8d3d 177e e43f a823 a4bd
00000340: 56ea d13e 80e7 c33e db43 48be 90db 8b3e
00000350: 34a9 ce3d 9b0c f23e 453e 513f e9a8 10be
00000360: 110d f7be 04eb 37bf 234d c23d 7b31 223c
00000370: 1c48 cbbb 4012 013e c25a e93e 7240 b73c
00000380: 5387 ba3d 47a7 25bd 1116 2abe e0d9 fa3d
00000390: fe38 f33e 2359 ebbd 6f82 163e 84b6 ce3e
000003a0: 137b 9d3e 4b0f cd3e 7927 a3be 5ad7 a33d
000003b0: 6e50 b53e 271f 8cbe ec89 a9bf af4c d73d
000003c0: ad9f d9be 60f6 22bf 0b47 1c3e fd72 5bbd
000003d0: ff6a 13bc 7953 cd3e 2a4f f9bd db8c 5e3d
000003e0: 46e8 bdbd 2907 2cbe b54d 75bf 96fa 18bd
000003f0: a9bd d0bd 141a 543d 61fc 2cbf 8006 e33c
0.2764501 0.174647 -1.3364474 0.025219722 0.008778043 -0.10049889 -0.42553845 -0.022606967
-0.32487398 0.15411879 1.3576802 -0.05375882 -0.04378652 0.29522404 -0.46225747 0.08568554
0.0073620514 -0.1315042 -1.3568068 -0.081611924 -0.29915103 0.35199535 -0.1411297 0.23573348
-0.057891957 -0.01813065 0.10832274 -0.31367913 -0.07803776 -0.11834738 -0.62149656 -0.19700468
-0.26213184 0.15300748 1.2105018 0.02781788 -0.023565326 0.3308936 0.10362767 0.011530311
-0.15687065 0.19155435 -0.1737107 -0.22285663 0.10283465 -0.12938394 -0.051277686 0.1556181
0.15933007 -0.47926784 -0.38455436 -0.18927735 -0.0030669733 0.17624524 0.44524133 -0.000396278
0.3636106 0.011470869 -0.22439249 -0.79491985 -0.38645113 0.5080991 0.96673715 0.031664915
0.022920297 -0.02249671 0.67413986 0.328379 0.013244641 -0.36084327 0.09841615 -0.08179501
0.074312024 -0.15487711 0.58068883 -0.060332514 -0.008797885 0.33146554 0.27685282 0.03131555
0.04862386 -0.2534915 -0.004480174 -0.36408308 0.1597501 -1.017389 -0.37936184 -0.17787638
0.7122091 0.5149734 0.24014015 -0.3463011 -0.019936875 -0.07055994 -0.43738738 0.18326907
-0.3548275 -0.51190794 0.19349837 0.2508921 -0.033984527 0.36624455 0.017197223 0.011566679
-0.24209647 -0.11386742 -0.68647534 -0.07032101 0.047838297 0.16787025 -0.22539742 -0.14874622
0.32776687 0.93669236 -0.42401773 -0.5585575 0.10089269 -0.013501405 -0.08733817 0.14137809
0.41619554 -0.3631663 -1.2006508 0.03537369 0.12357693 -0.20467776 0.70027983 0.01242333
0.025804166 0.063364446 -0.3772054 -0.06337417 -0.3169397 0.30343166 1.752938 -0.04474343
0.028351398 0.030109923 -0.38098305 -0.034121376 0.02239732 -0.08185408 -0.39654842 0.0412597
0.112412356 -0.114749864 -0.048168693 0.15193778 0.5284274 0.15617159 0.024520198 0.15205127
-0.018698767 0.18200713 0.34668922 0.052438352 -0.23745386 -0.11147692 1.2655138 -0.03487714
0.081086256 -0.027760623 0.60868037 -0.05598598 0.08754083 0.020476516 0.922413 0.06572507
0.08399058 0.2944748 -0.07455919 0.2769925 0.031813927 -0.093358636 0.68205494 0.08974542
-0.039407138 0.0034161692 0.46860862 -0.05375697 0.060265277 -0.06114119 -0.24109872 0.039102983
0.95445484 0.32746613 0.3094224 -0.32024997 0.0356609 -0.2177 0.32897592 -0.076772265
-0.04039934 -0.0111537175 -0.5870744 -0.09378049 -0.14033838 0.209244 0.058824204 -0.15402976
0.112589166 -0.06821365 -0.07362876 0.10042956 -0.2113221 0.06932789 1.785098 -0.080146134
0.40999097 0.38262558 -0.19557135 0.2731595 0.10090867 0.47275242 0.8173564 -0.14126934
-0.48252156 -0.7184298 0.09487369 0.009899492 -0.0062036645 0.12604618 0.45577055 0.022369597
0.09107842 -0.04044273 -0.1660998 0.122485876 0.4750442 -0.11491611 0.14698194 0.40373623
0.3075796 0.4005073 -0.31866053 0.080000594 0.35412925 -0.27367517 -1.3245215 0.10512673
-0.42504635 -0.6365719 0.15261476 -0.05357646 -0.008997678 0.40102747 -0.121733025 0.05433355
-0.09272818 -0.16799606 -0.95821697 -0.037348352 -0.10192425 0.051782683 -0.675726 0.02771306

ode_func.net.0.bias f4 [64]
00000000: cb24 d6bd e429 c0bd 2710 343d 3a29 98be
00000010: ec52 353c 66b2 24be a274 603e 3238 2fbd
00000020: 248e 53be 8f56 fe3c 91a7 673e 0284 2fbe
00000030: 7be4 2bbe 1df3 623e cb49 f43b 1bc3 1c3e
00000040: 4f5c e93e 7589 8bbe 0d00 293d c5bf fbbd
00000050: 0b3c 2bbf 39a6 3f3e 3dbc ab3d cb8f b73c
00000060: e76e 10be a18d 683e 006a ebbd 0d99 41be
00000070: aa22 713e db13 c13d 4079 06be f2b2 043d
00000080: 1e2a 8a3c 98b8 f43d 48bc 20be 11a8 843d
00000090: 9f0c a3be 447a 0f3d 6c88 483e f2b2 5bbe
000000a0: 86aa d63d 8b41 1cbe 9b38 e0be 43b7 8abe
000000b0: 1173 adbe 81a7 4dbb ec99 9fbe 0e80 ca3d
000000c0: 1af2 81bd 84d2 98be b755 dfbe 8772 3b3c
000000d0: f92d 9e3e 1b8c a23d 7052 06bf 097e e8bd
000000e0: 3225 053e 84d3 5a3e e6bc 9c3e 2a05 c03c
000000f0: 63a8 a3be 60e9 973e cec8 593e f230 ae3d
-0.104562365 -0.0938299 0.043960717 -0.29718953 0.011067133 -0.16083679 0.21919492 -0.0427782
-0.20659691 0.031047134 0.22622515 -0.171402 -0.16786377 0.22163053 0.007455086 0.15308802
0.45578238 -0.2725331 0.041259814 -0.122924365 -0.66888493 0.18715753 0.08385513 0.022407433
-0.14104806 0.22710277 -0.11494827 -0.1890604 0.2354838 0.09427615 -0.1313219 0.032397218
0.016865786 0.11949271 -0.15696824 0.064773686 -0.31845567 0.03502871 0.19583291 -0.21454981
0.104817435 -0.15259378 -0.43793187 -0.27092943 -0.3387685 -0.0031380358 -0.3117212 0.09887706
-0.06345005 -0.2984811 -0.43620083 0.01144088 0.3089445 0.07936879 -0.5246954 -0.11352164
0.1300247 0.2136975 0.30612868 0.023439962 -0.31964406 0.29670238 0.21268007 0.08505429

ode_func.net.2.weight f4 [64, 64]
00000000: e2ed e0bc d52e e3be 27da 2fbc 8d22 17bf
00000010: de76 53be 2b4b 6dbe 5a29 373e efa2 87be
00000020: b527 52be 9252 d73d a975 f63d 9b8e 20bd
00000030: 16ae b4bd 2c00 f03e 1ab2 b83c 787c 44bd
00000040: 0fd3 293f 87d8 08be 0f44 c83e 9260 9e3e
00000050: 55a9 86be 3dea 683d b223 533e de8f 12be
00000060: 1607 1abe 674b 9c3e 0c58 06bf da50 c0bd
00000070: 0e92 f1bd ef79 5d3d 5d93 b13d fea0 603e
00000080: f2b1 fabd adf1 c23d 108e b0be 5f67 8abe
00000090: e4c3 17be 0356 013e e37f bb3e 54b0 b1bd
000000a0: 33a2 da3e 1fa1 5d3f e1a2 26be 1f64 7b3e
000000b0: c959 573e b32d c1bd b2b5 2f3d 31d5 003e
000000c0: 13fe 40be 0e24 40be 7327 3ebe b696 663e
000000d0: 18c9 823e d333 2d3f df09 a3bd 2511 c13e
000000e0: 26c9 823c 95aa bd3e b7c9 963e 5c0a 0e3e
000000f0: c798 c0bd 6cae da3d 04f7 3cbf faa0 5abe
00000100: 56bb 803e b632 02bf 6b51 3ebe 1297 81be
00000110: 438e 153e 5af2 babe 75c2 ec3d 8efa 2fbe
00000120: 146b b8be 9c4c 143e 33eb 073e 0569 6bbe
00000130: 04ea 123e a89c da3e 21e9 f03e 7342 96be
00000140: e913 0d3f 1b55 193d 6f99 7a3e a0f3 123e
00000150: b5f3 6ebe a182 e13e d874 c33e 0903 cbbe
00000160: a188 d5be a8a1 dd3e f525 a83d ace6 84be
00000170: 744b 083f 4b0c 86bd de37 733e 0d45 9d3d
00000180: 9e3e ecbc e934 60be a15a c6be 36e9 0bbf
00000190: d817 99be bea8 553e 0677 913e aaba babe
000001a0: 0d6b 633e 7804 c13e 8dc3 82be a219 773e
000001b0: 553a b83e f4cd 7dbe 3d7d e13e 5b80 5c3e
000001c0: 9cb5 56be 2880 8b3d a883 dfbd cbfe c8be
000001d0: d507 7f3e 6aea 5e3e c550 83be 1b9a 013f
000001e0: eb63 55be d435 fd3d 3582 323e 9e1f bc3e
000001f0: dcdb aebe e5be 37be 5930 acbe 3bef 4cbe
00000200: be87 cdbe 8905 223e b88d 7e3e b449 9b3d
00000210: f45f b13d 813e 1e3e 0306 a43b e0d6 d5be
00000220: 6ae2 653e d008 183f 9d33 75be 756f 3639
00000230: 0785 96be 8fe6 c83e 9f07 fc3e 080e 95bd
00000240: 06b6 8e3e 5c6b 26bf 52f2 3dbe d320 fa3e
00000250: 31aa 14bf ec61 09bf fe3a 09be e426 20be
00000260: 29c7 833d e878 193f 507e 3ebe eb43 523e
00000270: d8e5 a0be 6a75 b63d 0300 9abe 29f6 adbd
00000280: 963d 903e 15c5 b23e 96fb 0a3e b8a7 8ebd
00000290: 6bb2 9f3c 23c2 90be 6c02 663e 7c67 103e
000002a0: 18e0 f5bc 3d28 a0bd f75c 363e fb32 53be
000002b0: 3f8e 8ebe c4a6 4e3d 3c13 2bbe 2c48 39be
000002c0: f69e 94bc 49bf 10bd 0781 393e 945b 8c3e
000002d0: 6b4a a4be 3bdb 2f3f e511 4c3e e6b1 c73d
000002e0: cd9e a93d ed57 9bbe 7603 96be 8287 4ebe
000002f0: 2354 903e 4e83 043f b6dd 81be 3708 253e
00000300: 300f 813e 03e5 a0be fcab 10bd 2073 d7be
00000310: 305e 15be 0737 c2be fcdc dc3d b0de edbd
00000320: c32b 303e 3e71 8cbe 02bb 16bd 2d24 423e
00000330: 8519 833d 7b18 243e ddc7 f33c b019 11bd
00000340: 7c02 c03e 5cbe d03e ee5d 903e 729e efbb
00000350: 767d d73e 37bc 943d 6f0e 013f 7767 fcbd
00000360: 8369 b2bd 8570 d4be 7a59 a8be 84e0 373d
00000370: 8582 943e c726 29bd c503 34bc 6f17 df3d
00000380: b175 543c c642 603d 8e08 43be 339b 94be
00000390: 45b8 70bd 7805 0e3f d2a7 d53d 11cb 4bbe
000003a0: e353 843e 7dae e43e e2a9 c8be 7201 b93d
000003b0: 59b5 103e 3257 e03d 9cda f53d 0de7 c73d
000003c0: 2728 31be 681a 08be 5c9a 0b3e 3906 073e
000003d0: 1117 fd3e d8dd d93e 2d93 94be bba8 633e
000003e0: ab2b 413e 3445 7c3e 35e5 7e3e 59ac 7ebd
000003f0: 0da2 02bf 86d7 9abe 8742 abbe c53f 2dbe
-0.027457181 -0.44371668 -0.010733164 -0.59037095 -0.20650813 -0.23173206 0.17886868 -0.26491496
-0.2052296 0.10513796 0.12034161 -0.0391985 -0.08822267 0.4687513 0.022545863 -0.047970265
0.66337675 -0.13363849 0.39114425 0.30933052 -0.26301065 0.056864012 0.20619085 -0.14312693
-0.15041766 0.30526277 -0.524781 -0.09390421 -0.11795436 0.054071363 0.086706854 0.21936414
-0.122409716 0.09518752 -0.34483385 -0.2703199 -0.1482082 0.12630467 0.36621007 -0.0867621
0.42701873 0.86573976 -0.16273071 0.24549912 0.21030344 -0.094325446 0.042897888 0.12581326
-0.18846922 -0.18763754 -0.18569736 0.22518429 0.25544047 0.676572 -0.07960867 0.37708393
0.015965056 0.37044206 0.2945077 0.1387114 -0.0940414 0.106777996 -0.73814416 -0.2135047
0.25142926 -0.5085863 -0.18585746 -0.2531057 0.1460505 -0.36513025 0.11560527 -0.17185423
-0.36019194 0.14482349 0.13273315 -0.2298928 0.14347082 0.42697644 0.47052863 -0.29347572
0.55108505 0.03743468 0.24472593 0.14350748 -0.23335154 0.44044974 0.38175082 -0.39650753
-0.41705802 0.43287396 0.08210365 -0.2595724 0.5324013 -0.065453134 0.2375178 0.07679186
-0.028838452 -0.21895184 -0.3874102 -0.54652727 -0.29901004 0.20865151 0.2841112 -0.36470538
0.22208805 0.37698722 -0.25539818 0.24130872 0.35982004 -0.24785596 0.44040862 0.21533339
-0.20967716 0.06811553 -0.10913783 -0.39256892 0.24905331 0.2176911 -0.2564756 0.5062577
-0.20838897 0.123637825 0.17432483 0.36742872 -0.34152114 -0.17943914 -0.33630636 -0.20013134
-0.40142626 0.15822424 0.24858749 0.07582417 0.0866088 0.15453531 0.0050055995 -0.417655
0.22449651 0.59388447 -0.2394547 0.00017398394 -0.29398367 0.39238402 0.49224564 -0.07278067
0.27873248 -0.6500757 -0.18549469 0.48853168 -0.5807219 -0.5366504 -0.1340141 -0.15639836
0.06434471 0.59950113 -0.18602872 0.20533721 -0.31425357 0.08909114 -0.30078134 -0.08494217
0.28171986 0.34915987 0.13572535 -0.069655836 0.019494256 -0.28273115 0.22461861 0.14101976
-0.030014083 -0.07820175 0.17808901 -0.20624916 -0.278429 0.05045201 -0.16706556 -0.18093938
-0.018142205 -0.035338674 0.18115626 0.2741362 -0.32088026 0.68693894 0.19928701 0.09750728
0.08282242 -0.3034052 -0.29299515 -0.2016888 0.2818919 0.51762855 -0.25364465 0.16116415
0.252069 -0.31424722 -0.035320267 -0.4208002 -0.14586711 -0.37932608 0.10784337 -0.1161474
0.17204194 -0.27430147 -0.03679944 0.18959112 0.06401352 0.16024964 0.029758388 -0.035424888
0.37501895 0.40770233 0.28196663 -0.0073125893 0.42087907 0.07262462 0.5041265 -0.12324422
-0.08711531 -0.41492096 -0.32880765 0.04489185 0.29005828 -0.041296747 -0.010987227 0.108931415
0.012967513 0.05475118 -0.19046232 -0.29024658 -0.058769483 0.55477095 0.104324 -0.19901682
0.2584525 0.44664374 -0.3919211 0.09033479 0.14131679 0.10954131 0.12004587 0.09760866
-0.17300473 -0.13291323 0.13633102 0.13185968 0.4943166 0.42552066 -0.29018536 0.22232334
0.18864314 0.24635774 0.24892123 -0.062176082 -0.5102852 -0.30242556 -0.33449194 -0.16918857

ode_func.net.2.bias f4 [64]
00000000: ed0c 843e 9274 ab3e b76a cb3c 838e 2bbe
00000010: 2d7c b7be 0664 5ebd 66ee 6ebd d817 e5bd
00000020: 454c 903e cd2b 053c 1d85 c4bb dac6 91bc
00000030: 757d d1bd 7392 193e de28 78bd bad3 5c3e
00000040: 4cbc 383e cbc5 c2be d551 26bd 20c2 9bbc
00000050: 9e7e 89bd 1acd cc3e 6c70 fbbc c03f 413e
00000060: 10c9 9abd 1262 3f3d 8c37 bdbe cc99 e03e
00000070: 28b6 983c 2d00 ebbc 346d 05bd a1a9 1fbd
00000080: 5ebe c3bc 3e04 86bd b3b6 863e 1d58 cbbd
00000090: 669f 62be 0a42 da3d a35e f4ba 2ad7 703e
000000a0: 7adb 293e ba3a febd 4e13 2c3d 4239 43bd
000000b0: 5b6d 2a3e da8b 2b3d 7d8a 673d 3183 48be
000000c0: d07f 00be c25e 3e3d 5b4e a1bc c0d8 153d
000000d0: cd3a a6be 5a08 75be 8e46 41be fa00 fdbd
000000e0: aa76 4c3d bc5b 3ebd c12f b13c 4f84 1abd
000000f0: 1c16 80be dc9e ee3d ca44 18be 3042 1a3e
0.25791112 0.33487374 0.024831159 -0.16753583 -0.35836926 -0.05429461 -0.058332823 -0.111861885
0.2818319 0.008128119 -0.0059973137 -0.017795015 -0.10229007 0.14997272 -0.06058585 0.21565142
0.1804058 -0.3804153 -0.040605385 -0.019013464 -0.067136034 0.4000023 -0.030693255 0.18871975
-0.07557881 0.046724387 -0.3695644 0.43867338 0.018641546 -0.028686607 -0.032574847 -0.03898013
-0.023894485 -0.06543778 0.26311263 -0.09928916 -0.22131118 0.10657127 -0.0018643927 0.23519579
0.1658763 -0.12413545 0.042010598 -0.047662027 0.16643278 0.04188142 0.056528557 -0.19581296
-0.12548757 0.046477087 -0.019690683 0.036583662 -0.32466736 -0.23928967 -0.1887457 -0.12353702
0.049917854 -0.046474203 0.021629216 -0.037723836 -0.25016868 0.11651394 -0.14869991 0.15064311

ode_func.net.4.weight f4 [4, 64]
00000000: 4eb5 4b3e 76ce 51bf b3da 25be 1045 65bf
00000010: 9206 473f 3b2d 2ebe ebbd c4bd fcab 263d
00000020: 0bff f33d 0912 e1be 5796 f63e d784 a1be
00000030: a63f dabe 9352 b5be 4955 e4be abce 35bf
00000040: 0ee1 003e 07b6 65bf ebab f9be 71e5 433e
00000050: 3751 c9bd d8d0 1dbf 5bdf 403e 1840 e43d
00000060: ca9a f9bd 7ec2 8ebe 9652 3fbc 66d2 5bbe
00000070: 1ccb 24bf 6c14 a73e 79ed 13bd 0774 41be
00000080: a603 dcbe 27ba e23e c340 a9bf 3775 cd3e
00000090: 24e5 42be 445a f6be 36b7 983e 6e2d 4cbe
000000a0: c319 b0be d685 d73c 4f20 553e 9d38 08bf
000000b0: 2687 37bf eff0 cd3e 9adb c2be e428 193e
000000c0: 9cd9 653d a8c9 84be 731b eb3e 2f6f 01bf
000000d0: f147 c6be 3b78 45be 636d 6c3e 25a8 8ebe
000000e0: f90b d1be 063f a63e 8e88 5d3e a0f4 cabe
000000f0: 0c07 a6be 6e3a 97be 4b45 0f3f ba7c bf3e
00000100: 2822 ea3e 2900 393e 4f8a bfbe 1dee b4bd
00000110: aaf7 14be bbcf 9e3e f0d6 ca3e 192f 5bbd
00000120: d086 cfbd 5988 dbbd eb57 d2bd c7e2 6a3e
00000130: 19ff 1abe 7135 26be d2fd 55be cd0f 883e
00000140: ab8f a4bd fb21 90be 4774 a4bd ac66 043e
00000150: 198c babd 0b4b 693e c208 86bd 4d3f e5be
00000160: 895f 263e de6a e2bd a8af cf3e 095a 82be
00000170: 8a2e aebd 42fa eb3d 4e1d ccbe 5f7d af3b
00000180: 506f 74bd d2a8 59bc 62d2 9d3c 7f89 49bc
00000190: bfcb c0bd 54f5 9fbe dfd4 22be 80b9 023d
000001a0: 6616 7abe 26bd 213d 481f 1ebe aac8 a43e
000001b0: 683d ccbc cd64 94bc 6b6b b13d 4bd3 78bb
000001c0: 9127 3d3e 54c8 da3c 549d ab3d f864 f03d
000001d0: 9a55 703d 8c10 a23b bd53 90bd 06f7 873d
000001e0: 8262 253e aee4 6abd 5538 0cbe 55b9 b63c
000001f0: 379f d73e 3b7a 28bd a7c5 c43e 0583 033e
00000200: e752 58bc be19 30be db7f 1bbe 3717 5d3d
00000210: 483d 51bb 71f7 f1bc 655b 2abe 037d ee3c
00000220: c90f 04be 006e 473b f238 18be 1ed6 663d
00000230: 97fc 083e 66cc a03e 6c8c 2ab8 5de4 463e
00000240: 0fee 0fbe 1963 7cbd cf89 e3bb 846b 56bd
00000250: 2a94 4cbb 9547 02be 9e90 48bd 57ae 16bd
00000260: 03d1 c73d b087 fb3c 6ee7 073e 7c34 a8bc
00000270: cfb7 e93c 1653 69bd db34 0d3e 0c54 653d
00000280: c5d4 05bb f84e 42bd b458 c7bc cbac e7bd
00000290: 1113 883e 3104 823d 413d efbd 8672 babd
000002a0: ba8e 40be 11e2 ee3a 839b 30bd f8c5 b9bc
000002b0: 7fcb ab3c 0688 e93d adf6 28bd 735d b23d
000002c0: ccd4 6ebd e01d 9d3d 3fd1 6ebe 7325 9b3c
000002d0: 872a bbbc 0e12 883e 277e 403e 2f50 ca3d
000002e0: 7265 b63d 0e06 7ebd b912 f4bc 5073 00bd
000002f0: 7d74 133e 8827 0f3e c7e8 aebd ebde 4d3c
00000300: 75f3 5abd 4ef6 853f 46df 783e 2fdc 01be
00000310: 1330 5c3e 4167 f83c 756e 3e3e b487 a53e
00000320: fe19 663e 1f6f f4bd 2fa9 d5bd 6430 aebd
00000330: 23f7 7d3e e5d1 2bbf d1bd 32be 12f9 bebd
00000340: 7d3e 4a3e 55ec 6f3d aa26 30bd 8120 2ebd
00000350: 27a3 e3bd 8ad3 1c3f 3d17 143e d97b 7b3e
00000360: de34 f63d 7591 44bd f0f4 15bd a1fa ab3e
00000370: 83f2 5dbf 5fa8 adbd 4322 66bf 7d17 843d
00000380: 9649 973c 4186 653c 8365 f23e 2d06 253e
00000390: 061a 733d 68fc 0bbb 9d5c 16bc c61e b43c
000003a0: abaf 323e 9344 eabe 6c8b 2c3d af15 3abf
000003b0: 3ef4 83be fb94 75be 4d89 093e ff74 fa3d
000003c0: 5fc3 ff3d 4b5d ddbd 2a3d 60bd 76a0 be3c
000003d0: 8cde 6fbf 522f 90bd 0d41 0a3e e877 9abd
000003e0: 36bc c1bc 2c56 e83d a8db c6bc b0e2 2bbe
000003f0: fe46 0ebf a49b 5ebe 07cf 003f c1ae 15be
0.19893381 -0.8195566 -0.16196708 -0.89558506 0.777444 -0.17009442 -0.096065365 0.04069136
0.1191388 -0.43959072 0.48161575 -0.3154666 -0.42626685 -0.35414562 -0.44596317 -0.71018475
0.12585852 -0.89730877 -0.48763976 0.19130494 -0.098299436 -0.61646795 0.18835203 0.111450374
-0.12187727 -0.2788276 -0.011677405 -0.2146698 -0.6437242 0.32632768 -0.036115143 -0.18891917
-0.42971534 0.44282648 -1.3222889 0.4012849 -0.19032723 -0.48115742 0.2982728 -0.19939205
-0.34394655 0.026308935 0.20813106 -0.53211385 -0.71690595 0.4022288 -0.38058168 0.14957005
0.05611573 -0.25935102 0.4591938 -0.5056028 -0.38726762 -0.19284146 0.23088603 -0.2786266
-0.40829447 0.32469958 0.21634123 -0.3963976 -0.3242725 -0.29536766 0.5596511 0.37399846
0.45729184 0.18066467 -0.3741021 -0.08834479 -0.14547601 0.3101786 0.3961711 -0.053511713
-0.10133135 -0.107193656 -0.10270675 0.22938071 -0.15136375 -0.16231324 -0.20897606 0.26574555
-0.08035215 -0.28150925 -0.08029991 0.12929791 -0.09108753 0.22782533 -0.06544639 -0.44774857
0.16247381 -0.110555395 0.40563703 -0.25459316 -0.0850497 0.11522342 -0.39866108 0.0053555216
-0.05967647 -0.013284879 0.019265357 -0.012300848 -0.094138615 -0.31241858 -0.15901516 0.031915188
-0.24422607 0.039487027 -0.1544162 0.32184345 -0.024931625 -0.018114472 0.086630665 -0.0037967737
0.18472125 0.026706852 0.08379617 0.11738008 0.058675386 0.00494582 -0.07047222 0.06638913
0.16150859 -0.057346992 -0.13693364 0.02230517 0.4211366 -0.041132193 0.38432047 0.12842949
-0.013203359 -0.1719732 -0.15185492 0.053977218 -0.0031927396 -0.029536935 -0.16636427 0.029112345
-0.12896647 0.0030430555 -0.14865473 0.05635654 0.13377605 0.31405944 -4.0661937e-05 0.19423051
-0.14055656 -0.061617944 -0.0069439183 -0.05234863 -0.0031216242 -0.12722619 -0.048966043 -0.036787357
0.09756663 0.03070435 0.13271877 -0.020532839 0.02853003 -0.056964003 0.13789694 0.055988356
-0.002042101 -0.04743859 -0.02433429 -0.113122545 0.26577047 0.06348456 -0.11681605 -0.09103875
-0.18804446 0.0018225332 -0.043117058 -0.022677407 0.020971058 0.114028975 -0.041250873 0.0870923
-0.058308408 0.07671714 -0.23322009 0.018938756 -0.022847427 0.26576275 0.18798123 0.09878575
0.08906068 -0.062017493 -0.029794084 -0.03135997 0.14399906 0.13979924 -0.085404925 0.012565355
-0.053454835 1.0465791 0.24303922 -0.1268165 0.21502714 0.030322673 0.18596824 0.32330096
0.22470853 -0.11935257 -0.1043266 -0.085053235 0.24801306 -0.6711715 -0.17455222 -0.0932485
0.197504 0.058574993 -0.043005623 -0.042511467 -0.11115103 0.61260283 0.1446199 0.24558963
0.12021802 -0.04799028 -0.036610544 0.33589652 -0.8669817 -0.0847938 -0.8989603 0.064497925
0.018467706 0.014009059 0.47343072 0.16115637 0.05935099 -0.0021360163 -0.009177354 0.02198733
0.17449825 -0.45755443 0.04212515 -0.72689337 -0.2577228 -0.23982613 0.13431282 0.122293465
0.12488436 -0.1080881 -0.05474583 0.023269873 -0.93698955 -0.07040276 0.13501377 -0.075424016
-0.023649316 0.11344561 -0.024274662 -0.16785693 -0.55577075 -0.2173906 0.503159 -0.14617445

ode_func.net.4.bias f4 [4]
00000000: 2705 7c3e 0a0a 18be 9f38 03bd aa92 f03d
0.2461134 -0.1484758 -0.03203642 0.11746724

decoder.fc1.weight f4 [25, 4]
00000000: 7487 dabe 9d8f 223d 564a 803f 10a1 35be
00000010: bc78 ddbe a6f5 87be 2ae8 8dbe d0a1 9f3e
00000020: 631e 0e3e c2c4 d0bc 791b 4abf 379d c03d
00000030: dc92 0cbe 2c6a 0f3e 2c81 9a3f d0ed 02bd
00000040: e2ad 4e3d 02ec b83d 2aee b0bf 682d 39bc
00000050: 43c2 193e 4f30 a73f c2ad 733f f017 5fbf
00000060: f484 f23d c198 d63d c651 81bf 5e19 b4bd
00000070: d938 9f3e bd3d a1bd 47d6 5dbf 564d ab3d
00000080: 4c35 3f3d 8b63 0e3f 6cc1 b0bf 618f 84bc
00000090: 96c0 2b3e c6ec 123f a12f 3fbe b9b7 2d3f
000000a0: 60a1 5c3c 3b57 153d 50f6 7fbf 235f d5bd
000000b0: 7e5b de3d 3e78 b33d 32f8 51be 74b3 43bc
000000c0: 9268 db3d 9990 12bf ebca c8be a38c cf3c
000000d0: d62b d43e 9af6 203f 8256 f43e 3de6 e6be
000000e0: ddfb 11be 610f 8f3d 8d2c 9b3f c768 e9bd
000000f0: 2a6e 7dbe 119c 233f 3004 5b3d 1be3 e43d
00000100: aa7f 0ebe 573f e83d fc85 8d3f bf0a fcbc
00000110: a0b9 84bd 6256 ddbe b34a df3f 47fe 3cbe
00000120: 8198 483e 348c e1bd 481e 11be 42de d13d
00000130: 7745 3c3d e76d a1be 8db1 53bf b37d 57be
00000140: 2d4c e6be 1e20 4a3f b83e ee3e 5639 d73d
00000150: baf4 0cbe c95b 983e 4018 1fbe 66be 29bf
00000160: 3659 ec3e 6786 2ebe 0d3c 30be ee81 c7bd
00000170: 2f3c 18be 53d2 a1bc 74aa 41bf 325b b1be
00000180: 495b 4fbe f362 d43d c776 b53f 772c 57bd
-0.42681468 0.03968774 1.0022686 -0.17737222 -0.43256176 -0.26554602 -0.2771619 0.3117814
0.13878779 -0.025484446 -0.7894817 0.09404986 -0.13727897 0.14005345 1.207067 -0.031965077
0.050458796 0.0902939 -1.3822682 -0.01130233 0.15015511 1.3061618 0.9518701 -0.871459
0.11841765 0.10478354 -1.010308 -0.08793901 0.3109806 -0.07873104 -0.86655086 0.0836436
0.046681687 0.5562064 -1.3809028 -0.01618165 0.16772684 0.5739254 -0.18670513 0.67858464
0.013466209 0.036460143 -0.9998522 -0.104185365 0.108572945 0.08763169 -0.20504835 -0.01194464
0.107133046 -0.5725189 -0.39217314 0.025335616 0.41439694 0.62876284 0.4772225 -0.45097533
-0.14256234 0.06985355 1.2122971 -0.11396938 -0.24749056 0.63910013 0.05347079 0.111761294
-0.13915887 0.11340206 1.1056514 -0.030766843 -0.06480718 -0.43229967 1.7444671 -0.18456374
0.19589426 -0.1101307 -0.14171708 0.102474704 0.045964684 -0.3152916 -0.82692796 -0.21044044
-0.44979993 0.78955257 0.46532226 0.10508983 -0.13765231 0.29757527 -0.15536594 -0.6630615
0.46161813 -0.17043458 -0.17210408 -0.09741579 -0.14866708 -0.01975361 -0.75650716 -0.3463989
-0.20249666 0.103704356 1.4176873 -0.05253264

decoder.fc1.bias f4 [25]
00000000: 330f 77bf dbe4 8c3f f8e0 083f 90a0 503f
00000010: 6a69 c93e e87f ecbe a0b1 9b3f 255d 993f
00000020: 545f 0bbf 7ad8 57be 1a2a 6d3f 6608 013f
00000030: 5553 963f cd6c b5bf 2e43 4e3f 15d3 903f
00000040: e642 433f 748d b5bd 104e 823e 03e8 5d3f
00000050: 893e 5d3f 3461 333f 3505 48bd 40f6 eebe
00000060: 7426 803f
-0.9650757 1.1007341 0.53468275 0.81495 0.39338237 -0.46191335 1.2163582 1.198155
-0.54442334 -0.21078673 0.92642367 0.5040344 1.1744181 -1.4173828 0.8057126 1.1314417
0.76273954 -0.08864871 0.25450182 0.86682147 0.86423546 0.70070195 -0.04883309 -0.4667225
1.0011735

decoder.fc2.weight f4 [2, 25]
00000000: 5a43 34bf 6811 adbe c134 03bf ffba 3d3f
00000010: daa1 5cbe e3fc e13e b040 f1be bab1 abbe
00000020: 8527 5b3f 6bcc 0d3e 3ddd ddbe 11ed 12be
00000030: 602d e1be f045 e13d dbf3 213f 6e65 043e
00000040: 6aa5 233f 1284 46bd 1149 77bd 7fe8 8fbe
00000050: dc68 3c3e 7f34 9bbd 7d99 023e 8606 4c3e
00000060: 7a45 193f ec4a 43be ff20 873e 5ef2 b2be
00000070: 9a23 643d b352 4bbf a12e b63e a29a 8f3e
00000080: de2d ae3d 03a2 61bf e920 ddbd 5b33 813e
00000090: d74a 143e 206f 233b a9d9 1e3f 3c04 abbe
000000a0: f03f a23e 04f2 e6bc d5c7 52bf bb2c 1c3e
000000b0: 482f 04be adaf ce3e 7ceb 563e 6d51 bf3e
000000c0: 8b4b 94be cbfb 10be
-0.7041527 -0.33802342 -0.5125237 0.7411346 -0.21546116 0.4413825 -0.47119665 -0.33534032
0.85607177 0.1384751 -0.43332854 -0.14348246 -0.4397993 0.10999668 0.6326272 0.12929317
0.63924277 -0.048465796 -0.060372416 -0.28107068 0.18399376 -0.07578372 0.12753864 0.19924363
0.5987164 -0.19071549 0.26392362 -0.34950536 0.055698015 -0.79423064 0.3558245 0.28047663
0.08504842 -0.88137835 -0.10797293 0.25234494 0.14481674 0.0024938062 0.62050873 -0.33401668
0.31689405 -0.028191574 -0.8233617 0.15251438 -0.12908661 0.40368405 0.20988268 0.3736681
-0.28963885 -0.14158551

decoder.fc2.bias f4 [2]
00000000: 48ba fabd 4c9e d83e
-0.122425616 0.4230827
