Results/lstm_sine.pth (torch, 223343 bytes, 12 tensors)

lstm.weight_ih_l0 f4 [256, 2]
00000000: 6ce8 dc3d 3d74 4fbd 3c01 913e 3294 b53e
00000010: 1dcf eabd d1ea 843e 7181 2abe 522a 7f3e
00000020: 4bae 5c3e 3667 f6bd 9b71 593d 55de c8bd
00000030: 9a50 ecbd 735c d5bc a3d4 913d 22d3 04bc
00000040: 0d9b fc3d 85f0 583e 3043 2dbd 4d16 203c
00000050: e4fd e33d fb25 3cbe 5423 49be bef1 53be
00000060: edff 09be e56e 673e cb32 873d 6747 9bbd
00000070: d7cb b4bd 6cf4 843d 3bcd 13bc 70f4 2fbe
00000080: 20ec 3d3e 5fbc 913d 668f ae3d 7505 0c3e
00000090: e73f c1bc 886c 2cbe 4a2d fbbd 43ad 463e
000000a0: 44f0 7b3e 606c 2bbe a117 e9bd 6ea7 643c
000000b0: 4f4f 243d a0cf 82be c8bb d8bd 7e7c 313d
000000c0: ea7b 793d 11d0 afbc 3d69 46be 9b86 cbbd
000000d0: 3a7d 023e 643a 89be ef22 25be f5a3 5fbd
000000e0: 4d7b 663d 901e b4bd f91b 8cbe 1c90 b2bc
000000f0: 458f a2bc 8b92 cd3d 3f06 533e 9bbd 7dbe
00000100: b8cc cabd 7134 de3d aceb 51be acc9 02be
00000110: 6d26 ed3c 087e c93d 7b45 c5be 9a90 a5be
00000120: a23d 46be 2b9a 863e 79c7 cabb 7e11 3d3c
00000130: a57f 51be 8d31 32be 5abd 8a3c a415 38bd
00000140: fd8b 0bbd 2d25 533d 1845 ecbc 6877 90bd
00000150: f9d5 e23d b7a4 c2bc d774 89bc 327c ae3d
00000160: 2d68 a0be cf01 f53d 6d53 8c3d 5406 87bc
00000170: 9eff 08be e884 b53c b56c 883d 2160 56bd
00000180: 1d10 393e cf0c 12bc 8130 573e 4b2e 2ebe
00000190: 5f23 6bbb cb8f 783e 6a89 fd3d ad2b 74be
000001a0: 33d6 393c 76fc 04be dc94 913c dbc0 053d
000001b0: ae75 d6bb eecd 043e 87b2 0b3e a8cb 983d
000001c0: a280 fd3d deb7 6bbe e1bb f93d f32a 9a3d
000001d0: 968d 913d b227 4a3e 00f3 b8bd c297 4b3e
000001e0: fc38 313c c738 4abe d70a 043e 50b6 e33d
000001f0: f8dd 82bd 64dc 363e 5b9c 9c3e 3d17 c23e
00000200: 468a 0bbd 3de9 653d 6850 343e 4971 4c3d
00000210: 7fbd 00bc 9f76 793d e5a9 d93c 8195 e13c
00000220: 5c8d 953d 5764 19be 0850 78bd da1c 98bd
00000230: 0ae3 053d 3e0a 0e3e b31b 8e3d 2491 993d
00000240: d0e2 83bd 17a4 ec3c 1348 6abd 2a29 1d3d
00000250: 4b02 a5bd 4ed3 cdbd 13c6 5abc af93 c0bd
00000260: 3b17 e0bd 9e9c a73d 6903 9f3b aad6 6fbc
00000270: 5620 88bd afab 96bd b266 50bd 718e dbbc
00000280: 933a 8d3d 4f65 84bd d2eb 8ebd fe8d 16be
00000290: aa5b bd3d 66ab 843c f766 99bd 2686 fa3d
000002a0: 56b6 86bd 0e79 6b3d 4e61 76bd 378d 6cbd
000002b0: 7371 6dbd 439f 123e aa05 9fbd 588d 8fbc
000002c0: 4b13 70bd 931c 413b 16b3 8d3b b06c f5bb
000002d0: fa7c 813d fe5e 2ebb 48a4 e9bd 60c5 d4bd
000002e0: 240f e93d 6934 54bd 55d5 bbbd 8515 d4bd
000002f0: a6d4 843d a4b4 de3d c564 bf3d ba30 f93c
00000300: c2d6 4c3d 5a45 b53d ce2a 91bd e1ea ddbb
00000310: b098 2fbd 8d66 e6bd 6951 35be 8243 3abd
00000320: 8176 f8bd 401b 0bbd f3dc b03d 31ae fc3d
00000330: 103f 89bd f432 9a3d 0eea a7bc 2826 d63d
00000340: 0939 b8bd 589f 5fbc ceb4 a53d afc7 6ebc
00000350: adcd 2f3c 512b 5f3d 758a d2bc 8296 babd
00000360: d6e3 873d d6af 093e d9e5 60bd 4604 943d
00000370: db8b f13d 3408 f1bd 3d60 8b3c 3e8f 38bb
00000380: 19b0 023e a602 dabd 0994 a8bd 8065 cbbd
00000390: 3f2c bb3d 3596 65bd c6cd c83d d964 02be
000003a0: e71f 1b3d f304 603d 3a3a ea3b 0134 2e3d
000003b0: c7ad 173e 9426 9fbc fc9e 78bd ba1b ab3d
000003c0: eb47 8cbd ee19 99bc f573 a13d 48eb d6bd
000003d0: 80df 85bd 5037 883b 7303 6e3c d2ee 003e
000003e0: ef99 c33c 6ff5 e9bd 938a cc3d 58d9 f1bd
000003f0: a17b 8b3c a64a 013e 2b33 893d 0456 853d
0.107865185 -0.050647963 0.28321254 0.35464627 -0.11465285 0.259604 -0.1665094 0.24918488
0.21550862 -0.12031405 0.05308686 -0.098080315 -0.11538811 -0.02604506 0.07120635 -0.008106979
0.12334261 0.21185501 -0.042300403 0.009770942 0.1113241 -0.18373863 -0.19642383 -0.20697686
-0.13476534 0.22600897 0.06601485 -0.07581978 -0.08827942 0.06491932 -0.009021099 -0.1718309
0.18547106 0.07116007 0.08523445 0.13673957 -0.023590041 -0.16838276 -0.122644976 0.19402032
0.24603373 -0.1674056 -0.1138146 0.013955934 0.040114697 -0.2554903 -0.105826914 0.043331616
0.06090919 -0.021461518 -0.19376083 -0.09937783 0.12743083 -0.2680236 -0.16126607 -0.05459972
0.056269933 -0.08794892 -0.2736509 -0.021797232 -0.019843707 0.100377165 0.20607851 -0.2477936
-0.09902328 0.10849846 -0.20500058 -0.12772244 0.028948987 0.09838492 -0.38529572 -0.32336885
-0.19359449 0.26289496 -0.00618833 0.011539815 -0.20458849 -0.17401715 0.016935993 -0.044942513
-0.03406905 0.051549125 -0.02884154 -0.07054025 0.11075968 -0.023760183 -0.016779346 0.08519782
-0.3132948 0.119632356 0.0685185 -0.01648251 -0.1337876 0.022158101 0.06661359 -0.05233777
0.18072553 -0.008914187 0.21014597 -0.17009847 -0.0035879237 0.24273603 0.12379725 -0.23844786
0.011342573 -0.12986931 0.017771177 0.032654624 -0.00654479 0.12969181 0.13642322 0.07460719
0.123780504 -0.23019359 0.12194038 0.07527723 0.071070835 0.19741705 -0.090307236 0.1988211
0.010816809 -0.19748221 0.1289476 0.11118758 -0.063899934 0.1785751 0.3058804 0.37908354
-0.034067415 0.056130636 0.17608798 0.049912725 -0.007857679 0.06090414 0.02657027 0.02753711
0.07302353 -0.14979683 -0.0606232 -0.07427378 0.032687224 0.13871095 0.06938877 0.074983865
-0.064397454 0.028886838 -0.05719764 0.038369335 -0.08057078 -0.10050069 -0.013352889 -0.094031684
-0.10941931 0.08184169 0.0048527014 -0.014638582 -0.066467926 -0.07356965 -0.050879188 -0.02680132
0.06895938 -0.064646356 -0.06978573 -0.14702603 0.09245999 0.01619501 -0.07490342 0.12232618
-0.065777466 0.057488494 -0.06015139 -0.05775186 -0.05796952 0.14318566 -0.07764752 -0.017523453
-0.05861215 0.0029466494 0.004324327 -0.007489763 0.063226655 -0.0026606913 -0.11408287 -0.10389209
0.11379841 -0.051807795 -0.09171549 -0.10355667 0.06485872 0.10874298 0.09345392 0.030418742
0.050009497 0.088511184 -0.070882425 -0.0067723845 -0.042870224 -0.11250029 -0.17706837 -0.045474537
-0.12131978 -0.033961535 0.08635893 0.12337912 -0.06701481 0.0752925 -0.020497348 0.104564965
-0.089952536 -0.01364883 0.080911264 -0.0145739755 0.010730189 0.05448467 -0.025700787 -0.09110738
0.06635253 0.13445982 -0.0549067 0.072273776 0.117942534 -0.11769143 0.017013663 -0.002816155
0.12762488 -0.106450364 -0.082313605 -0.09931469 0.09139299 -0.05605145 0.09804873 -0.12733783
0.03787222 0.05469222 0.0071480544 0.042530064 0.14812385 -0.019427575 -0.060698494 0.08354898
-0.06849655 -0.018689122 0.07883445 -0.10494095 -0.0653677 0.0041569844 0.01452719 0.12591103
0.023877112 -0.11423766 0.099873684 -0.11809033 0.017026724 0.12626132 0.06699213 0.06510547

lstm.weight_hh_l0 f4 [256, 64]
00000000: d26b 82bd 207f 523d f52c 833b c740 e03c
00000010: 82ec 6e3d de93 a33c 9ab0 113d 7b14 ddbd
00000020: 15b0 f9bd 5e32 88bc 9464 acbc c889 993d
00000030: edb6 fbbb 8cbc 88bd 0f87 63bd 1877 913d
00000040: 210f ec3d 1ab7 6ebd 52dc 62bd 4c48 f2bc
00000050: 9a9d d43d 180b e23c 8992 0dbc b5d4 a73d
00000060: 2597 d0bd 8cdd 45bd 853a d7bd 5186 4cbd
00000070: 5cb6 253d 1d52 813d d38d ab3d 3732 723c
00000080: 9ddf d8bd 13bf 1b3c e110 aabd c617 1abd
00000090: c2da b8bb d152 a8bd 6b4c f23c 16f8 92bc
000000a0: 1255 d2bd 20da 8cbd a28a c4ba 4997 f3bd
000000b0: f01a e8bd bdf3 80bd 70d1 1dbd 6696 8bbc
000000c0: 0d16 c33d 18da bdbb 7fa6 e4bd 3220 23bd
000000d0: 529f 803d f9eb c1bd ed13 cd3d abf7 03bd
000000e0: ad82 bb3c 7548 aebd 5b00 1fbd 7d44 93bd
000000f0: 510c f8bd 7d4f a7bc 5d9b 043d 4685 b8bd
00000100: bb02 a5bd 1384 293e a22c 223d 5ad4 a43d
00000110: c6ac c0bb 9ef7 783d abec 91bd ece6 9abd
00000120: 77a8 08bd 3386 b63d 9dc2 a7bd a3ce 1f3d
00000130: 0a65 663d 9e41 573c 7080 df3d b157 c5bc
00000140: 2640 de3a 3e9a 2c3c 91cc 1cbe 5ad1 b93d
00000150: 3e35 0fbb 9a70 183e 8532 f33d 47b9 003e
00000160: 787a 553d 2c25 b6bc 2fae ef3d 5d40 683b
00000170: 0fd1 d63d 2cde 65bd 49d3 13be 1206 1ebe
00000180: 0b44 e63a 6dc8 863d 7e3f 6ebd 27f9 b63d
00000190: 8b83 2d3c a3e9 033e a912 403d 1399 543d
000001a0: a318 243d 2428 14be 040b 973d 68ca 8abd
000001b0: 150b d13d bb6a 08be 96c8 28bd 63a7 c0bd
000001c0: 5664 763d e1b1 7e3e 5003 4b3d 8063 233e
000001d0: fbbf 4d3d 6c63 3dbe ad5e e43d 5cb3 0a3e
000001e0: 3b16 48bd 3430 c13d 64d2 193d 0de6 2fbd
000001f0: d58a 6c3c aa40 47bd 066d 883d ca88 1dbe
00000200: 8894 63bd 8ccf 55bd c616 90bd 5b00 88bd
00000210: fe48 a93b 7e1c 3a3d be86 babd 28e0 793d
00000220: 28fe 233e f03f f6bc 67a3 77bd cc1d 4b3d
00000230: cccb 623c 9ab1 193c 4a8c 8fbd 86c6 09be
00000240: 2345 eebc 9e68 0fbd b88d cebd 4414 0abc
00000250: d38e ac3c 66a5 9cbb 7c4e f5bc dfd4 76bd
00000260: 2e19 2b3d 91bc f13c d1e0 4fbc e6a3 f13d
00000270: a032 8f3b 3bb5 a23d ad98 cebc 504a e93d
00000280: a737 753d 082c f33b 61f3 c03d 6535 18bc
00000290: 5d80 cf3d 277f a9bd d6a7 a2bd db35 4e3d
000002a0: 9a55 e93d f08a 19bd 79d9 90bc f440 e63c
000002b0: 04e9 68bb 72ea 953d 6cac 733d a13a 813d
000002c0: e83e 9fbc 8a4b 9e3c bfe3 593d c58e 843d
000002d0: af07 e63d 2a32 e8bc 41f6 a4bd 40f8 3ebe
000002e0: 20d8 0bbc dc09 4ebc 86d5 813d ba06 b1bd
000002f0: c427 2a3d b26a 333e cc2f 323d 914a 013e
00000300: 5743 943c 8dd9 05bd 7dba 3ebc 3320 b43c
00000310: 9a92 e0bd 3564 dc3d 1f32 283d 8105 9bbd
00000320: bc76 8ebd 850d 0a3d dd14 3ebd a35d d03c
00000330: 9c29 2ebd b1ac ff3c e01b a83d b353 f2bd
00000340: c98e 0abd 653e ccbb 215d 2a3d b8bc 293e
00000350: 9602 e9bd b848 d83d 8305 5a3d fbe6 a13d
00000360: ae28 09be a63d 163d 95b6 c4bd 3f66 8239
00000370: 6138 e8bd 4799 543d 5205 bbbc 3785 db3d
00000380: 0a1f b63d 38f5 893d 5691 ccbd c962 fd3d
00000390: 60ba 52bd 7750 843c 4d75 e2bd f50e 2b3d
000003a0: c5f7 b33c 18b3 73bc 61c1 3d3d cd4b ad3d
000003b0: fa59 d1bd 6de4 70bd e79f 95bd 81fe b0bb
000003c0: c095 19bb 5c70 e6bb 6596 be3d 4a50 69bc
000003d0: 6708 bfbb f243 ffbc 336c c23d 4d41 e7bd
000003e0: 8b27 60b9 e0ed 80bd 437a 41bd f247 073e
000003f0: 91f1 b0bc a71c 083a 0f07 8d3d a845 023e
-0.06368221 0.051390767 0.004003162 0.027374638 0.05833102 0.01996797 0.03556881 -0.10794922
-0.12191788 -0.01662558 -0.021044053 0.07496983 -0.0076817186 -0.066765875 -0.055548724 0.071027935
0.11526323 -0.058280088 -0.055385895 -0.02957549 0.103816226 0.02759318 -0.008640894 0.081948675
-0.101850785 -0.048306987 -0.105092086 -0.04993278 0.040457115 0.0631449 0.0837666 0.01478248
-0.10589526 0.009506005 -0.08304001 -0.03762033 -0.0056413123 -0.08218921 0.029577455 -0.017940562
-0.10270132 -0.068775415 -0.0014994929 -0.1189409 -0.11333263 -0.062964894 -0.038529813 -0.017039489
0.0952569 -0.005793821 -0.11164569 -0.039825626 0.06280388 -0.09468836 0.10013566 -0.032218616
0.02288946 -0.08509914 -0.0388187 -0.071907975 -0.12111724 -0.020423645 0.03237473 -0.09009795
-0.080571614 0.16554289 0.039593346 0.08048315 -0.005879971 0.06078302 -0.07125219 -0.07563576
-0.033363786 0.08912315 -0.081914164 0.039015424 0.056248702 0.013138203 0.109131694 -0.024089666
0.0016956374 0.010534821 -0.15312411 0.09073134 -0.0021851803 0.14886704 0.1187487 0.12570678
0.05211875 -0.022234522 0.11703145 0.0035438754 0.104890935 -0.056120083 -0.14436068 -0.15432003
0.0017567886 0.06581197 -0.05816602 0.08934241 0.010590444 0.12882094 0.046892796 0.051903795
0.040062558 -0.14468437 0.07375148 -0.06776887 0.10207192 -0.13321964 -0.04120692 -0.094069265
0.06015428 0.24872543 0.049563706 0.15955925 0.050231915 -0.18494958 0.111508705 0.13544983
-0.048849326 0.09433022 0.03755416 -0.042944003 0.014437397 -0.048645653 0.066614196 -0.15384212
-0.055561572 -0.052199885 -0.07035594 -0.06640693 0.005166172 0.04543733 -0.09107731 0.061004788
0.16014922 -0.030059785 -0.060458567 0.049588963 0.013842534 0.009380722 -0.0700918 -0.13454637
-0.029085701 -0.03501188 -0.100856245 -0.008427683 0.021064198 -0.004780459 -0.02994465 -0.060261603
0.04177206 0.02950886 -0.012687878 0.11798839 0.0043700486 0.07944723 -0.025219286 0.11391127
0.059867527 0.0074210204 0.09421421 -0.009290074 0.10131905 -0.082762055 -0.079421684 0.05034433
0.1139328 -0.037486017 -0.017681824 0.028107144 -0.0035539279 0.073201075 0.059490606 0.06310011
-0.019439176 0.01932313 0.05319571 0.064725436 0.11231934 -0.028344233 -0.08054782 -0.18649387
-0.008535415 -0.012575593 0.063395545 -0.08643861 0.04154183 0.1752117 0.043502614 0.12626101
0.018098516 -0.032678176 -0.011641142 0.02198801 -0.10965462 0.107613005 0.041063424 -0.07569409
-0.069562405 0.0337043 -0.046406616 0.025435274 -0.04252015 0.031210275 0.08208442 -0.118323706
-0.033827577 -0.006233024 0.04159272 0.16575897 -0.11377446 0.10560745 0.053227913 0.07905384
-0.13394424 0.036679886 -0.09605137 0.00024871712 -0.113388784 0.05190399 -0.022829685 0.10718768
0.08892639 0.06736225 -0.09988658 0.123723574 -0.051447272 0.01615165 -0.110575296 0.04176231
0.021968732 -0.014874242 0.046327 0.084617235 -0.1022224 -0.058811594 -0.073058896 -0.005401433
-0.0023435205 -0.0070324373 0.09306029 -0.014240334 -0.005829859 -0.031160329 0.094932936 -0.11291752
-0.00021377036 -0.06295371 -0.04723574 0.13211039 -0.021599563 0.0005192258 0.06886112 0.12721884

lstm.bias_ih_l0 f4 [256]
00000000: ff4c 14bb ce01 003e 9f25 293d e3d1 103e
00000010: ba55 f53d 5910 133e 9c1b 3e3e b6e5 1e3d
00000020: 8f54 b73d 71e0 1b3e ef24 99bc 7632 1fbc
00000030: 5a1d 033e 2f4c 25bd 658a 2b3d 2f7e b73d
00000040: 9970 223e 10c9 2f3e e172 593d dc3e 423e
00000050: cc57 a5bc 728d de3d ab62 1e3e 75f4 3c3e
00000060: 62b6 f33d 6763 8dbd 4619 243e a3ce f53d
00000070: a8ab c13c 5ab7 95bd cdae 3bbc ae7f 9cbc
00000080: 4e33 cc3d 2559 bfbc 8c8c dc3d a30c be3d
00000090: aa47 083e d0ca 3cba eb66 a53d b9c1 0c3d
000000a0: 3e8e e03d 6126 3cbd f6b3 d43d 9a0b 113e
000000b0: 7a69 a73c cee5 8a3d 559e 493e 3eea d9bc
000000c0: 38ad 9a3d 332c e53d 5be6 b53d 5914 043d
000000d0: 852b 793e f379 3a3e f883 c43c 058d 8b3c
000000e0: 3ab4 edbc d550 cf3c ff6d d43d 9500 d23c
000000f0: ff6a 063d 611d d93d fdfe 123e 7c10 733d
00000100: 51ea e8bc bfc9 5bbe 1bdf 13be b8bf 61bd
00000110: a377 eebd de39 adbd 25e5 5fbe 132c d63d
00000120: 3754 01bd 19c8 233d 8910 113d e657 32be
00000130: a169 e1bc 5717 33bc 7b72 24bd 005e 7e3d
00000140: 3eca 77bd 4e27 3fbe 7a7a 05be dd06 83ba
00000150: f479 4bbc 63da 593d 89a6 6a3d ee29 a3bd
00000160: aef0 0cbd ab5c 903d 3641 dbbd b574 623d
00000170: cc3f f63c 8cd2 b83c 7b1b 1a3d 33b4 cfbd
00000180: b277 2ebd 6b3d 09be b82f f8bd bd15 d7bd
00000190: d80b fbbd 2735 84bd c06f d63b ac23 10be
000001a0: 4cd3 acbd 86a3 dd3d 2673 993d 79f0 cb3d
000001b0: 32a4 bf3d 21a6 9a3d c95f a13d 1427 5e3d
000001c0: 377f 88bd 79c2 dabd a7d3 893c 2db4 e7bc
000001d0: ec40 8ebc 9ed0 1cbe 505d a8bd 16f3 0bbe
000001e0: fd65 12bd 8a29 b8bd 7117 20bd e4ac e63c
000001f0: 82aa 933d 439b 7e3d d75f 06be dd11 9e3c
00000200: c557 a53d 44d2 b63a f023 13bc e1b9 aa3c
00000210: 58b9 863d 713a 80bd d5d1 4f3d 7da6 033d
00000220: 4cde e9bd 5b1a b73c 83a6 ea3d 4882 f83c
00000230: 833d 913d bb1f 6fbd f193 acbd d8b3 0abd
00000240: cc89 c63d 44ec b3bd 663e 823d 177f 1c3d
00000250: 946c cf3d c9f9 96bd 0a0a d8bd c2b0 c8bd
00000260: d703 4a3d 9406 6e3d 704c c23d 9560 993c
00000270: f8ec b13c a022 ebbc 7272 8fbd 1cd4 003e
00000280: bc7c 3a3c ebc7 453d f78f 23bd 53da 3cbe
00000290: 1638 acbd 9999 7cbd eabe 89bd ea00 193c
000002a0: 82b5 04be a086 c93d b517 01be 9d8b acbd
000002b0: 9951 db3d 27f4 923d 3955 bfbd ee3a cebd
000002c0: ca84 073e c463 cfbd fb8c 813d 7f07 903d
000002d0: 840b 8fbc 4442 a43d 103b 713d 32a9 083d
000002e0: 09c0 073d 614b 9c3d c35e 5f3d 7df1 80bd
000002f0: 17fb 8f3d cb2a dcbd 67a4 f4ba c63b f53c
00000300: b9ab 40bd 1859 3e3e 7d7e 343e 3391 163e
00000310: 571a a73c 3274 863c 0486 433e 59dc 5bbd
00000320: 21ed 233e 06fc 5f3e 6be8 2ebd 4319 333e
00000330: 2988 80bc 8a95 21bc e1d8 3b3e b4c1 8b3d
00000340: 8b98 d3ba bf69 273e 56c0 3ebd b540 813e
00000350: 57c4 50bc 3bdc a73d 4ac7 3f3d 1248 0c3d
00000360: 78f2 073d 4be7 163e 1960 8d3d 2579 e03d
00000370: af33 32bc a1cf d13d eebb d13d 5e84 e43d
00000380: de7a ad3d 4bcc 22bc e1c9 363e 1c5c 9a3e
00000390: e288 ed3d 06b7 f43d 623a 5f3b 8ba7 873e
000003a0: 4562 443e 9a0f 203e dbc0 a43d 211d 60bd
000003b0: ad4e b03d a733 aabd 659d 053e 4dd4 0b3b
000003c0: e86c 4f3d b3d0 683e 21ec 54bc 740a d33d
000003d0: 92eb 733e 211d f83b ed26 403e 5226 833d
000003e0: 1446 ed3d 2e2d 6b3e ab5b d2bc 0dc4 343e
000003f0: 16b1 673c dbd9 783d 9269 f1bc 9dd7 353e
-0.00226289 0.12500688 0.041295644 0.14142565 0.11979242 0.14361705 0.1856522 0.03879329
0.08951675 0.15222336 -0.01869437 -0.009716621 0.12804165 -0.040355857 0.04188003 0.089596145
0.15863265 0.17166543 0.053088073 0.18969291 -0.020183466 0.10866822 0.15467326 0.18452628
0.11900021 -0.06903725 0.16025266 0.120023035 0.023641422 -0.07310362 -0.01145525 -0.019103851
0.09970723 -0.023357937 0.10768995 0.09279754 0.13308588 -0.0007201852 0.08076271 0.034364436
0.109646305 -0.04593504 0.10385887 0.14164582 0.020436037 0.06782113 0.19689305 -0.026600953
0.0755257 0.11190071 0.088818274 0.032245968 0.24333008 0.18210582 0.023988709 0.017035017
-0.029016603 0.025307098 0.103725426 0.025635043 0.032816883 0.10601307 0.14355083 0.059341893
-0.028432043 -0.21463679 -0.14440577 -0.055114478 -0.11643913 -0.08458303 -0.21864755 0.10457625
-0.031574454 0.03998575 0.03541616 -0.17416343 -0.027516188 -0.010930858 -0.04014824 0.062101364
-0.060495608 -0.18667337 -0.13035002 -0.0009996552 -0.012419213 0.053186785 0.057287727 -0.07966982
-0.034409218 0.07048925 -0.107057974 0.05528708 0.030059718 0.022561334 0.037623864 -0.10141792
-0.04259462 -0.13402335 -0.12118477 -0.10502193 -0.122581184 -0.064554505 0.0065440834 -0.14076108
-0.08438739 0.10822205 0.07492666 0.09957976 0.0935749 0.07551218 0.07879598 0.054236487
-0.06664889 -0.10681624 0.016824557 -0.028284157 -0.017364942 -0.15313956 -0.08220923 -0.13666949
-0.035741795 -0.08992298 -0.039084855 0.028158613 0.07210256 0.062159788 -0.13122497 0.019295627
0.08073381 0.0013948162 -0.008980736 0.020840587 0.0657832 -0.06261147 0.05073722 0.032141197
-0.11419353 0.022351434 0.11457541 0.03033556 0.070918106 -0.05837987 -0.08426655 -0.03386292
0.096942514 -0.087852985 0.06359558 0.03820714 0.101281315 -0.073718615 -0.1054879 -0.09799339
0.04932007 0.058111742 0.094872355 0.018722812 0.02171944 -0.028703034 -0.070042506 0.12580913
0.011382278 0.04828636 -0.039932217 -0.18442659 -0.08409135 -0.06166992 -0.06725867 0.009338597
-0.12959865 0.09840131 -0.126067 -0.084250666 0.10708923 0.071754746 -0.09342427 -0.10069834
0.13234249 -0.10126451 0.06325718 0.0703268 -0.017461546 0.08020452 0.058894217 0.033364482
0.033142123 0.07631565 0.05453373 -0.0629606 0.070303135 -0.107503496 -0.0018664718 0.029935729
-0.047038767 0.18588674 0.17626376 0.14703827 0.020398302 0.016412828 0.19094092 -0.053676937
0.16008426 0.21873483 -0.04270212 0.17490105 -0.015689926 -0.009862313 0.18344451 0.06824055
-0.0016143484 0.16348933 -0.046570145 0.2524468 -0.012742124 0.081963025 0.046820916 0.03424842
0.03319022 0.14736669 0.06903095 0.109606065 -0.01087658 0.1024468 0.10240923 0.111580595
0.08470701 -0.009936403 0.17850448 0.301484 0.11598374 0.119489715 0.0034061898 0.26495013
0.19178112 0.15630952 0.08044597 -0.05471528 0.08608756 -0.08310633 0.13048322 0.0021336258
0.05064097 0.22735862 -0.012995751 0.10304728 0.23820332 0.007571832 0.18764849 0.064037934
0.11585632 0.22966453 -0.025678476 0.17652912 0.014141342 0.06075464 -0.029469285 0.17758031

lstm.bias_hh_l0 f4 [256]
00000000: 4ef3 103d 8878 8a3c 3bf1 873b a952 023e
00000010: 44b5 1e3d 12df 1b3e b01f 123e 9ee5 923c
00000020: 4823 013e 8c33 a63c 0c04 41bd ae53 2a3e
00000030: 418a 40bd 5cd1 a6bd 2ccf 2cbc 854e 1b3e
00000040: de7c babc f51a 323e 77bf c23d f332 913d
00000050: 4867 593c ebf0 e23d b929 e23d 7b96 223e
00000060: 365f bf3d dd2c 443c b735 e83d bcd3 233e
00000070: aa88 9fbd 7fa6 163e ecde 3ebd 9386 f0bc
00000080: 22ce 6ebd e680 923c 4796 d33d 8aeb 773e
00000090: cf4c b33d 1785 6f3d ab13 2c3e 65ad ab3c
000000a0: b276 cabb 6941 bf3d 06c2 003e e96a 4ebd
000000b0: b3b7 cc3d 499a 13bc 377c 0b3e 3b81 ac3c
000000c0: a64a 043c db46 2e3e 698a a6bd 5558 f33b
000000d0: 5b63 783e 3ca3 e53c 3e1a 253e 22a2 133e
000000e0: ba73 34bd b1f8 963d 9a62 d4ba 95fd d43d
000000f0: 9de9 823c bca6 8b3d 28fb ef3b aec4 863c
00000100: aff8 803d f5dd 4ebe ed3a 0ebe c5f7 c8bd
00000110: 050c be3d 4331 7d3d 6088 8dbd bdbc 0a3d
00000120: 00c9 d13d c3d8 313d 51a4 c83d 0eaa a9bd
00000130: 69b4 ba3c 5104 ca3d 02b0 643c caf7 60bd
00000140: 6226 e83d e71b 2ebe 6d8e fdbd 5e57 a7bd
00000150: f5df 773d 64d1 c4bc 0a38 c3bd 19c9 1d3d
00000160: 24af b7bd b9f1 d3bb 56ec 89bd 2c8c d93c
00000170: 7e93 94bd 9d9d a63d 7fbc d4bd a84d 09be
00000180: bbec 893d 192f b83d d019 9b3d a7e9 01be
00000190: eca6 ebbd 29b8 0b3c 84a4 d63d b7b1 583d
000001a0: f6b5 25bd 3a23 dfbd d3a8 00be e08b b23d
000001b0: 8f0e b43d a50e 823d cc55 5c3b 6156 9f3d
000001c0: 1600 083d b320 4cbe 2f43 953d 837c 0abd
000001d0: 07ff 67bd 7443 27be d9d9 c9bd 7df8 12bd
000001e0: 2810 10be bc9b 433c 5855 c2bd bba1 fcbc
000001f0: 95a0 1cbd 46fd 433d 6d4b be3d cfcd 083d
00000200: b4ad 103c a9c9 94bd f1a1 6e3d 733d 583d
00000210: ec20 18bb 1756 7d3c 0f4c a53b 51fb 893d
00000220: a604 4d3d 016d ac3b 98f7 863d 188d c03d
00000230: 864e 3fbd d3f3 67bd 8e25 e8bd 6888 4f3d
00000240: 0664 a83d ecf7 40bd c28f fc3d 91c5 b0bd
00000250: 8431 33bc 56eb 12bc da24 08be 1e96 c83d
00000260: 6860 88bc d561 ee3d c27b 9cbb 9173 9f3c
00000270: 07b7 bebc a283 80bd f62d d03d 5004 f1bd
00000280: 0b68 edbd 848d e4ba 730d c4bd 6e3b 6cbd
00000290: 6630 903d 3c4c 5c3d 1057 05be 6988 4dbd
000002a0: dc6d 553d 4096 9d3d de74 6b3d 8571 a1bd
000002b0: 3921 d4bd 00c6 6f3c 312f 3d3c 3b2c e2bc
000002c0: 1676 253d a03a 0ebc f93b 55bd bd15 dcbd
000002d0: 120b 8a3d 0847 dd3d 7ac6 dcbd 7233 1f3d
000002e0: 6a67 b3bc 2fc3 e3bd 2f78 523d c26b 853d
000002f0: 44c1 483d b4b0 253d 0192 fa3b 33e2 16bb
00000300: 447a 993d ea1f 613e 072d 46bd 9faf 523c
00000310: 7139 183e febd 933d 6fb0 373e ed59 6a3d
00000320: 486c a83c 5daa 933d 4e21 053e 3c72 033e
00000330: 466f c13c 8d6e a8bd 3d1b 3e3e 6fcd cb3d
00000340: 974d 293e 59e1 e33c 3ee6 2f3e f4e7 3d3e
00000350: 3baa d1bd 3da0 1d3e 0929 7bbc 1616 d73d
00000360: eb26 3c3e d8ee 273d f476 56bd a972 63bd
00000370: 356b cfbd 03b8 cbbc a69f 593d cbe3 8d3d
00000380: d3d7 9f3d f1be 143e 7ed7 473d 67e4 883e
00000390: 6c6e cb3d 1492 6e3c 2247 ff3d 2e57 d13c
000003a0: fe0b 3c3e 22ec 2b3b 8e6c 783d 3ff2 20bd
000003b0: d2f2 e0bc 51d3 043e 627a 453e 8d23 56bd
000003c0: 95b4 ef3c eb59 ba3e 5464 1a3e babc 363e
000003d0: 7c9d 323e a3ca a33d d549 153d 0308 3d3c
000003e0: b49b c23d f921 733c ff8b ab3d b369 073e
000003f0: beb6 21bd 1c42 9f3d 7126 a93d 7633 363e
0.035388283 0.016903177 0.00414863 0.12726845 0.038747087 0.15221813 0.142699 0.017931756
0.12611115 0.020288251 -0.047123 0.16633484 -0.04700685 -0.08145401 -0.0105474405 0.15166672
-0.02276462 0.17393096 0.09509175 0.07089796 0.013269253 0.11081108 0.11043114 0.15877716
0.09344332 0.011973587 0.1133837 0.15998739 -0.077897385 0.1471195 -0.046599314 -0.029361045
-0.058302052 0.01788373 0.103313975 0.24210945 0.087548845 0.058476534 0.16804378 0.020956704
-0.0061787004 0.09338648 0.12574014 -0.050394926 0.09995975 -0.009008952 0.13621603 0.021057716
0.008074438 0.17019217 -0.081318684 0.0074263015 0.24256651 0.028031938 0.16123292 0.14417318
-0.044055678 0.07371653 -0.0016203702 0.103999294 0.015980536 0.068189114 0.0073236413 0.016451206
0.06297433 -0.20201857 -0.13889666 -0.09812883 0.09279636 0.061814558 -0.06910777 0.0338714
0.10243416 0.04341961 0.09796966 -0.082843885 0.022791104 0.098641045 0.013957979 -0.05492381
0.11335446 -0.17002831 -0.12380681 -0.08170961 0.060516316 -0.024025626 -0.09532173 0.03852186
-0.08968952 -0.0064680246 -0.06734531 0.026556097 -0.072546944 0.08135531 -0.10387515 -0.1340853
0.06734606 0.08993358 0.07573283 -0.12686788 -0.11506447 0.008527794 0.104805976 0.052903857
-0.040456735 -0.10895391 -0.12564401 0.08718085 0.08791839 0.063504495 0.0033620475 0.07780147
0.033203207 -0.19934349 0.07288205 -0.03381015 -0.056639697 -0.16334325 -0.09856004 -0.03588151
-0.14068663 0.011938985 -0.09488934 -0.030838838 -0.03823908 0.047848962 0.0929173 0.0333994
0.008830477 -0.07265026 0.058259908 0.052792978 -0.0023212982 0.01546242 0.0050444673 0.06737388
0.05005326 0.0052620177 0.065901935 0.094019115 -0.046705745 -0.056629013 -0.11335288 0.050667197
0.08222203 -0.047111437 0.12332107 -0.08631433 -0.010937098 -0.008967241 -0.13295308 0.097942576
-0.016647533 0.11639754 -0.0047754953 0.019464286 -0.023280634 -0.06275107 0.10165016 -0.11768401
-0.1159211 -0.0017437194 -0.09572878 -0.057673864 0.07040481 0.05378364 -0.13021493 -0.05017892
0.052106723 0.076946735 0.0574845 -0.0788298 -0.10357899 0.014634609 0.011546896 -0.027608981
0.04039582 -0.0086809695 -0.052059148 -0.10746334 0.06740393 0.10804564 -0.10780044 0.03886742
-0.021899898 -0.11121213 0.051384147 0.06514694 0.049012437 0.04045172 0.0076467996 -0.0023023009
0.074940234 0.2198483 -0.048382785 0.012859254 0.14865662 0.072139725 0.17938398 0.057214666
0.020559445 0.072102286 0.13000986 0.12836546 0.02361263 -0.08224211 0.18565078 0.09951293
0.16533504 0.027817415 0.17177674 0.18545514 -0.10237547 0.15393157 -0.015329608 0.105022594
0.18374221 0.040999264 -0.052359536 -0.05552927 -0.1012787 -0.024868017 0.05313077 0.06928214
0.07804837 0.14525963 0.048789494 0.26736757 0.09933171 0.014561195 0.124647394 0.025554266
0.1836395 0.0026233275 0.0606504 -0.039293524 -0.027459536 0.12971236 0.19284967 -0.052279998
0.029260913 0.36396727 0.15077335 0.17845431 0.17442888 0.07997634 0.036447365 0.011537555
0.09502354 0.014839643 0.083763115 0.13223915 -0.039480917 0.07776281 0.08259285 0.17793068

lstm.weight_ih_l1 f4 [256, 64]
00000000: 425a ac3d 3b6a 8a3d 4052 d3bc 4c2c a4bd
00000010: 865b 0a3e dc03 1d3d 1723 133d 6553 6cbd
00000020: 65e8 6ebd 6901 4abd e25e b93d f1b0 4b3d
00000030: 5ed1 383e 3614 ddbd caf0 963d 44c7 65bd
00000040: a9fb 0d3e 4719 48bc 3245 8fbd 84c6 e9bc
00000050: 26ba e03d a033 6c3d 3e5d d6bb 2c44 f33c
00000060: 757a d7bd 2501 f8bb 4e5b ee3c a338 783c
00000070: 11fc cebd d17f eebd bc73 e5bc ad5b 05be
00000080: 4d62 943d 0c39 db3d 34a1 8f3d 9ba1 2e3d
00000090: f863 383d 5e1e 7d3d 5ebc 50bd d0f0 3e3d
000000a0: 806e 803c 6374 05be 2b74 533d 2be4 02be
000000b0: 26fa 14be 5e17 0d3e 65d3 d7bc 0644 863d
000000c0: e86d c93d 786d 103e 8be6 2d3e cc7a 063c
000000d0: 2e41 a3bd ea43 853d 539c e1bd 989b 2b3e
000000e0: 82ca 12bd 3c0e dfbd 663c d73d e65e 543c
000000f0: daa7 f93d 7693 a23c 0b84 04be cbb8 f2bb
00000100: 614f ae3d f938 b53d 1b8e 213e acb0 fdbc
00000110: 4fd2 553d 22f8 8f3d 46ef 023d 13d9 ce3c
00000120: 4f0a c5bd 872b 983d 9cd5 46bd 54d9 523d
00000130: cd5e d03d 9a91 01be 417a 15be aaad a13d
00000140: 2dd9 98bd ba15 1cbc 7863 003e 2995 aa3c
00000150: acde 7cbd 2304 7fbd 072f 4a3d cbd7 dcbd
00000160: 5a6b 04be 66ba 0c3e f161 c53c 96f1 d43d
00000170: dbe0 ba3d 6ef3 40be ab49 99bc ee31 d6bd
00000180: fa2d 92bd bf61 bc3d 813d 9cbd c2c2 4c3e
00000190: e371 483d f70f 24bc a0c4 1bbe a146 0bbe
000001a0: ae80 093b 6c0b 06be 73f7 ca3d 09f3 0f3e
000001b0: 3318 b1bd b454 933d 6523 b93b 4800 75bd
000001c0: c6cb cf3c 5951 3e3d 0dc9 0e3e 1701 b33d
000001d0: d668 1c3e a21d 5cbd 5a7b 4b3d 6c87 e23c
000001e0: 149b 1c3d 74b5 043e 9a40 d5bd 36e3 473e
000001f0: e4d4 6dba b4e8 1dbd 6ce6 f3bd b494 8abd
00000200: 8524 583c 265f af3d a3b9 ae3d f7ea ecbd
00000210: 1645 1ebd ad79 1bbe 4972 ffbd 235b c43d
00000220: bb41 083d 226c ad3d 356b 9f3d 7e74 56bd
00000230: e0cb 14bc 06cc 6c3d e891 1c3d 3729 debd
00000240: 30f0 38bc 1b9a 52bb c6b2 b8bc 260b 7fbc
00000250: b6ea 343e 28d3 5c3d 7698 c13d 843f f13d
00000260: e9a0 fdbc ae95 093e 02e3 0f3e a732 2b3d
00000270: d6ca c33d 04a2 2cbd 2015 c2bd f92f a2bd
00000280: 04d4 983d ec80 cc3d a240 4b3d 7ae0 fc3d
00000290: db8f 71bd 69d0 ed3d 623a dcbc c9fc 033e
000002a0: 6086 a43d 5220 f83c a927 473d 7d00 a5bc
000002b0: 7011 fdbd 5bac 4e3d c8fc db3d ce62 debd
000002c0: c2d8 803d 86bc bf3e 3bd1 d53c e36c 2a3e
000002d0: 4450 1bbd 7dfb 923d fc7c 0b3d cb71 79bd
000002e0: f0a6 e73d 3fcc 3cbe 68e3 e73d 8290 00bd
000002f0: 701b 413d 126b ba3d e7a6 debd 7cfd 07bd
00000300: 844e 2ebd c8ad 023d ce96 6cbc 8b1c f2bd
00000310: 6a78 cd3c 98e1 b93d fd03 013d 57e9 02be
00000320: fc48 d3bd db2b 413d b84f 4a3c a102 89bd
00000330: 0299 73bd ab03 f1bc ad39 253e 530d 323d
00000340: 4f9a 3f3e 1fca a3bd 5494 c43d 12c0 d2bb
00000350: f9df 763e a05f 203d 9266 b5bd 602c 23be
00000360: d260 b43a fc40 55bd 45e2 df3c c86d 92bc
00000370: 4cde 1dbd da63 b8bd 3231 31bd b167 9bbd
00000380: 04f6 e4bd 64bb e43d 5337 ffbd 0f10 95bd
00000390: 6ebf 403d 5949 243e 9f1f 983c 4c10 743d
000003a0: b6d2 8d3c 62f7 ea3d ff08 68bd c971 f13c
000003b0: e65b b1bd 3b0d 94bc 122c 873d b916 103d
000003c0: f3c1 153a 49fa 4bbc 66fd bcbc eeaf e93d
000003d0: 1351 f3bb 4328 8a3d ae08 ca3d 8889 173e
000003e0: e8e8 c13c 8076 2a3d 8ad7 fd3d 0e3f 583d
000003f0: 78ca 563d 41e2 8e3d e00a 92bd 4ad5 94be
0.08415653 0.06758543 -0.025796056 -0.080162615 0.13511476 0.03833376 0.035922136 -0.05769672
-0.058327097 -0.04931775 0.090513006 0.04972929 0.18048617 -0.107948706 0.073701456 -0.056098238
0.13865532 -0.012213058 -0.0699562 -0.028537042 0.10973005 0.05766642 -0.006541877 0.029695593
-0.10521404 -0.007568496 0.029096272 0.015150222 -0.101066716 -0.11645473 -0.028009288 -0.13023253
0.07245312 0.1070424 0.07013169 0.042634588 0.045017213 0.06179654 -0.05096089 0.046616375
0.01567769 -0.1303268 0.05162446 -0.12782352 -0.14548549 0.13778445 -0.026345918 0.06555943
0.09835416 0.14104259 0.16982476 0.008207988 -0.079714164 0.06507094 -0.110161446 0.16758573
-0.035837658 -0.10891387 0.10509567 0.012962079 0.12190218 0.019845705 -0.12940995 -0.007407283
0.08511234 0.08848757 0.15776865 -0.030968033 0.05220252 0.070297495 0.03196647 0.025249993
-0.09621107 0.07430177 -0.048543558 0.05147679 0.10174332 -0.12653199 -0.14597417 0.07894452
-0.07463298 -0.009526664 0.12537944 0.020823078 -0.061735794 -0.062259804 0.049361255 -0.10783347
-0.12931576 0.1374298 0.024094554 0.10397641 0.09124919 -0.18842861 -0.018711885 -0.10458742
-0.071376756 0.09198331 -0.076289184 0.19996169 0.048936736 -0.010013572 -0.15211725 -0.13601162
0.002098124 -0.13090295 0.099104784 0.14057554 -0.08647194 0.0719389 0.0056499713 -0.05981472
0.025365721 0.046464298 0.13943882 0.08740442 0.15274367 -0.053739198 0.049678184 0.027652465
0.03823383 0.12959844 -0.104127124 0.19520268 -0.00090725557 -0.038552 -0.11909184 -0.06766644
0.013192301 0.0856307 0.08531501 -0.115682535 -0.038640104 -0.15183134 -0.1247297 0.095876954
0.03326581 0.0846789 0.0778412 -0.05235719 -0.009081811 0.05781176 0.038225085 -0.10847705
-0.011287734 -0.003213531 -0.022546183 -0.015566623 0.1766766 0.05391231 0.09452908 0.11779693
-0.030960517 0.13436005 0.1405144 0.041796353 0.09560172 -0.042146698 -0.094766855 -0.07919306
0.07462314 0.099855274 0.049622186 0.12347503 -0.058975082 0.11612017 -0.026883308 0.12889399
0.080334425 0.030288849 0.048621807 -0.020141834 -0.123568416 0.05045734 0.107415736 -0.10858689
0.06291343 0.3744852 0.026100745 0.166431 -0.037918344 0.07176874 0.03405474 -0.060899537
0.11311138 -0.18437289 0.11322671 -0.031387813 0.047145307 0.09102453 -0.10871678 -0.033200726
-0.042555347 0.031904012 -0.0144402515 -0.118218504 0.025081832 0.09076232 0.031497944 -0.12784325
-0.10316655 0.047160964 0.012348108 -0.066899545 -0.05947209 -0.029420694 0.16135283 0.04346974
0.18711208 -0.07997536 0.09598604 -0.006431588 0.24108876 0.039153695 -0.08857454 -0.15934896
0.0013761765 -0.052063927 0.027329573 -0.017874613 -0.038542077 -0.0900342 -0.043259807 -0.07588137
-0.11179736 0.111685544 -0.12461724 -0.072784536 0.04705756 0.16043605 0.018569766 0.059585854
0.017312389 0.11472966 -0.056649204 0.029473202 -0.08660106 -0.018072715 0.066002026 0.03517792
0.00057127996 -0.012449809 -0.023070049 0.11410509 -0.0074254363 0.067459606 0.09864937 0.14798558
0.023670629 0.041616917 0.123946264 0.05279451 0.052439183 0.06976748 -0.071309805 -0.29068977

lstm.weight_hh_l1 f4 [256, 64]
00000000: 9833 083c 2ced 243d 8963 a9bd 8105 923d
00000010: bfbe 593d b839 dd3d 0039 4f3d 73c3 b73b
00000020: 93e5 79bd d738 97bb 0a26 a53d 1648 1c3d
00000030: 6269 91bd 7252 ecbd 2658 573d 2c38 39bd
00000040: 0be6 babd 41d4 6dbc c84a c23c 3def 3e3d
00000050: 4bb3 10bd 583c 003c a86a b13d 1188 9fbd
00000060: 63f6 a23d bf2a b53d 7d32 78bc 3f0c ebbd
00000070: f1d3 b93d c964 87bd 51a4 b83d 659d d63c
00000080: 7c3e c53d 20e4 bf3c dcd8 5a3d 6ed8 babd
00000090: 91bd bb3d 5651 06bd c88b 46bd 99e6 843b
000000a0: 8b18 1f3d ac71 19bd 08bd c7b7 b37a adbd
000000b0: 50db a4bd 27a0 843d b2ea e03c d1c3 c13d
000000c0: 4d4e b7bb ee84 aa3d 118a d53d cd37 e63c
000000d0: d1e5 b13d ebf9 153d 8cc0 193d d35d 083e
000000e0: c918 393d 6a33 9f3b e2bc 013e 1429 bfbd
000000f0: ddda 423c 4789 cb3d 511c b0bc 223f f4bc
00000100: 35e7 a9bd 6412 863d abcf c1bd a3d3 fb3d
00000110: 19e0 0dbd a803 7639 cab0 d03c 7e7d 80bd
00000120: 4002 d6bc e74b 193c 3ddc 1dbd 4a1f c1bd
00000130: a662 6abb 6d3a 333d 793b 78bd 8537 25bd
00000140: 7bd5 cdbc 864c 24bd 9932 f33d 2a77 303d
00000150: 922a 3a3d a968 8cbd ddcc 08bd 1fb2 65bd
00000160: 95ec a4bd 18d7 17bd 63b3 6fbc c174 983d
00000170: 6640 4b3d 21c0 df3d b333 e3bd 9f40 c5bd
00000180: 7bf5 f73b 822c 543c 0124 c8bd 35ac babc
00000190: a799 493d 9409 bf3d 0e05 0abd a0b1 b6bd
000001a0: 69c6 053e 93cd f23d d809 d8bc c4c0 89bd
000001b0: be54 b43d 1fdc 043b 264f 25bd 0c33 093e
000001c0: e511 b13d 32a8 d03d 4b46 703d 4240 44bd
000001d0: 42f0 91bd fc8d bc3d fa41 a4bc 235b b5bd
000001e0: ff80 98ba 2f35 873d 0876 dfbc f74f 9cbb
000001f0: a47a d2bd 44ca bdba ee9f 6e3c cac5 d0bd
00000200: a266 71bd 04ce 923d 47dd 84bd 1824 e3bd
00000210: 322e b1bc 5d73 ed3d 6d71 f23b bb09 123d
00000220: b8fa a2bd a233 84bd 7a4e bcbd 1a96 333d
00000230: bd13 28bd da4f a5bd b4b4 62bd acae 08bc
00000240: 0564 c5bd c12f 8a3d fa60 c7bc d0a4 8bbd
00000250: 95c3 503d 71d9 16bd 6c89 8d3d 8f69 383d
00000260: 199a 4abd b987 723d 23fa ca3d 15b0 12bc
00000270: 4f51 05be 40b0 52bd 602a 16bd 969e bb3d
00000280: 1e39 8dbd c3aa 96bd 5dce 153d 4218 0a3c
00000290: 4a22 013e 0222 69bd ac82 053e d2ee c6bd
000002a0: f00f 54bc 970a c6bd 3da6 e23d f5ea 523c
000002b0: 6b36 103d 6615 bc3d e371 a4bd e116 a5bd
000002c0: d758 f83d 3287 f73c 8661 dabc 5b13 b73c
000002d0: b88c 8cbd ff17 ce3c 64c4 7ebd faf9 91bd
000002e0: 86d7 9c3d fee8 39bd 0a1f 5bbc 503e a4bc
000002f0: c972 90bd 8fd3 bf3c 5851 7f3d 278d e2bd
00000300: 7ad5 52bd 7546 63bd 8a22 f63b 6c15 e53d
00000310: 4176 91bd 2bf3 e23d 5438 633d 6dc9 f13d
00000320: deb4 1ebd ffcd cdbb dea8 913d 8cf7 453c
00000330: f459 6c3c fd6a d2bd a761 a1bd 94cf a0bc
00000340: 4ca1 ad3d 58af d23d 0433 ea3c 0e9c 623d
00000350: 3519 743c 4ee0 dabb c64e 323d 56f4 553d
00000360: 2fbb 763d 8ec3 573d c431 9c3d 7d6f 01be
00000370: 6db3 d6bd ad2e ba3b 76c4 8c3d edd3 34bd
00000380: 5cc0 c6bd 3997 b5bd b845 bdbd 3ac3 873d
00000390: 7be6 f5bd c07b ffbd 32be 02bd de25 65bd
000003a0: 3e00 273d b729 eb3d f35a cb3d df61 5e3c
000003b0: 3932 53bd 4fad 85bd 15c7 8fbd 4616 3b3d
000003c0: b7d3 68bd 3303 dfbd 77c3 2ebd 9b82 fbbc
000003d0: 65cf c13c d472 54bd 26a4 013d e406 533d
000003e0: d807 dbbd a500 f2bd 8ee4 f33d f4e4 7339
000003f0: cdd2 ac3d d6ca 1d3e 21a5 22bd 6f22 c73c
0.008313082 0.040265247 -0.08270938 0.07129956 0.053160425 0.108020246 0.05059147 0.005608016
-0.061009955 -0.00461493 0.08063896 0.038154684 -0.07100178 -0.11539163 0.0525743 -0.045219585
-0.091259085 -0.014515937 0.0237173 0.046614874 -0.035327237 0.007826887 0.08662921 -0.077896245
0.07957151 0.08846044 -0.015148756 -0.11476945 0.09073628 -0.0661102 0.09015716 0.026198098
0.096310586 0.023424208 0.05342947 -0.09123312 0.09167016 -0.03279241 -0.04847315 0.0040558097
0.038841765 -0.03746192 -2.3810673e-05 -0.08470669 -0.08049643 0.06475859 0.027455661 0.09461177
-0.005594051 0.083261356 0.10426725 0.02810278 0.08686412 0.036615293 0.037537143 0.13317041
0.045189653 0.004858424 0.1266971 -0.09334007 0.011893001 0.09938293 -0.021497877 -0.02981526
-0.08296052 0.065464765 -0.09463438 0.12296226 -0.034637544 0.0002346175 0.025474925 -0.06273936
-0.02612412 0.009356475 -0.038540114 -0.09429796 -0.0035764365 0.04375689 -0.060603593 -0.04033615
-0.02512621 -0.04011204 0.11874885 0.043082394 0.045450754 -0.068559 -0.033398498 -0.056078073
-0.08052937 -0.037070364 -0.0146301715 0.07444144 0.049621962 0.109253176 -0.11093845 -0.09631466
0.0075671053 0.012950065 -0.09772492 -0.022787193 0.0492188 0.09327999 -0.033696227 -0.08920598
0.13063969 0.118556164 -0.026371881 -0.0672622 0.08805226 0.0020272804 -0.040358685 0.13398379
0.08645991 0.10188331 0.058660787 -0.047912844 -0.07125904 0.09206769 -0.020050991 -0.088552736
-0.0011635124 0.06601941 -0.027277961 -0.0047702747 -0.10277298 -0.0014479836 0.014564497 -0.10193975
-0.05893577 0.071682006 -0.06487518 -0.11090869 -0.021628473 0.115942694 0.0073987753 0.03565381
-0.07957977 -0.06455161 -0.09194656 0.04384432 -0.04103445 -0.08071871 -0.055348113 -0.008342426
-0.09638218 0.067473896 -0.024338234 -0.06818545 0.05096777 -0.036828462 0.06910977 0.045022544
-0.049463365 0.059211466 0.09910991 -0.008953114 -0.13019298 -0.051437616 -0.036661506 0.09161107
-0.0689566 -0.07356789 0.036573756 0.008428635 0.12610736 -0.056917198 0.13038129 -0.0971352
-0.012943253 -0.096699886 0.11066864 0.012873401 0.035208147 0.09183769 -0.08029535 -0.080610044
0.1212632 0.030215833 -0.02665783 0.022348097 -0.068627775 0.025157927 -0.06219901 -0.07127757
0.07658295 -0.045388214 -0.0133740995 -0.020049244 -0.070531435 0.023416309 0.062333435 -0.11062079
-0.05147312 -0.055487115 0.0075114416 0.111857265 -0.07102633 0.11081537 0.05547364 0.11805997
-0.038746707 -0.00628066 0.07112287 0.012082946 0.014425743 -0.10274313 -0.07879954 -0.019630231
0.084780306 0.102873504 0.02858878 0.055324607 0.014898588 -0.0066795712 0.043532155 0.05223497
0.060237106 0.05267673 0.076266795 -0.12640186 -0.104834415 0.0056818337 0.068734095 -0.04414742
-0.097046584 -0.08866734 -0.092418134 0.066290334 -0.12006851 -0.12474775 -0.031919666 -0.055944316
0.040771715 0.11482566 0.099294566 0.013573139 -0.051561568 -0.065271966 -0.07020394 0.04567554
-0.056842532 -0.10889282 -0.04266688 -0.030701926 0.023658464 -0.05186732 0.031650685 0.051520243
-0.106948555 -0.11816529 0.11908828 0.00023259578 0.084386446 0.15409407 -0.03970826 0.024308411

lstm.bias_ih_l1 f4 [256]
00000000: 1c8f 1c3e cdca a03d d875 163e dcf4 ca3c
00000010: acc8 043e dd8e 143e 0895 553d 0a42 afbc
00000020: 1244 9c3b 12cc fd3d 43eb 5b3e 2242 6d3e
00000030: 2b29 0d3e 6e32 98bd f9b4 de3d 9a82 373e
00000040: 01e2 2c3c e446 3b3e 0bfb 2f3e 4af1 f73d
00000050: b243 2f3e 5d2b 8b3c ba2c 26bb a292 2abd
00000060: 5603 673d b90d 0d3c 0844 cb3d ded9 e13d
00000070: b753 e33b a67f f43b a002 573e e131 213e
00000080: b5a1 1abd aee0 fa3d 0d96 5f3d a089 503e
00000090: c162 9c3d 2b20 a03d 21fa 9ebd c985 a43d
000000a0: 33c9 4abc 2f42 973c 6843 a1bb 0b1b 223e
000000b0: c542 bf3d fc32 eb3c a842 7d3d 37cd f13d
000000c0: 6490 0d3e 5e85 66bd 6156 d3bc 899a 483e
000000d0: afa8 533e a62b 7f3d 314f 9eba 9ece 66bc
000000e0: 7f9b 743d f9d7 f13c 9ebc d33d 6aca 0e3e
000000f0: 1d92 0a3e c8fd d73d f857 d73d 332f 4e3d
00000100: 57ac 1e3d 3d45 6cba d68f bb3d e8d3 49bd
00000110: 670f a2bd 8248 7e3d ffe3 12be 11cc f5bc
00000120: 8c2b abbd f7b9 04bd 385c f2bc 4c49 35be
00000130: b3cf edbc 20ac c6bd e4f9 ecbd 97f1 b33d
00000140: e878 04be 40b6 c3bd 292a b43d 9bfd 20be
00000150: 28a5 0fbd 98ec 25be bdc6 973d 2a68 b6bd
00000160: de00 ccbd c6a1 a1bc e018 7ebd a0a1 ca3d
00000170: 59e9 303d fa8d 17bd 2470 4ebd 96dd 90bd
00000180: 1ebf 0e3d 0bf6 863d ae32 b23c e6de 6dbd
00000190: c0cf c23d b00c 313d fc12 6d3d c6e6 d0bd
000001a0: 7e13 9dbd f039 903a a674 f4bd 1815 363d
000001b0: 82d7 85bc 433c 86bd 2860 edbc b117 c2bd
000001c0: a920 63be 2af6 ab3c 86e0 dd3c be1c 13be
000001d0: 517e 9cbe 723a a7bd 3fe0 6ebd 9ba3 f4bd
000001e0: 1c03 0ebc e750 b2bc cdf4 63be 3ddf 303d
000001f0: 3403 803d 4abc 03be cb11 c13d 1ab0 83bd
00000200: ed2b 00bd 4980 4ebd f800 963b 9d02 9f3d
00000210: a5ab 9f3d 8623 493c 535a 5fbc c1f8 f8bc
00000220: 1166 fd3c 3723 e53d b3f0 61bd a186 203d
00000230: 4329 cdbd b21f 8ebd 5cc4 d6bd 588e 41bd
00000240: 7543 ba3d ec1e 1c3d 4481 f2bc 5c50 a8bd
00000250: 2356 433d 3027 ae3d 2807 ee3d 5f9e 963d
00000260: 0c68 e53d ca13 06bd 68ff 13bd 8c3a 8b3c
00000270: 88c8 3bbd 7632 6b3d ee37 82bd 7388 ecbc
00000280: 5685 203d e711 0bbd 862c cb3d cea8 8ebd
00000290: a6d8 a73b 9ae7 81bd 5e9d 5dbd 554e 643d
000002a0: 8ff1 bbbd 3f92 893d 649d 7a3d 238b 2d3d
000002b0: f8b4 543d 8ddf a33d 4528 19bd e2cc 07be
000002c0: 8efd af3d f78c 563d c5c6 0f3d f098 363d
000002d0: d62b a93c c739 debb 7cf5 cabb 0ce7 09bc
000002e0: 4693 013c 56d2 553d ea87 4e3c 322d abbd
000002f0: 4006 a43d 705c 1c3d 970f c4bd 4645 99bd
00000300: 60a0 2c3d 045d 383d 9284 d33c d1d9 9b3b
00000310: f3f9 91bd 6dce 073e 3ed7 223e c4bf 20bd
00000320: 0c85 883d 620d 883d e3a6 f03d 1dce 303d
00000330: 4dea 0b3d dd4b b6bd 2677 d53d a732 cfbc
00000340: c45e 673b 1246 a3bc e911 e93c c868 723d
00000350: 0da6 153d 672a c53d 1968 79bd fb66 fb3d
00000360: b0e5 f33d 967d 203d 6dec bd3d ba92 d83d
00000370: a21d b43c 4bcb 2bbd 65e6 7c3d 605b af3c
00000380: 85a8 183e 9d60 0dbd 1ad1 973d 37da 193e
00000390: f7b8 18bb de5d 4c3d 83af 99bc b67e 8fbd
000003a0: 1095 833d 3ac0 d43d 99a1 68bd e50b 473e
000003b0: f229 683d a14a 423e 5e9c 68bd 2315 d33d
000003c0: 2f7d 5f3e c2bd 0bbd c31d 253e 98d6 b83d
000003d0: 5d53 123e ad44 c7bc 1a09 c73d 9679 5d3d
000003e0: 0cf7 033d 6d83 d13d 1ac4 9e3e d0a5 05bb
000003f0: 2174 8b3d a5bd 5d3d a69b 8a3d d394 dc3d
0.15288967 0.07851181 0.14693391 0.024774961 0.12967175 0.14507623 0.05214408 -0.021393795
0.004768857 0.12392439 0.21476464 0.23169759 0.13785236 -0.07431494 0.108743615 0.17920914
0.01055193 0.18288761 0.17185609 0.12106569 0.17115667 0.01698845 -0.002535625 -0.041643746
0.056399666 0.008609229 0.09925085 0.11027883 0.00693747 0.007461506 0.20997095 0.15741684
-0.037751872 0.122498855 0.05458646 0.20365 0.07636023 0.078186356 -0.07762552 0.0803333
-0.012377071 0.018464176 -0.0049213655 0.15830629 0.09338907 0.028710835 0.061831146 0.1180672
0.13824612 -0.056279533 -0.025798025 0.195902 0.20669816 0.062297486 -0.0012078044 -0.014087347
0.059718605 0.02952193 0.1033871 0.13944402 0.135323 0.10546452 0.105148256 0.05033798
0.038738575 -0.0009013003 0.09158294 -0.049274355 -0.07913094 0.062080868 -0.14344786 -0.030004533
-0.08357915 -0.032403912 -0.029584989 -0.17703742 -0.029029703 -0.09700799 -0.115711 0.08786314
-0.12936747 -0.09556246 0.08797104 -0.15721743 -0.035069615 -0.16203535 0.07410953 -0.089065865
-0.09961103 -0.01973046 -0.06203544 0.09894109 0.043191288 -0.037000634 -0.050399914 -0.07073514
0.034850232 0.06589898 0.021752682 -0.0580739 0.095122814 0.04322499 0.057879433 -0.102002665
-0.076697335 0.0011003595 -0.119363114 0.04445371 -0.016338114 -0.06554463 -0.028976515 -0.09477175
-0.22180428 0.020991404 0.0270846 -0.14366433 -0.30565122 -0.081654444 -0.058319326 -0.11945268
-0.0086677335 -0.021767093 -0.22261353 0.043181647 0.06250611 -0.12864795 0.09427222 -0.06430073
-0.03129189 -0.05041531 0.004577752 0.0776417 0.077964105 0.012276536 -0.013632375 -0.030392053
0.030932458 0.11188357 -0.05516119 0.039190892 -0.10017636 -0.06939639 -0.10486671 -0.04725489
0.09094898 0.038115427 -0.029602654 -0.08218452 0.04768957 0.08503568 0.11622459 0.07354426
0.11201486 -0.032733716 -0.036132246 0.01699569 -0.04584554 0.05742117 -0.06358324 -0.028873658
0.03918966 -0.03395262 0.099206015 -0.06965791 0.005122262 -0.063430026 -0.054105155 0.055738766
-0.09176933 0.06717347 0.061185256 0.04236902 0.051930398 0.08001623 -0.03739192 -0.1326175
0.085932836 0.05238053 0.03510167 0.044579446 0.020650785 -0.00678179 -0.006193815 -0.008416902
0.007908648 0.052202545 0.012605647 -0.0835823 0.080090046 0.038174093 -0.09573286 -0.07483916
0.042145133 0.04501058 0.02582005 0.0047561903 -0.07127752 0.13262339 0.15902421 -0.039245382
0.06666002 0.066431776 0.11750581 0.043165315 0.034158994 -0.089011885 0.104231164 -0.025292708
0.0035304287 -0.019930873 0.028450923 0.05918196 0.03653531 0.09627228 -0.06089029 0.12275501
0.11909044 0.039182268 0.0927361 0.10574861 0.021986786 -0.041941922 0.06174316 0.021405876
0.14908035 -0.034515966 0.0741293 0.15024649 -0.0023303607 0.049894206 -0.018760448 -0.0700659
0.06424916 0.10388227 -0.056794737 0.19438131 0.056680627 0.18973781 -0.05678975 0.10306766
0.21825098 -0.034116514 0.16124634 0.090253055 0.14289613 -0.02432474 0.09718533 0.05407103
0.032218024 0.102301456 0.3100899 -0.0020393021 0.06809259 0.054135937 0.06767969 0.107705735

lstm.bias_hh_l1 f4 [256]
00000000: 2c0c e23d dd81 19bd d276 5abd 623c debc
00000010: 2168 69bd df1b 4e3e 9a2a e63c dafe ca3d
00000020: 167c 3f3e 1d8e 8cbd 0831 4a3e c4c0 183e
00000030: f35c 053e cd8d 8b3d e244 f23c f620 0bbd
00000040: 7ddf 873d fc2d 033e e61f aa3d c550 bf38
00000050: 4fbd 0cbb d5f3 943d f881 22bb 4d31 a3bc
00000060: 2f58 de3d b7c5 73bd 8747 163c c6fb c5bc
00000070: 87a9 8bbc 4e14 9b3d a2af 1c3e 6f8a a93d
00000080: 4899 9b3d c19a 213e e9bf 8e3d a287 e63d
00000090: 1ac5 86bc be2a 0fbd 8d28 cd3c 35cc 68bd
000000a0: 21f0 023e 2634 ea3d 713c 54bd 740c 4b3e
000000b0: 543f 633d 0b49 123d 3945 bdbc baa0 113e
000000c0: 640f 6d3e 9f45 0a3e 5b3e 253e 7578 acbc
000000d0: 7229 f53d 2e2a 363e d9d1 223e a400 283e
000000e0: 60f1 513e 4502 023d 2c67 903e 0ec6 243d
000000f0: c1e1 3e3e 100c 393e af3a 01bc b797 b83c
00000100: f943 e1bd 00bc 3e3d 7974 c0bd 6757 8ebd
00000110: d135 c9bd 6f6f 0fbe 6cf0 f1bd 0f2f cbbd
00000120: 8a0f 0fbe 7239 86bd 6ae6 dabb 2348 29be
00000130: 641a 58bd c4c4 02be 7ef8 00bc be75 85bd
00000140: fb3a 27be 279c ce3d 962a 1dbd 5393 d63b
00000150: de9a 09be e2c2 1abe 1f39 eabd f37f 3f3d
00000160: db97 1ebe c7ed 8fbc eff4 b4bb 5cba a0bc
00000170: 2ca2 acbd b719 0ebe 4ddf 453d 6e64 aa3c
00000180: 19af 0c3d 78d2 bfbd c3d0 a93c c12c b4bd
00000190: 5008 903d e3b7 05be 1c4c 9e3d 0e89 0fbe
000001a0: b349 ea3b baf6 8d3d 503c e13d 4c50 f5bd
000001b0: 08dc c53b 3197 70bd 8468 5a3d 025d 5fbc
000001c0: 574d 60be 01ab 66bd 6bfd 2abd 8199 36bd
000001d0: 215b 75be 7952 2ebd b4bd c0bb 907a b7bc
000001e0: 5616 0abe 67bd 17be ba82 3abe 45da 823d
000001f0: c119 54bc 53c3 09be 8e54 e1bd 0b97 7f3d
00000200: 860b b8bd 9036 51bd dd28 ea3d d7e5 8b3d
00000210: 67ed eabc 2583 09bd 12f3 4ebd 240a 02be
00000220: 5ebf e8bb 0e6f 823d c941 c5bd 940e 04bd
00000230: 7770 3b3d aaed fbbd 44a2 0fbc d364 343d
00000240: ccda 413d 4f0a 463c 6a79 523d 2811 1a3c
00000250: f508 c53d d312 3ebd e85b b9bd d906 bebd
00000260: 7647 623c 38cb 073d 420e 213d 891d b83c
00000270: 9194 7bbd 969a 14bc eef1 6f3b e693 b9bc
00000280: 22b7 1abd f612 0dbe 8487 42bd f65e 85bc
00000290: 5d77 783d a5ae 65bd 029c dc3d 6a95 a73d
000002a0: 8767 8c3d 159e 5bbd 0fb8 d9ba 6289 50bb
000002b0: 1e03 f8bd ecc4 fb3b ea7b 30bc 97d0 b53d
000002c0: 2db7 1d3b 87f0 aabc 3791 173d f475 c4bd
000002d0: 5531 213d f239 613d 7890 b6bd bbd1 2fbd
000002e0: d736 13bc eee9 473d 05d1 e03c bfbd e739
000002f0: 6868 b5bd bb07 533d 2562 e83d d3b8 993d
00000300: 4652 09bd c38c aa3d 1ef7 063e bc35 ce3d
00000310: f22f 7a3d d8bc 4a3d 268c 453e dbd3 68bd
00000320: 9645 683e b0ae a13d a0c7 473e be93 bd3b
00000330: 7def 203e f202 883d 7ae4 c8bc 7442 113e
00000340: dc54 803b 7376 8bbd d6e8 983d 17f0 193e
00000350: 8e5f 9abc e38b ce3d d3ac b1bc 261d de3d
00000360: 700d 263e 4bdf e23d 2e7e 353e 20b9 643d
00000370: e57a a53d 75d1 073c 0046 233e bc2e 2b3d
00000380: b272 8d3d 84f8 0e3e d584 353e 9afa 133e
00000390: 9a64 113e 2a37 243e d464 91bd 2696 87ba
000003a0: 2b84 053e 0cc9 cb3d fc01 d33d 7761 70bc
000003b0: 6151 22bd f5bf b0bb 3a21 29bd da5a 3b3e
000003c0: a97f 1f3e 8828 933d aeb6 ccbc ab50 363e
000003d0: d06b 9f3e 8c9e ea3d adee 323e ccfe 0c3e
000003e0: de50 d2bb ff01 5b3e 1e74 883e 9e92 4a3e
000003f0: 4382 c53d f5a6 1cb9 2a03 6c3d a494 8d3c
0.11037478 -0.037477363 -0.053335972 -0.027128402 -0.05698407 0.2012782 0.028096486 0.0991189
0.18699679 -0.068630435 0.19745266 0.14917284 0.13023739 0.06814156 0.029573862 -0.03396698
0.06634424 0.1281051 0.083068654 9.122634e-05 -0.0021475141 0.0727307 -0.0024796706 -0.01992097
0.108566634 -0.059514727 0.009172327 -0.024167906 -0.01704861 0.07572232 0.15301374 0.08278357
0.075975955 0.1578169 0.06970198 0.11256339 -0.016451407 -0.03495287 0.02504375 -0.056835372
0.12786914 0.11435728 -0.051815454 0.19828969 0.055480316 0.03571419 -0.023104297 0.14221469
0.23150402 0.13503121 0.16137068 -0.021053532 0.11970796 0.17789528 0.15900363 0.16406494
0.20502234 0.031740446 0.28203714 0.040227942 0.18640806 0.18071008 -0.007887526 0.02253328
-0.10999293 0.04656601 -0.093972154 -0.069502644 -0.09824718 -0.14007352 -0.11813435 -0.09921085
-0.13970771 -0.065539256 -0.0066802995 -0.16531424 -0.052759543 -0.12770373 -0.007871745 -0.06516598
-0.16331093 0.100883774 -0.03837069 0.006548324 -0.13437983 -0.15113404 -0.11436676 0.04675288
-0.15487616 -0.017569436 -0.0055223624 -0.019620113 -0.08429369 -0.13876997 0.04830866 0.020799842
0.034346674 -0.093663156 0.020729428 -0.08797599 0.070328355 -0.13058428 0.077293605 -0.14017126
0.007149899 0.06931825 0.10997832 -0.11978206 0.0060381927 -0.058737937 0.05332233 -0.013633015
-0.21904503 -0.056315426 -0.041745584 -0.044579986 -0.23960544 -0.04255912 -0.0058819894 -0.02239731
-0.13485083 -0.14818345 -0.1821393 0.06389288 -0.012945593 -0.13453417 -0.11002456 0.062399905
-0.08986573 -0.051077425 0.11433575 0.06830948 -0.028677655 -0.033572335 -0.05052478 -0.12699181
-0.007102891 0.06368838 -0.09631688 -0.032240465 0.04576155 -0.1230119 -0.0087667145 0.044041466
0.0473278 0.012087419 0.05138532 0.009403504 0.09620849 -0.04640467 -0.09050733 -0.0927865
0.013810983 0.03315279 0.039320238 0.022475021 -0.06142098 -0.009070059 0.0036612707 -0.022653531
-0.037772305 -0.13776764 -0.04749252 -0.016280632 0.06066071 -0.056074757 0.10771944 0.08182795
0.06855684 -0.053617556 -0.001661064 -0.0031820168 -0.121099696 0.007683387 -0.010771731 0.08877676
0.002406548 -0.020866646 0.037003722 -0.0959281 0.039353687 0.0549869 -0.08914274 -0.042924624
-0.008985243 0.048807077 0.027443418 0.00044201125 -0.088578045 0.051521044 0.113468446 0.075059555
-0.033525728 0.083276294 0.13180205 0.10068843 0.06108088 0.0494965 0.19291744 -0.056842666
0.22682795 0.07894647 0.19509745 0.0057854345 0.15716358 0.06641187 -0.024523009 0.14185506
0.003916366 -0.06809702 0.07466285 0.15032993 -0.018844392 0.10085275 -0.021688854 0.108454034
0.16216063 0.11077746 0.17723915 0.05584061 0.08080081 0.008289685 0.15944672 0.041792616
0.06906642 0.13961989 0.17726453 0.14451066 0.14198533 0.16036668 -0.070993096 -0.001034443
0.130387 0.09950456 0.10303113 -0.014671675 -0.03962839 -0.005393977 -0.041291453 0.18296376
0.15576042 0.07185465 -0.024989452 0.1780421 0.31136942 0.11456022 0.1747386 0.13769072
-0.0064183315 0.2138748 0.2665109 0.19782493 0.09643986 -0.00014939516 0.057620205 0.017282791
