Results/lstm_sine.pth (torch, 223343 bytes, 12 tensors)

lstm.weight_ih_l0 f4 [256, 2]
00000000: 4a4d 15be f867 d3be 715e 283e c7d9 9c3d
00000010: 6571 783e da8e 023e 1c43 98be 167f 023e
00000020: 34d8 06bd 1f3e 2fbe 7b23 eebd 703d 363d
00000030: cb13 0dbe 4388 813d 25fd 10bd 14e1 173d
00000040: 2c09 b83d 7726 e43d 915f d83c 9318 e0bd
00000050: 5178 f2bd 54ff b93c 7a3b 79bd 9a66 cdbd
00000060: 9ba1 babb 91a9 d0bd e5ea 8b3e 9b16 02be
00000070: 7f5b ac3e 0ba0 74be 7832 043e 25b6 3fbd
00000080: c6b8 09be e820 84be e12e 813d fa32 95bd
00000090: ac59 883d f3b7 f23d 367a 61bc 74fa 913d
000000a0: f399 f13d a49a 013e 5bce 4fbd db42 4c3d
000000b0: 1166 e2bd 10bf fdbd 7512 d43d 574c 1d3e
000000c0: 150c 0d3d 6502 143e 6c97 54be 509c 913e
000000d0: 20a8 6abe d70f 623e 5a6c 443e d885 e3bc
000000e0: 0e51 0f3e 935d 8c3d 3a6d 72bb 5a10 d63d
000000f0: 14c7 41bc f8b6 3ebe acb1 fa3d 1d74 d0bd
00000100: b99b 5e3d 3adb 183d ee25 6f3e 4f9e 083e
00000110: d931 f03d fe48 3fbe 7157 9fbd a57e a43d
00000120: 4898 983d 572e 043e bcfb a6bc 1b72 e3bd
00000130: 1f67 a93c 6ae0 5d3c 050c 8cbd 54f1 753d
00000140: 7d62 ba3c 84bd 213e 372b eb3c 5211 5b3d
00000150: 7828 a1bb c651 8f3e fadc bc3d 75e1 273e
00000160: 0716 05bd 95e8 b73d fab0 233d ebfc 10be
00000170: 0288 a13e 1f57 863e 81e3 b0bb 8450 e63d
00000180: 01b4 913d c0f5 5c3e d8ea 213d 750c 84bc
00000190: 9cf2 02be 8a61 383e 1e5b 1bbe 11f0 5fbe
000001a0: 6a7a d1bd 19d4 6bbd 5a54 bbbc a4ef f93d
000001b0: 8c64 c5bd 0ad7 7dbd d3da da3d 0b7c 07bd
000001c0: a203 8cbe 04a0 18be 8ffc e03d f4d3 6abe
000001d0: 487b ebbd 3a4a a33d 4c40 163e 01c9 f53d
000001e0: 5246 df3c 13f3 d9bd 39f5 31be 9b90 c93d
000001f0: a20c be3d 4a90 13be fe11 19be dae5 103e
00000200: 4376 5f3c ce4a f1bd deba d03d d785 a23d
00000210: 65c1 bc3d 2350 033d a079 cabd 0320 213e
00000220: 94de 4f3c 91e4 2a3d c91d 19bd 6bf6 3cbc
00000230: 2e72 c8bc 018f b73c dadc b13b 2d9d 08be
00000240: c83e d4bd 28bb 5fbc 3292 c03d c86e 1c3c
00000250: 54da c83d 5f16 d23a b449 ea3d 45e3 9a3d
00000260: 21c3 d5ba 6881 7dbd 9750 f93d bf78 da3d
00000270: b62b 2d3e 3b58 2a3d 1dda b63d 19a6 ca3d
00000280: c0bc 793d b293 2f3d 5880 8b3d 77c9 c2bc
00000290: 0885 ae3d 7333 143e e309 ff3c bfbc 213c
000002a0: 434a 443d 5e9a 6ebd 8e4c fdbd e07b a2bd
000002b0: dee1 16be 26ea 5abc bd78 b13d 06eb 9ebd
000002c0: 76c2 3ebd 97cc 94bd 5055 c8bd f096 983d
000002d0: 7a4b e2bd da4a f53d c4fb 0d3d 8b61 72bc
000002e0: 8553 193c f837 b83d 8b5b 923d 8fee 83bd
000002f0: aa71 b7bd 63c9 86bc 68e4 9fbd 3261 d1bd
00000300: 5d1b 003d 3dd8 3d3d c60d f33d d57e 243d
00000310: 194b 013e ac99 6dbd 2e03 15bd 9073 013e
00000320: 8ae1 d9bd 0de7 b0bd 8569 9b3d 06b3 33be
00000330: 9bd9 d53b c6aa 8bbd 280a 2fbd 42bb cdbd
00000340: f12a 78bd 5bd6 8e3c f85e 79bc 9dd2 f13c
00000350: 8c8e 04bc 1cc1 a4bd 3cfb 87bc 81fb 7a3b
00000360: 4746 183d 96a6 4dbd 9b09 18be 815d bfbd
00000370: 2337 603c 2e00 e23d 063e f4bd bdf8 62bd
00000380: a9de ccbd d2e9 a1bd cae9 febd 819e 33bd
00000390: 0c26 353b 6c43 a63d 39e8 743c eee1 9abd
000003a0: e600 b23d 54a2 08bc d7b7 e83d db2d 993d
000003b0: c863 bc3d 507d 03be d5a4 09be 9bbd 5abd
000003c0: a8f1 91bd 1d5f babc a3d4 6bbd e48c 11be
000003d0: 1b1d f1bc 9e28 c03c 7dad d2bd 5b31 a23d
000003e0: 5d1d 113d a807 7abb c35d 973d 0770 32bc
000003f0: 04a2 dc3d 0122 373d 148a ffbc e3f2 abbc
-0.14580265 -0.4129026 0.16442277 0.07658725 0.24262007 0.12749806 -0.297387 0.12743792
-0.03292103 -0.17113541 -0.11627861 0.044492185 -0.13777082 0.06324818 -0.035397667 0.037079886
0.089861244 0.11140149 0.026412757 -0.10942187 -0.11839355 0.022704758 -0.060847737 -0.10029335
-0.0056955344 -0.10188592 0.27327648 -0.12703936 0.33663556 -0.23889177 0.12909877 -0.046804566
-0.13449392 -0.25806355 0.063077696 -0.07285114 0.066577286 0.11851492 -0.0137620475 0.07127848
0.117969416 0.12656647 -0.050733905 0.049868446 -0.11054624 -0.12389958 0.10355083 0.15361153
0.03443535 0.14454038 -0.20760888 0.2843957 -0.22915697 0.22076355 0.19181958 -0.027773783
0.13995764 0.06853785 -0.0036991374 0.104523376 -0.011827249 -0.18624485 0.122409195 -0.10178397
0.054347727 0.037318446 0.23354313 0.1334164 0.11728258 -0.18680188 -0.0778035 0.08031968
0.0745092 0.12908302 -0.020383708 -0.11105748 0.020679055 0.013542274 -0.0683823 0.0600446
0.022752041 0.1579495 0.02870713 0.053483315 -0.0049181543 0.27992076 0.092218354 0.16394599
-0.03249171 0.089799084 0.0399637 -0.1415898 0.31549078 0.26238343 -0.0053982143 0.11245826
0.07114411 0.21578121 0.039530605 -0.016119221 -0.1278786 0.18005958 -0.15171477 -0.21868922
-0.10228427 -0.05757532 -0.02286737 0.12203911 -0.096383184 -0.061972655 0.10686269 -0.03307728
-0.27346522 -0.14904791 0.10985672 -0.22932416 -0.114981234 0.07973142 0.14672965 0.12001229
0.027255211 -0.10642066 -0.17378701 0.098420344 0.09279753 -0.1441051 -0.1494827 0.14150181
0.013639036 -0.11781846 0.10191892 0.07935684 0.092165746 0.032058846 -0.098864794 0.15734868
0.012687344 0.041721884 -0.03738192 -0.01153336 -0.024468508 0.022407057 0.005427939 -0.13341208
-0.10363537 -0.013655461 0.094028845 0.009547897 0.09807268 0.0016028396 0.11439839 0.075628795
-0.0016308763 -0.06189099 0.121735744 0.10667562 0.16911206 0.04158805 0.089283206 0.09894962
0.06097102 0.042865463 0.06811589 -0.023777707 0.085214674 0.14472751 0.031132644 0.009871661
0.047922384 -0.058252685 -0.12368117 -0.079337835 -0.14734599 -0.013361489 0.08665607 -0.07759671
-0.04657217 -0.07265585 -0.09781897 0.07450664 -0.11049552 0.119771674 0.03466393 -0.014793764
0.0093582915 0.0899505 0.07146367 -0.06441986 -0.089572266 -0.01645345 -0.07807237 -0.10223617
0.031276096 0.0463488 0.118678614 0.04016002 0.12626304 -0.05800788 -0.036379986 0.1264174
-0.10638721 -0.086378194 0.07588486 -0.17548761 0.0065261847 -0.06819682 -0.042734295 -0.10045482
-0.060587827 0.017436197 -0.015220396 0.029519374 -0.008090626 -0.08044645 -0.01659929 0.003829688
0.037176397 -0.050207697 -0.14847414 -0.09344006 0.013685021 0.110351905 -0.119258925 -0.055412997
-0.100034066 -0.07905926 -0.124469355 -0.043852333 0.0027641086 0.081183285 0.014947944 -0.07562624
0.086915776 -0.008339483 0.1136319 0.07479449 0.09198719 -0.12840772 -0.13441785 -0.053403478
-0.071261704 -0.022750432 -0.057575833 -0.14213902 -0.029432824 0.023456868 -0.102869965 0.0791957
0.035428394 -0.0038151536 0.073909305 -0.010890967 0.107730895 0.044710163 -0.03119377 -0.02098984

lstm.weight_hh_l0 f4 [256, 64]
00000000: 1bf8 b63d 061c 9bbc 6bb3 e4bc ae66 d7bd
00000010: 518a 203d 9bfe 00be c9bf 763d bd65 00bd
00000020: 2d84 2b3c 86c0 8cbd d295 6fbd e01d 683e
00000030: 3cea 42bd 3e0d 5d3d d4ac 143d 783a 6dbd
00000040: 4fd2 a23d 4012 a3bc 7978 bf3d 23ae 39bd
00000050: 9375 d73d 9bd4 513c 37f6 cfbd 1a33 a9bc
00000060: 69f4 12bd b024 06be 493f dfbd e98c b43b
00000070: ac3d b43d a0a1 71bd 4b71 343d 85c3 e23d
00000080: c266 ecbd db78 23bd 2d58 803b 8525 ee3d
00000090: 0f03 563d 0e83 0e3b af22 bc3d f907 8cbd
000000a0: 2335 85bc 7ddd 46bc 7159 15be a0ec a23d
000000b0: 3223 3c3c d65f 6fbc 3484 acbd a75f d3bd
000000c0: db92 86bd da8e 60bd 3e84 f23d b7d4 d0bd
000000d0: 7033 c5bd d47d 1dbd c01c fbbc 1a08 113d
000000e0: a5ab ac3d 95a9 f9bc b91d e1bd 4579 053e
000000f0: 4138 113d b002 bcbd 3dfc ebbb 8b7c a53c
00000100: e494 993d af0d a7bd b486 c5bb bc23 83bd
00000110: f2e2 9cbd 28fd a7bd c050 a8bc 74eb 353b
00000120: 5725 98bb ecf4 d6bc 4e56 9d3d 32de b8bd
00000130: ae2d bdbd 4056 d1bb 7aa4 c43d 6ef1 2abd
00000140: b850 9b3c e848 abbd c869 373d b95c 4abd
00000150: 81ab af3c 169b d8bd 5893 bbbd 6088 003e
00000160: 3e6f d73c 3047 4fbd a640 e03d 5c6b 49bd
00000170: 2ae3 7bbd 7628 833d 4517 4b3d 132b cebd
00000180: 10bd f6bc 1948 a23c 2ec2 c7bd 57fd 6d3d
00000190: fdde fd3d b3c2 03bd a559 093c 1bad 043c
000001a0: 9878 853d a92c 9bbd d658 043e 1670 69bd
000001b0: 9641 8abd 8668 983d 1cc7 e13c 99a7 5ebd
000001c0: 5d84 c93d 2366 c9bd 0990 b43d 702d e63d
000001d0: c661 da3b 0a1d b4bd 5d76 883d ea1a b83d
000001e0: 8497 30bc 6de3 8b3a 0130 b93d fd91 d9bc
000001f0: eef2 97bb 288a aa3d 37c5 80bd aa87 5abd
00000200: 611f f4bc ea0f 193d cc7a d1bc 1b1e 32bd
00000210: 63e7 01be 904e 813d 33d0 6c3d 8369 34bd
00000220: b8b1 63bd 70bf 373c a565 1abe f70e bf3c
00000230: 7ea1 0a3c 545a a53d 40d6 65bd 271d 27bd
00000240: 70e7 5e3d 640f 9cbc 08a4 153e 0e3e 8fbd
00000250: 4598 b4bc da18 33be 946c 5a3c b02d 033e
00000260: 41c9 133d a0ab f6bc 4068 b23d 1332 d53d
00000270: e0c1 c23c a8c7 283c d2a7 13be 1dd7 7cbd
00000280: cc62 f53d f22f d23c 4198 903d ac23 863d
00000290: 73f1 c23c 7485 b63c 1c0e cbbd 6e67 f1bc
000002a0: e3b6 86bc d4e1 25be 389a 82bd 16f9 023e
000002b0: cff8 383c 8759 b43d 9877 91bd 53f6 b63d
000002c0: 4622 9ebc 6764 a53d d7d4 9dbc 16de e53c
000002d0: b678 0bbe 3fce 3e3d 9b56 0bbd 6e4c fb3b
000002e0: d61d 643d 2a3b 883d 219f e83d fb4e 9a3d
000002f0: 9e6e dfbc bdcb f33d 5f07 c6bd d9ff 493d
00000300: adad ac3c 84ef 5bbc 76b6 f2bd d1d9 0f3c
00000310: 28f2 d6bc 0cb4 34bd fd48 4a3d 746c b63a
00000320: 408b 97bd 0f24 cb3d 50b1 92bd bb90 ed3d
00000330: 6e2a b0bd dd3d a33d 8e36 9b3d dbc1 7c3d
00000340: b16a 743d cdfd 50bd f37d 80bc e57d 0a3e
00000350: 69a9 04be 4c47 803d 6b8e 403d d13a 6f3d
00000360: 885b dcbd 1842 71bd 6cfd b7bd afe1 043d
00000370: 53a4 d4bd 910e aabd 72f5 bd3d ecb3 c33d
00000380: 857b a13d b302 42bd 480a 163d 0095 d23a
00000390: efff 71bd aae0 0a3e b538 2dbd b387 1d3c
000003a0: 6394 d1bd e38e 2c3d 6879 a0bd 92ac f3bd
000003b0: 9d39 473d 0166 cb3d 634a 6c3d bc3e 76bd
000003c0: ff77 203c 6d26 5abc cec9 c0bb 042d a3bc
000003d0: 63af 13bd 44f0 d23c 3a61 e8bc af66 ae3d
000003e0: 9503 acbd 2672 ff3d f93c e9bc 3229 98bd
000003f0: 1fb3 9dbd 5f6f c6bd 0290 0bbd c2dd 9f3d
0.08934041 -0.018934261 -0.027917584 -0.105176315 0.03919441 -0.12597124 0.060241494 -0.031347025
0.010468525 -0.068726584 -0.05849249 0.22667646 -0.047586665 0.053967707 0.036297634 -0.05791709
0.079502694 -0.019906163 0.0934915 -0.045332085 0.105204724 0.012807037 -0.10154384 -0.02065425
-0.03587762 -0.13099933 -0.109007426 0.005509962 0.088008255 -0.05899203 0.044053357 0.11072449
-0.11543037 -0.03991018 0.0039167614 0.1162825 0.05224901 0.0021745595 0.09186303 -0.06837458
-0.01626069 -0.012137768 -0.145849 0.07955289 0.011483001 -0.014610251 -0.08423653 -0.103209786
-0.06570979 -0.054823734 0.118416294 -0.10196822 -0.096289515 -0.038450077 -0.030653358 0.035408117
0.08431176 -0.03047637 -0.10991997 0.13034542 0.03545404 -0.091802 -0.0072017 0.020200988
0.07499102 -0.08156907 -0.0060280208 -0.064033 -0.07660474 -0.082025826 -0.020546317 0.002775875
-0.004643123 -0.026239835 0.07682477 -0.090267554 -0.09237228 -0.0063884556 0.09601684 -0.04173415
0.018959388 -0.08363515 0.044778615 -0.049404833 0.021444084 -0.10576455 -0.09158963 0.12552023
0.026298162 -0.050605 0.10949831 -0.04917465 -0.061495937 0.06404202 0.04958274 -0.100668095
-0.030119449 0.01980977 -0.09753834 0.05810293 0.12396047 -0.0321681 0.008383189 0.008097912
0.06517142 -0.075768776 0.12924513 -0.05699166 -0.06750791 0.07441811 0.027560763 -0.054359052
0.098396994 -0.09833934 0.08816535 0.11239135 0.0066644875 -0.08794601 0.06663201 0.089895085
-0.010778312 0.0010672637 0.09042359 -0.02655887 -0.004637114 0.083271325 -0.06287616 -0.053352036
-0.029800119 0.037368692 -0.02557125 -0.043485742 -0.12685923 0.06313813 0.05781574 -0.044045936
-0.055589408 0.011215076 -0.15077837 0.023322565 0.008461354 0.08073869 -0.056112528 -0.040799286
0.054419935 -0.019050308 0.14613354 -0.06994258 -0.022045264 -0.17489949 0.013331551 0.12810397
0.036080603 -0.030111134 0.0871129 0.104099415 0.023774087 0.010301508 -0.14419487 -0.061728586
0.11981735 0.025657628 0.0706029 0.065497726 0.023796773 0.022280432 -0.099148005 -0.029468264
-0.016444629 -0.16199428 -0.06377071 0.12790331 0.011289789 0.088061385 -0.07102889 0.08933701
-0.019303452 0.08075791 -0.019266529 0.02806 -0.13620266 0.04658341 -0.03401814 0.0076690232
0.055692516 0.0665191 0.113584764 0.075345956 -0.027274426 0.11904094 -0.09669375 0.04931626
0.021078909 -0.013423804 -0.11851208 0.008779959 -0.026238516 -0.04411702 0.049386013 0.001391782
-0.07399607 0.09918987 -0.07162726 0.11599871 -0.08601843 0.07970784 0.07578765 0.061708312
0.05967206 -0.051023293 -0.015685057 0.13524587 -0.1295525 0.06263599 0.04701082 0.0584057
-0.10759646 -0.058900923 -0.08983883 0.03244179 -0.10382905 -0.083035596 0.092753306 0.09555802
0.078848876 -0.047365855 0.0366309 0.0016066134 -0.059081968 0.13562265 -0.04229041 0.009614873
-0.10233381 0.042128455 -0.078356564 -0.118981495 0.04863893 0.09931565 0.05768813 -0.060118422
0.009794234 -0.0133148255 -0.005883432 -0.019918926 -0.036055934 0.025749333 -0.028366674 0.08515679
-0.08399121 0.12472944 -0.028471457 -0.074297324 -0.0770018 -0.09689211 -0.034072883 0.07805969

lstm.bias_ih_l0 f4 [256]
00000000: 5555 013e eab0 043e 8b5b 163e 1e37 203d
00000010: 171b a83c 7e9b 433e 58c0 8c3c c767 1c3e
00000020: 8e08 1b3d e2fc 513d 6c05 8c39 996e 723e
00000030: ce2b 203d fff7 e43c 1638 073e 435c f93d
00000040: 3b7e 4a3e b0eb 0e3e 97a0 1ebd a8a9 ed3d
00000050: 6e24 4d3d ccb9 253c 485c 42bd 0cb8 b63c
00000060: be0d d9ba 95b0 283e d47b 9ebc de3f f03d
00000070: 3f9b 1c3e 5a5d 053e 791b 1a3e 7dde 433d
00000080: c7a5 4cbd 701a fc3d d6a8 d33d b056 ae3d
00000090: c271 203e c14f 5e3e 4d7b 50bd 8be5 c93b
000000a0: 5256 1f3d 7f37 623c 28fe 213e 2d57 e83d
000000b0: ee6d 623d 7548 213d 197f 1dbd 7a31 f23d
000000c0: 3deb ddbc 5edd f13d 7e6e 0c3e 040e fdbc
000000d0: 26d1 1f3e c0cf 413e 0151 c53d e80b 523e
000000e0: a6c9 b73c cec3 68bc 0d1b 003e 607f 473d
000000f0: a80e 863d 61c2 83bd fd92 81bc f637 c73d
00000100: 4ab2 a0bd 265d 8f3d 59a2 0abe 5fd8 10be
00000110: b4a8 3ebd af1f f3bd e1e1 19be 0353 873c
00000120: 3935 5fbd 4ad6 80bd 19df b23d 4a79 81be
00000130: 3d34 c8bc a8ff 74bd f178 3bbe 0c56 a2bc
00000140: 738f f5bd 6ae0 8dbd af06 ddbc 5f22 b83d
00000150: 13d9 0ebe 593a 19bd 6042 b0bd f192 8d3d
00000160: 85d8 913d 8c4b e13c 765c d0bb cc98 d3bd
00000170: f909 a2bd 8aa3 293d ff88 da3d f60b 71bd
00000180: dcd2 d9bd 5b19 f5bd aba9 723c aa9c f7bc
00000190: 74ac cdbd 35d5 6fbe 0ca3 c83c d965 1bbc
000001a0: a9a2 dd3c 54e3 00bc 74cb 7bbe de88 53bd
000001b0: 02c6 cd3d d51a cbbd 26dd 2bbe eea8 cbbd
000001c0: 12d9 dabd 8f6b d83d 5813 223d b304 7fbd
000001d0: f1d9 55bd 1943 b0bd bbbd 59bc df47 ddbd
000001e0: 4556 e0bd 4967 22bc ce15 1ebe 0679 7bbd
000001f0: bb4e 94bd 151b 07be 5320 e53c d384 063d
00000200: 9064 ed3c 6a53 1b3d d762 b23d 7607 933d
00000210: f558 aabc 5795 23bc 329b f1bd 600a 5fbc
00000220: 396d 693d 7114 023e 664c 033d 9e01 84bc
00000230: ded9 1c3b c091 6eba 60b3 043c a5ee 92bd
00000240: 922c 92bd de74 b43c 4d4b 353d 764b 5b3d
00000250: 9fd1 373d e565 c43d 7ff6 ee3d 8846 273d
00000260: faab 2ebd 6df5 54bd d16d 9e3d c4cb b6bd
00000270: bf1a 40bd 20e3 973d a4da bcbd 9ab7 20bd
00000280: 1a64 993d 8987 f3bc 2d7a 02be e515 dfbc
00000290: 77ec 8e3d 5d38 a53d ae3d edbd 9278 1c3d
000002a0: 9f1e ad3d b332 f1bc 68f7 f33d 537f aabd
000002b0: 58e9 fc3d 68b2 8c3d 6e43 fa3d 19c5 563d
000002c0: be41 a1bd 7fa7 f03d bac0 dcbd 84f8 27be
000002d0: 88bc 1ebe 6f00 f0bd 12f4 96bd 9ae1 bbbd
000002e0: ea45 413b ce2b ad3b 596a d1bc 42f9 be3d
000002f0: 06e3 2e3c cd9a b33d 0e05 b73d 28f8 9e3d
00000300: 1df8 fbbc a4d9 1bbc a2d5 a7b9 9986 62bd
00000310: ac07 bc3c d81b 643e d6e0 cd3d 356e d8bc
00000320: 36a1 2e3e 20b1 8e3d 7c76 58bc 5512 633e
00000330: 87f1 45bc 07e6 873c eb78 153e 8fc0 51bd
00000340: 47ff 343e 6e0e a8bc fb18 50bd 2aff 183e
00000350: a72d 0a3e ccf0 903d ef2c 513d 59ac 1ebd
00000360: 24ed f93c ca0d 393e e624 ba3d 3f57 2a3e
00000370: a3aa 673d e075 233d f59f 143e ae33 223e
00000380: ed36 54bd 3c0b 033d 766c 90bd 60e3 823d
00000390: 6902 afbc 2640 873e 3ed8 903b 8696 af3d
000003a0: 8c70 3e3e 191c b23c dad3 ec3d 30d9 a23d
000003b0: 061b 023e df34 543e b24d 863d fccb d5bc
000003c0: a201 403e 422b 49bd 529f 1ebd 13a4 9abc
000003d0: 20ac 013d 7a14 9e3c d15a 043e 3a3b f43d
000003e0: 8a3a 043b 5c63 ff3b 9977 fe3d 0e35 3b3d
000003f0: 2438 573d ef50 c63c 645a 963d 7adf d7bc
0.12630208 0.12958112 0.14683358 0.039115064 0.02052073 0.19102284 0.01718156 0.15273963
0.037849955 0.05126656 0.0002670692 0.23675002 0.039104275 0.027950285 0.13204989 0.12175801
0.19774716 0.13957095 -0.03872737 0.11604625 0.05008357 0.010115098 -0.047451288 0.022304557
-0.0016559882 0.1647361 -0.019346155 0.11730932 0.15293597 0.13023892 0.15049542 0.047819603
-0.049962785 0.1230973 0.10334937 0.08512628 0.15668395 0.21710111 -0.05089884 0.006161397
0.03890068 0.013807177 0.15819609 0.113447525 0.05528062 0.03937574 -0.038451288 0.11825843
-0.02708971 0.118098006 0.13714024 -0.030890472 0.15607128 0.18926907 0.09634591 0.20512354
0.02243502 -0.01420684 0.12510319 0.04870546 0.06545764 -0.06433559 -0.01581716 0.097274706
-0.07846506 0.070001885 -0.13538493 -0.14145039 -0.046547607 -0.118712775 -0.15027572 0.016519075
-0.054494116 -0.062908724 0.08733959 -0.2528785 -0.024438972 -0.059814125 -0.18307854 -0.019816421
-0.119902514 -0.06927569 -0.026980726 0.08990931 -0.13949995 -0.03740916 -0.0860641 0.069127925
0.07121376 0.027501844 -0.0063586785 -0.10331878 -0.079120584 0.04141573 0.10670661 -0.058849297
-0.10635921 -0.11967727 0.01481096 -0.03022607 -0.100426584 -0.23421176 0.02449181 -0.009484732
0.027055101 -0.007866699 -0.2458933 -0.0516442 0.100475326 -0.09917227 -0.1678358 -0.0994433
-0.10685934 0.1056739 0.03956923 -0.06226034 -0.0522098 -0.08606548 -0.013289864 -0.10804724
-0.109539546 -0.00991232 -0.15438005 -0.061394714 -0.07241579 -0.13193925 0.027969515 0.032841515
0.028978616 0.037921347 0.087102585 0.071791574 -0.020794371 -0.009984336 -0.11797179 -0.013613313
0.05698893 0.1270311 0.03205528 -0.016114052 0.002393357 -0.0009100698 0.008099407 -0.07174424
-0.07137407 0.022028383 0.044261266 0.053538762 0.044877645 0.09589747 0.11668109 0.04083875
-0.04264448 -0.05199187 0.077357896 -0.08925584 -0.046900507 0.074163675 -0.0922139 -0.039237596
0.07489796 -0.029727714 -0.12741919 -0.02723212 0.06978696 0.08067391 -0.1158403 0.038200922
0.08453106 -0.02944312 0.11912423 -0.083250664 0.12349194 0.06869966 0.122198924 0.05243406
-0.078738675 0.11750697 -0.10778947 -0.16403395 -0.15501606 -0.11718833 -0.073707715 -0.091738895
0.0029491135 0.005284763 -0.025563406 0.09324886 0.010674244 0.0876976 0.08936511 0.07762176
-0.030757958 -0.009512339 -0.0003201189 -0.055304144 0.022952877 0.22276247 0.1005265 -0.026419738
0.17053685 0.06967378 -0.013211843 0.22174962 -0.01208151 0.016589178 0.14596908 -0.05120903
0.17675506 -0.020514693 -0.050805073 0.14941087 0.13493977 0.07077178 0.051068243 -0.038738582
0.030508585 0.18071666 0.09089069 0.16634844 0.056559216 0.039907336 0.14514144 0.15840027
-0.051810194 0.031993136 -0.07051937 0.063910246 -0.021363454 0.2641613 0.0044203093 0.08573632
0.1859762 0.021741914 0.11563845 0.079515815 0.12705621 0.20723294 0.06557788 -0.026098244
0.18750623 -0.04911352 -0.03872616 -0.018877065 0.03165829 0.019296873 0.12925269 0.11925359
0.0020176494 0.007793827 0.12425155 0.045704894 0.052543774 0.024208514 0.073414594 -0.02635168

lstm.bias_hh_l0 f4 [256]
00000000: 9a7d f23d 04f2 b63d 68e4 e03c 2fb2 3c3d
00000010: bea3 ee3d 1751 0d3e ab22 14ba fb8a c5bc
00000020: 288d 0bbc f20e 0e3e 9548 f23c 7f08 873e
00000030: 1558 563d ebb9 0c3d e619 353e cfe0 263e
00000040: 4306 de3d 8eb5 5bbd b5da 133e 4336 553c
00000050: c411 073d 2c61 fd3c 2697 143d 1196 d13d
00000060: 17c8 a13d 94ed 2b3e b8fb 5ebd c9db e93d
00000070: 0d81 3f3a 560d 8cbd e8ad 283c 8da6 6bbd
00000080: 9f36 20bd 5a2c 4d3c 86f2 b33c 2241 323e
00000090: 2942 4c3d b44f 2c3e 837a 673d 4333 cd3d
000000a0: ff36 353e d34d aa3c 14e9 ea3d c853 2c3d
000000b0: edf2 013e a1a9 aabc ecac df3d 4286 2d3e
000000c0: 69b2 b73d fb54 093e f09c 013e 0396 c73d
000000d0: fa5f 2d3e 76f0 1f3e 49ab f63d 5001 cb3d
000000e0: a35a 1d3e 1cdc bd3d b4a4 233e 10f6 c93d
000000f0: 4e11 2e3b 2b6d 5d3d e152 a53d ad98 083d
00000100: 12c6 87bd f3c4 673d 47f5 903c 0c4c 143d
00000110: 072b e93d 1cdb d2bd 4f4b 00be ce04 6f3d
00000120: 2827 83bd 1bf1 a33d 581d 4f3d 954d 98be
00000130: c26e 313d c44b 793d 6cbb 2fbe 7f71 763d
00000140: 66e8 16be 5d99 7ebd 170b ddbc 10b3 e13c
00000150: 67b9 323d fd02 d6bd 00a5 febb f543 b43c
00000160: e03e 423c 1674 debd b154 70bd aee6 e63d
00000170: 764a 663d d521 a83d 038f ce3d 8e38 d73d
00000180: 26fd 92bd 3f2b 0bbe 5f5b a2bd b1c6 d63d
00000190: 567b 11bd e985 24be b677 e03d 016b 1c3d
000001a0: 7188 f7bc d7d9 0dbe 2a0a 2cbe 4c37 44bd
000001b0: c602 7bbd 627b aebd 57f6 33be 6307 c8bc
000001c0: 8e1d 16be d948 acbd db4a 27bd dc8a 00bc
000001d0: efe7 c63d 5185 80bc f07d 293d 678a f33c
000001e0: 6227 10bd 7b78 64bd d98d 89bd 482a 25bb
000001f0: e768 0bbe 8c12 5e3d 9797 12be 556a 14be
00000200: 4c9f 663b ebf6 b0bd ee60 c33c 4158 323c
00000210: dced 97bd 31bf ac3d 9296 0cbd 48f4 f33b
00000220: 5d9c eabc 4d82 fe3d c81b cfbd 458d 83bc
00000230: 09e0 1dbe 8394 9bbd c4cf 603d 59ad dabd
00000240: e0fc 7fbd ff5c f0bb c65f 143e 1690 8c3d
00000250: 6a9d 853d 74c6 61bd 0dab 453d c1cd 60bc
00000260: 0839 c23c ff43 e33d 2abf ef3d 9498 d3bd
00000270: 349b 13be 01d3 1b3d 9c67 a4bd d24c d2bd
00000280: db64 df3c 2149 6cbd 5e6c 5dbd 265d a7bd
00000290: 7800 86bd cb3c 243d 667b 7bbd 30b2 2dbe
000002a0: 5c2f 81bc a2a3 f03d 241c f53d 3fa4 b7bd
000002b0: 92a6 b73d 27e7 523d 4d14 163e 07e9 2f3d
000002c0: 6f9a 00be 7031 7f3c d125 23bd 4a28 e1bc
000002d0: a0e5 0e3d 8347 453d 8652 82bd 5457 70bc
000002e0: 5129 5a3d 16c8 513d c4e1 0ebd 8f92 a9bb
000002f0: ec80 253d 7cfd 9b3d e8bf 4a3e 3fb6 8cbd
00000300: 5c89 1d3e cc9a 133e ea3e 11bd 19bc 033e
00000310: df4f 4e3d 39f7 123d b6c3 393e fef2 7b3d
00000320: b3f3 573c 97ab ef3d cc96 fd3d 3a48 883e
00000330: 2239 323e c384 143e ddc4 d2bc a442 fcbc
00000340: 7a2c 243d 601d 863d 90fe 02bd e27f 043e
00000350: 2fc6 233e b1c3 23bd d1b8 373d 0eb0 8d3c
00000360: b9a6 5d3d 0bc0 d23d 3c52 cc3d 3e65 a1bc
00000370: 27e9 923d 2445 84bd 474f 0ebd 8fc9 343e
00000380: 97a4 353d 11ce 623d 0dc7 a63d 4698 333e
00000390: 2679 ff3d 1a84 423e 749c 45bd 156e bd3d
000003a0: 769e 293d 7d39 3c3d 26cc 843e cf7a 65bd
000003b0: aaf1 233e f093 c93d b059 0e3d 8744 493e
000003c0: d5ce 95bc 198e 273e f006 85bd a00f 1c3d
000003d0: 1a10 b93d 97f1 de3c 24b4 263e d318 343e
000003e0: c3a2 d23d 4216 0bbc d65d 193e c952 043e
000003f0: f15b ddbc 0b40 db3c cd0f 2d3c cd72 60bc
0.11840363 0.089328796 0.027452663 0.046068367 0.11652325 0.13800465 -0.0005650918 -0.024114123
-0.008517541 0.13872889 0.029575625 0.2637367 0.052330095 0.034356993 0.1768566 0.16296695
0.10841038 -0.05363994 0.14438899 0.013013425 0.032975927 0.030930124 0.03627696 0.10233701
0.07899492 0.16789848 -0.054439276 0.11418874 0.0007305302 -0.06838481 0.010295369 -0.057531882
-0.03911459 0.012522781 0.02196623 0.17407659 0.049867783 0.1682728 0.05651332 0.10019543
0.1769676 0.020789063 0.114702374 0.042072088 0.12690325 -0.020832838 0.10921654 0.16945747
0.08969576 0.13411324 0.12657523 0.09745409 0.16931143 0.15619072 0.12044389 0.0991236
0.15366606 0.09270498 0.15980798 0.09861386 0.0026560607 0.05405919 0.080724485 0.033348728
-0.06629576 0.05658431 0.017695082 0.036205336 0.1138516 -0.10295698 -0.12528728 0.05835419
-0.06403953 0.080049716 0.050565094 -0.2974669 0.043318518 0.06086327 -0.1716134 0.060166832
-0.1473709 -0.062157977 -0.026982827 0.027551204 0.043633845 -0.10449789 -0.0077711344 0.02200506
0.011855811 -0.108619854 -0.058674518 0.112744674 0.056223355 0.08209578 0.10085871 0.10508834
-0.071771905 -0.13590716 -0.07927584 0.10487116 -0.035518013 -0.16066708 0.10960333 0.038187984
-0.030216428 -0.1385263 -0.16800752 -0.047904298 -0.06128194 -0.08519627 -0.1757444 -0.024417585
-0.14659712 -0.08412332 -0.040842872 -0.007845607 0.097122066 -0.01568857 0.04137987 0.029729081
-0.03519381 -0.05577896 -0.067165084 -0.0025202204 -0.13614236 0.054216906 -0.1431564 -0.14493687
0.0035190163 -0.08640846 0.02384993 0.010885299 -0.07418415 0.08434904 -0.034323283 0.007444892
-0.028639013 0.12427197 -0.10112721 -0.016058573 -0.15417494 -0.07596686 0.05488564 -0.10677595
-0.06249702 -0.0073353047 0.1448966 0.0686342 0.06524165 -0.0551209 0.04825883 -0.013720931
0.023708835 0.110969536 0.117063835 -0.10331836 -0.14414674 0.038043026 -0.080275744 -0.102685586
0.027269771 -0.05768693 -0.054058425 -0.081720635 -0.06543058 0.04009704 -0.06139698 -0.16962504
-0.015769653 0.117499605 0.11968258 -0.08966874 0.08967318 0.051489975 0.14656182 0.04294684
-0.12558912 0.015575752 -0.039830986 -0.027485032 0.034886956 0.048163902 -0.06363396 -0.014669258
0.05326206 0.051216207 -0.034883276 -0.005174942 0.040406153 0.07616708 0.19799769 -0.06870698
0.1538443 0.14414519 -0.03546039 0.12864722 0.05036914 0.0358803 0.18141064 0.061511032
0.013180661 0.1170265 0.12382278 0.26617604 0.17404607 0.1450377 -0.025728637 -0.030793495
0.04008148 0.065485716 -0.03198105 0.12939408 0.1599357 -0.039981548 0.04485399 0.017295863
0.054114077 0.102905355 0.099766225 -0.019701596 0.071733765 -0.064585 -0.034743574 0.17655014
0.04434642 0.0553723 0.08143435 0.17538556 0.12474279 0.18995705 -0.04824491 0.09249512
0.041410886 0.045953263 0.25937003 -0.056025323 0.16010156 0.0984267 0.0347535 0.19655047
-0.018287102 0.163628 -0.06495464 0.03810084 0.09036274 0.027214808 0.16279656 0.17587595
0.102849506 -0.008489193 0.14977202 0.12922205 -0.02702138 0.026763937 0.010562849 -0.013699246

lstm.weight_ih_l1 f4 [256, 64]
00000000: 4265 213e 3468 413d 1c7b ae3d edd5 373d
00000010: f195 efbd 16f4 62bd cfab 6a3d e8bf d1bd
00000020: de76 843d 3a85 24bd c3c3 b83c bd7e 4cbd
00000030: 7233 d5bc 936c edbc 7cf4 d5bc 436e bdbc
00000040: 8aaa 8fbd 2f8c e7bc 3f2b 783d 232c d33c
00000050: 6cfd 1a3e d063 a23d 2cb1 023e 6007 313e
00000060: 004e cdbd 931b 5b3e 9ccc 8c3d d461 7f3c
00000070: e8de 183b 8377 67bd cef5 40bd 14d1 63bc
00000080: b5c0 3c3c 67d9 bbbd 89b4 ecbd 9b6e 973d
00000090: 8abd 3abe af9c c6bd ba1e 00be f2f5 e8bd
000000a0: f246 533d df12 e5bb b5f5 e0bc a530 ad3c
000000b0: f578 023e 0943 d73d fc44 d13d d4e0 203e
000000c0: ac28 1fbd 8676 be3d d67a 0bbe 3f26 16be
000000d0: 7f1d 86bd 801d 72bb fe45 04be 8277 5a3d
000000e0: b96e d8bc f66a 96bd 4f14 05be 3e0b d43c
000000f0: a3b8 343d e832 73bd d8bc 31bc 0a37 b5bd
00000100: 454d 9f3d 36fc 21bb aebb 07bd 46e2 0dbd
00000110: 664b 28bd 3ed2 653d 9996 1cbe dcd4 0cbe
00000120: e363 7dbd f670 253d cd7f cfbd bc79 233e
00000130: 9ef2 303d 0e73 eebd d823 663e 11f2 c83d
00000140: d765 bdbd 543f 7d3c ae58 84bd d5aa be3d
00000150: 0e2a 34bd 1590 5dbd 7a12 263e 7aff 413e
00000160: 022b 293d 5ca6 e23d 512e 093e e121 f13a
00000170: f92a e83b 6eb5 db3d 9128 223c d81c 82bc
00000180: 243c ed3d d730 753c dfa3 f5bc 8d84 153d
00000190: 45cc e6bd 84ff ce3c 19c4 7a3d de3f 12bd
000001a0: 99ab ef3c 284a d6bd 373a 653d 45a1 313d
000001b0: 9340 2c3d 6453 11bc bc98 41bd 3ff6 313d
000001c0: 5d1a 9c3c 6b8a 32bb 2fbd aa3c ee04 b7bd
000001d0: 637b 11be a3a4 65bd 9d2a d43d d810 223e
000001e0: c5df 80bc cab4 bebd 6b27 b0bd cba0 d13d
000001f0: 51af d73d 2b74 0d3d a3ff ecbc d324 3f3d
00000200: f8dc e73d 6259 05bd 1741 58bc e3de 3ebe
00000210: 9e34 543d ea46 e7bc c454 a8bc 3a65 b7bd
00000220: da43 dc3d a51c 92bd 0b45 f0bd 55e5 be3d
00000230: d5ad c43c 36d7 00be 3a67 bf3c 02f3 6d3d
00000240: 1f7d c3bd 44a9 82bc fda5 de3d 9cf4 4d3d
00000250: 055a b83d 36ca b83b 5a4f c83c 9123 ee3c
00000260: 0daa 043d 9c6d f43d 0a5f fdbc c596 c6bd
00000270: 2731 95bd 4fd8 a4bd 800f 083d 743f bc3d
00000280: 9b24 e7bd d1c9 553d d601 37bd 7fee 25be
00000290: bf16 e9bc f920 713d b93f 98bd fdc5 56bb
000002a0: 9032 6f3d 1af8 f1ba cc85 11be 1c0f b9bc
000002b0: 54fa 9c3d 486f 18be dd9b 8d3d 8f5a 153e
000002c0: 952d 5fbd 34dc 8dbd 574f ed3c 3e7b 2c3d
000002d0: c197 14be 7f25 f0bc 9a2e 0d3d 74b6 f83d
000002e0: e91b 4a3e b22a ed3d ba16 28be 9ee6 2c3d
000002f0: 9036 b13d d501 123e 2489 453d 770a 1bbd
00000300: c668 483e 7855 0cbe 5f93 143e 1cef a9bd
00000310: d080 90bc 8ac0 97bc 7562 86bd f660 b53c
00000320: 318f 6cbd f7e0 803d a33c 97bc db45 cfbd
00000330: f810 b7b9 1eaf 19be 4e5c 6d3e 26ed 0abe
00000340: a3a1 dfbe 3dd7 a1bd 3f36 d3bc 74e9 133e
00000350: bd68 2f3e cf5e 2d3e 3f75 8c3e 6d15 793d
00000360: 87c7 53be 22f7 cfbc 72b7 713e a3b8 4cbe
00000370: 8258 3abe bb8a 413e dd9f d4bd ecc7 be3c
00000380: 1cc1 9e3d 43e5 51bd ec5f a7bd 36a2 25be
00000390: fb1e e1bd 6ed4 7c3d 7a8c aebd 7fa9 563c
000003a0: b4d3 7d3e 3aec d13d 8755 1f3e 9e2a 82be
000003b0: 5276 c33d 2f65 aabd ce4d 84be 1cec c63c
000003c0: 873e 16be 300a 20bd 53e4 41be da70 bfbd
000003d0: e4c0 713d 6c20 453d 4abe 06be edaa bbbd
000003e0: 6002 843e dea4 ea3c d47f fabb 8c41 ca3d
000003f0: f98b 853e c2ef dd3d 0b51 dcbb 4ba3 cf3c
0.15761283 0.047218516 0.08519575 0.04488175 -0.11698521 -0.05540856 0.057292756 -0.10241681
0.064679846 -0.040166117 0.022554284 -0.049925555 -0.026025508 -0.028982436 -0.026117556 -0.023123866
-0.070149496 -0.028265087 0.060588118 0.025777882 0.15135735 0.07929194 0.12762898 0.1728797
-0.10024643 0.21397237 0.06874964 0.015587289 0.0023326222 -0.05651046 -0.047109418 -0.013904829
0.011520554 -0.091723256 -0.11557872 0.07394143 -0.18236366 -0.09697854 -0.12511721 -0.11375035
0.05158133 -0.006990775 -0.027460912 0.02114136 0.12741454 0.10510833 0.10218236 0.15710765
-0.038857147 0.0929995 -0.13621077 -0.14663027 -0.06548595 -0.0036943853 -0.12917325 0.053336628
-0.026419984 -0.0734462 -0.12996028 0.025884267 0.044121396 -0.05937472 -0.0108482465 -0.088483885
0.0777841 -0.002471698 -0.03313797 -0.03463962 -0.04108753 0.056108706 -0.15291823 -0.13753074
-0.061862838 0.04039093 -0.10131798 0.15964407 0.043200128 -0.11643039 0.22474611 0.098117955
-0.0924794 0.015456993 -0.06462227 0.093099274 -0.04398542 -0.054092485 0.16217986 0.18945113
0.04130078 0.11066887 0.13396575 0.0018396938 0.007085201 0.10727964 0.009897367 -0.015882894
0.115837365 0.014965258 -0.029985366 0.036503363 -0.1126943 0.025268324 0.06122217 -0.03570544
0.029256629 -0.10463363 0.05596372 0.04336669 0.04205377 -0.0088699795 -0.0472648 0.04344773
0.01905554 -0.0027243148 0.020842163 -0.08936487 -0.14207225 -0.056065213 0.1035969 0.15826738
-0.015731702 -0.093118265 -0.086012684 0.10235747 0.10531486 0.034534615 -0.02893049 0.046665978
0.11321443 -0.032555945 -0.013199112 -0.18639712 0.051807992 -0.028232057 -0.020548232 -0.08954854
0.10755129 -0.0713437 -0.11731919 0.09321085 0.02400867 -0.12582096 0.023364652 0.05809308
-0.09545349 -0.015949853 0.108715035 0.050282106 0.09001545 0.00563934 0.0244519 0.029069694
0.032388736 0.11934969 -0.030929107 -0.09696726 -0.07284766 -0.0804907 0.033217907 0.0919179
-0.11286279 0.05219442 -0.044679485 -0.1620426 -0.028453229 0.058869336 -0.07434029 -0.0032771819
0.05839783 -0.0018460781 -0.14211196 -0.022590213 0.07664934 -0.148862 0.06914494 0.14585327
-0.05448683 -0.06926766 0.028968496 0.04210972 -0.14511015 -0.029314755 0.03446827 0.12144175
0.1973721 0.11580409 -0.1641492 0.04221212 0.08652985 0.14258511 0.04822649 -0.037851777
0.19571218 -0.13704479 0.14509343 -0.082975596 -0.017639548 -0.018524427 -0.06561748 0.022140961
-0.057753745 0.06292909 -0.018461531 -0.10120746 -0.00034917123 -0.15008208 0.23179743 -0.13567027
-0.43678007 -0.079023816 -0.025782702 0.14444524 0.17129798 0.16930698 0.27433202 0.06081145
-0.20681582 -0.025386397 0.23605135 -0.19992308 -0.18197826 0.18900578 -0.10382054 0.02328869
0.077516764 -0.05124403 -0.081725925 -0.1617516 -0.10992237 0.061726026 -0.085228875 0.013101934
0.2478779 0.10250135 0.1555997 -0.2542314 0.09544052 -0.083200805 -0.2584061 0.024282508
-0.1467229 -0.039072216 -0.18934755 -0.093476966 0.059021845 0.048126623 -0.13158527 -0.09163461
0.25783062 0.028643068 -0.007644633 0.09875783 0.26083353 0.10836746 -0.0067235283 0.025346419

lstm.weight_hh_l1 f4 [256, 64]
00000000: bb5b a8bd 2e9c a63c 8f74 f0bc 77d5 5f3d
00000010: d375 763d 44b0 d93c df0d c9bd bc94 e73d
00000020: 22c6 563d b585 b9bd 7481 d7bd 4fbe bfbd
00000030: 0085 df3b 5680 1ebd ab97 eebd bfc4 ea3c
00000040: d009 b63c 150e c43c 2435 8cbd 73eb ca3d
00000050: 59f0 93bd 27c6 68bc 0513 a53c 20ea 7fbd
00000060: 87e3 653d 2b59 b6bd 0934 9dbd 1c10 263d
00000070: 6690 c03c 35da d7bd 794c aebd b45d d63d
00000080: c002 f1bc 3b5c 2fbd 0683 9bbd 63f3 cabd
00000090: b74e afbc 4f0d e53d a3be c8bd 8edf 82bd
000000a0: baf0 f3bd de2b b23d 6397 debd 1494 f13b
000000b0: be00 883c 0f48 313d 84b7 553c d232 e23d
000000c0: 2be9 e93d 48e7 bbbb 0195 aa3d ed3f e3bc
000000d0: 1073 583c fa99 0e3e 887e ca3c b2e9 b3bd
000000e0: b74b 73bb 0868 b9bc 66e4 6dbd d861 6a3d
000000f0: a9ca bd3d d733 afbd 137d 663d 9cde 9f3d
00000100: 1956 d93d e6ed df3c 18ce 86bc 8f6e ce3c
00000110: 9a6f 3fbd 25c0 d5bd e9f3 bdbd 37e7 d7bd
00000120: 8d21 a43d 05c7 1bbd 91e4 813d b8e7 65bd
00000130: 64f6 303d c754 70bd 83c3 2dbd 8afe 14be
00000140: e26c 9c3d a52b debd 1b1c bc3d cc0f 10bd
00000150: 0a35 edbc 0e05 5d3d 5df9 aebd 19a7 d6bc
00000160: 782a c93d 90a0 8ebd 9399 983d 60cb 383d
00000170: f22f 69bd 8e83 a9bd 9f7f 6cbd 2a8d 63bd
00000180: 579a d63d 74e2 bdbb cd01 ac3d ebc0 eb3d
00000190: 7f9b 1c3d 7145 9e3d 795c 85bd 069d 13be
000001a0: 48a0 b33d 5490 83bb e56a a13c d9b6 c6bd
000001b0: b9dd 7e3d 5c73 1cbe 1828 d1bd 98ab a3bd
000001c0: 2915 193d ef47 a5bd b3a3 edbd da9e 96bd
000001d0: b70a e7bc 6a1d 9f3d 4bb8 88bd 66e8 053e
000001e0: 5883 90bd 69dc a8bc 1346 e43d a5ba bb3d
000001f0: 9daf 5bbd 552b 253e 5009 ef3c 0f67 febd
00000200: 248f f43d d4ab 083d ee91 57bd d015 53bd
00000210: c10f 803d aab8 d3bd 1362 843d 8a39 abbc
00000220: 808f 343c feb2 393d e998 b9bd 4ada 34bd
00000230: 9f61 c1bc 7a4d f93d ec1a 1dbe ec81 c53b
00000240: 1104 643d f97d a5bd a463 083e b7bb 093e
00000250: 063d a73d 2e91 f53d ed11 c83d 2f36 a43d
00000260: 1c3d 03be 8d47 51bb 0bfd f7bb d154 53bc
00000270: 5769 5bbd cdc9 5abd ce40 b23d 03db 933d
00000280: eae6 793d 8bf9 483d 99cb 1abd a000 c7bd
00000290: 331d 6dbd ba0b 46bc 5816 87bd 3b7a 01be
000002a0: 1bd6 593d 8a39 cbbd 6f18 233c 86e5 f03c
000002b0: 8571 5e3d ad4a d63b f508 ddbc cee7 d73d
000002c0: 2898 4fbd b0ce aebc 4031 2bbd 6d3c 113e
000002d0: 245a b0bd 6054 dfbd c508 abbd 8964 a1bd
000002e0: b928 dd3d bbfe a53d 2ffa ddbc f524 4f3d
000002f0: cf0f b73d 3ead e23d dbf4 ae3d ece8 77bd
00000300: 8ad9 913d fdc4 92bd 957c 5c3d af89 4fbd
00000310: c11f cebd be1a 9dbd 7586 1d3d ac9e dabd
00000320: 6e67 8fbd 218a 513d 30e2 8dbd e869 8d3d
00000330: 07af abbc d8ca dbbc f019 88bd 3c0d 933c
00000340: 52d2 56bd 06ab 18bc 08d0 7e3d 3dd6 e13d
00000350: 0756 1a3e f537 b7bd f693 d9bc 5d6f fcbd
00000360: 4ade 173c f631 6e3c 4205 813d 77c1 e63b
00000370: 85c0 a33d 95cf 4bbd bbb8 42bd 16e6 4c3d
00000380: 049f 673c d928 1c3d 28ff 133d 1dbb 41bd
00000390: c0e7 c73c 437c 64bd 0c20 8dbb f1d0 743d
000003a0: a560 3dbd 713c 9b3d 248c 443d 61bf b6bd
000003b0: b4f1 a8bd 00a1 13be 65f9 d03c 84d0 103d
000003c0: 00f2 edbc 7f22 ad3d 3ce5 d839 7a2d 59bd
000003d0: 8ae2 993b f1ea b33d 9b5f 193e 9883 adbd
000003e0: 7396 60bd 786d 89bd e987 303d 9cc1 173e
000003f0: 9a59 523d fee5 b53d 0d28 9a3d ee02 993d
-0.08220621 0.020338144 -0.029352454 0.054646935 0.06017096 0.026573308 -0.09817099 0.11307666
0.052435048 -0.09058706 -0.10522738 -0.0936247 0.0068212748 -0.03869661 -0.11650022 0.028658269
0.022221476 0.023932496 -0.06846073 0.099081896 -0.07223577 -0.014207399 0.02015067 -0.06247914
0.05612519 -0.08903726 -0.076759405 0.040542707 0.023506355 -0.105396666 -0.0851068 0.10467091
-0.029420257 -0.042812567 -0.0759335 -0.099097036 -0.021399839 0.11184179 -0.09801986 -0.06390296
-0.11911149 0.08699773 -0.108687185 0.0073723886 0.016601916 0.04328161 0.013044242 0.110448495
0.114214264 -0.005734358 0.083292015 -0.027740443 0.013211027 0.13925925 0.024718538 -0.08784808
-0.0037123987 -0.022632614 -0.058079146 0.057222217 0.0926717 -0.085548095 0.056271624 0.07806131
0.10612125 0.027335119 -0.016455695 0.025199203 -0.04673729 -0.10437039 -0.09275038 -0.105421476
0.08014212 -0.038031597 0.06342424 -0.056129187 0.043203726 -0.0586746 -0.042422783 -0.14550224
0.07637955 -0.10848168 0.09185048 -0.035171315 -0.028955955 0.0539599 -0.08543656 -0.026202725
0.098225534 -0.069642186 0.07451167 0.04511583 -0.05693049 -0.08277045 -0.057738896 -0.055554546
0.10478657 -0.0057948176 0.08398781 0.115114056 0.03823423 0.07728089 -0.065117784 -0.14415368
0.087708056 -0.004015008 0.019704292 -0.09702844 0.06222317 -0.15278381 -0.102127254 -0.07991713
0.037373696 -0.08070361 -0.11603489 -0.07354517 -0.028203351 0.07769282 -0.06675776 0.13076934
-0.07056302 -0.020612912 0.11146178 0.09166459 -0.053634275 0.16129811 0.029179245 -0.124220006
0.119413644 0.033366993 -0.052629404 -0.051534474 0.06253005 -0.10337956 0.06464019 -0.02090146
0.011020541 0.045336716 -0.090623684 -0.04415349 -0.02360612 0.121729806 -0.15342301 0.006027451
0.05566794 -0.08080668 0.1331926 0.13450514 0.08165936 0.119905815 0.09769044 0.08018147
-0.1281628 -0.0031933517 -0.007568007 -0.01289864 -0.053567257 -0.05341511 0.08703767 0.072195075
0.061011232 0.049066108 -0.037791822 -0.09716916 -0.057889175 -0.012087757 -0.065960586 -0.12644283
0.053182703 -0.09923084 0.009954556 0.02940632 0.05430748 0.0065396638 -0.02698181 0.1054226
-0.050682217 -0.02133879 -0.041795015 0.14183207 -0.08610943 -0.10904765 -0.08351282 -0.07880504
0.10798783 0.081052266 -0.027096836 0.050572354 0.08938562 0.110681996 0.08542796 -0.060524866
0.071215704 -0.07166479 0.05382975 -0.050668415 -0.1006465 -0.07671116 0.038458306 -0.106747955
-0.070021495 0.05115712 -0.069279075 0.06904966 -0.020957483 -0.026830122 -0.06645572 0.017950647
-0.05244667 -0.009318119 0.062210113 0.11027191 0.1507188 -0.0894622 -0.026559811 -0.12325928
0.009269306 0.014538279 0.06299831 0.007042106 0.079957046 -0.049758513 -0.047539454 0.050024115
0.014137033 0.038124893 0.036132008 -0.047297586 0.0244025 -0.055782568 -0.004306799 0.059769575
-0.046234746 0.07579888 0.04798521 -0.089232214 -0.08249226 -0.14416885 0.025509546 0.035355106
-0.029046059 0.08453845 0.00041369523 -0.053021885 0.004696195 0.08785046 0.14977877 -0.08472365
-0.05483098 -0.06710333 0.043098364 0.1481995 0.051354982 0.08881758 0.0752717 0.07471262

lstm.bias_ih_l1 f4 [256]
00000000: c070 803b 41a2 cf3d 0ede 8f3d 2d16 2e3e
00000010: 5d93 ff3b bd56 17bd 1c1b c53c 6023 4e3e
00000020: 7daf 9f3d 9b40 843d 8790 b43d 7842 703d
00000030: 4afa b43d 31ea 34bd 6387 babb 9d4d 223e
00000040: 4f57 00bc 134b 583d 600a 133e 8e11 56bd
00000050: dc72 8d3d 934d 9e3d 1105 233e fd82 9ebc
00000060: 9e72 ee39 1d2b db3d 950e 83bc f2ff 7abd
00000070: 74a8 163a 068b 093e 37e9 1a3e 7bbd 6c3e
00000080: 911d 51bd 4a4d f23d ffc6 373e 3e5c 47bc
00000090: ff08 f53d eadd 2b3e b5d5 fc3d f757 2d3e
000000a0: a949 6f3d 948b 393e c47a 3dbd f564 f83c
000000b0: 94d0 823d 26b7 703e 431b 0f3e 66fa 6e3e
000000c0: 442d 943d 210c b03d a08e 753d 7e96 963e
000000d0: 3b04 333e 13b2 003e d00a 753d d65e 213d
000000e0: 13ac 213e 8bd3 0d3e 5a78 523e 7de0 2f3e
000000f0: f54b 2a3e 965a ecbc f4b7 c2bc 4be8 a7bb
00000100: 7e68 ccbd e7d0 a6bd 7cba fabd ee45 5ebd
00000110: 0546 72bd 4895 7c3d 14be c63d c4ae 06be
00000120: aecc c7bd 0f33 d1bd 6f6b a3bd f709 36be
00000130: 76b3 2cbd 3a6f 833b 9514 a7bd d20e 703d
00000140: a498 ff3d e669 b7bd 15ff 02be 4da9 6abd
00000150: bbec 8e3d e992 eabd c0e0 a1bc 89cc acbd
00000160: 1ebd b7bc 69dc b3bd c35a c8bb 2def d7bd
00000170: 9eea e53d 416c 243d 6f59 05be 2b3f fabd
00000180: 6380 7fbd 4e8c e1bb b9b2 13bd e117 97bd
00000190: ab93 d339 2ac3 1dbe 1a2f 79bd 48f0 88bc
000001a0: ae46 56bd 9caa 613b a57e ef3d b5c7 bd3c
000001b0: 1b3e 953d 09bb 71be 9735 48bd e3e9 e5bb
000001c0: 0110 b4bd 3b87 00bd 0e49 63bd d9e7 93be
000001d0: 7fc3 95bd b3a1 b03d 3c55 523d 56b0 e0bd
000001e0: cc78 8fbd 8b70 e9bc 4c9a 40bd f810 2fbe
000001f0: 90a3 cbbb d11e 57bd a6ab 87bc de2b febd
00000200: 5297 483d 3dec 0abe f47e 1bbe 56af c6bd
00000210: 2ab0 783d ba44 aebd f909 993d af2f 5abd
00000220: a483 053e 796f b83d 438b c23c 3ce5 dd3d
00000230: a6f8 cbbd a096 f1bd 415b 57bd 70d8 213b
00000240: f491 b83d 5242 2abd e6d0 163d dc96 033e
00000250: 497e 143d e4a8 e0bd 1336 19be 2cb9 05be
00000260: 725e 873d 1fc5 da3d e3d3 c5bd a6d2 073e
00000270: 2958 103e 2ea9 d93d 05f8 9c3d 7807 f83d
00000280: b175 df3c 2805 4d3d f8d3 02bd a01a a6bd
00000290: 2428 c5bd 0522 cebd 7a3c debd ec5e 2c3d
000002a0: dbf2 973c b05e 913d 3f3c b23d 2ba9 123e
000002b0: 3294 06be b6c7 6bbd d462 3dbd cf0c 72bd
000002c0: d2a4 f43d be2a 1e3d 8531 c2bd ffdd a43c
000002d0: dc7e a0bd 7fab 8ebb 3280 91bc 4578 003d
000002e0: 11f7 d53d 277b 95bd 1fac 613d 7f0c 10be
000002f0: 4dca f33c a925 9f3d e7c9 34bd f525 1ebd
00000300: bc23 bb3d a5fb f33d bdd1 393d 22b6 3b3e
00000310: 876d a23d 4c12 fc3b a30c 023d b538 a13d
00000320: 35f1 2cbd 1729 1c3e 667d 063e 0e82 313e
00000330: 43bd 90bd 60c1 813d 578d 70bd 1919 d03d
00000340: 15c4 aebc 01de 6f3d 0d38 423e 7a2b 553d
00000350: f99b b43d d5b2 8d3c 86ae d4bc 95cd d63d
00000360: f923 013e e40b d33d a3be b3bd 2550 2f3e
00000370: 2094 da3d 3ff0 083e 9eec 8b3d e84d 9b3d
00000380: f2f2 7f3b 443d f43c 8c70 d5bc 1a46 e8bb
00000390: a328 b63d e391 863d 7ee5 873d 6a18 973d
000003a0: 3a21 203e 28fa a33d 6a19 a13d 67eb f23d
000003b0: e96d 013e 8111 953e 83ea 1f3e 652c 783e
000003c0: 403f b9bc 4d94 b13b fb68 c03d de30 3c3e
000003d0: 1901 873d d124 13bd 705e df3d d62e 143b
000003e0: b8c5 6c3d a634 0a3e 63d2 173e b825 b03d
000003f0: 4fc8 3d3e a3bf 1dba bb2c af3d 6947 263c
0.003919691 0.10138369 0.070247754 0.17000647 0.0077995495 -0.036947954 0.024060778 0.20130682
0.077971436 0.06457635 0.08816629 0.05865714 0.08836801 -0.044168655 -0.005692409 0.1584992
-0.007833316 0.05280597 0.14359426 -0.052262835 0.06906673 0.0772964 0.15919901 -0.01934957
0.00045480294 0.107015826 -0.015998164 -0.061279245 0.00057471474 0.1343194 0.15128027 0.23119156
-0.051053587 0.11831148 0.17947005 -0.012167988 0.119646065 0.16783872 0.12345449 0.16928087
0.058419857 0.18119651 -0.046259657 0.030321578 0.06387439 0.23507366 0.13975243 0.23337707
0.07235196 0.085960634 0.05995047 0.2941169 0.17482083 0.1256793 0.059824765 0.039397083
0.15788297 0.13850228 0.20553723 0.17175479 0.16630538 -0.028851788 -0.023769356 -0.005124127
-0.09980868 -0.08145314 -0.122426 -0.05426591 -0.059148807 0.061665803 0.09704223 -0.13152605
-0.097558364 -0.10214817 -0.07979476 -0.17777239 -0.042163335 0.004011062 -0.081582226 0.058607884
0.12480286 -0.089557454 -0.12792619 -0.057290364 0.069787465 -0.11453802 -0.01976049 -0.084374495
-0.022429045 -0.08782274 -0.0061143353 -0.10543666 0.1122639 0.0401423 -0.13022397 -0.122190796
-0.0623783 -0.0068831807 -0.036059115 -0.073776014 0.00040355077 -0.1540648 -0.060835935 -0.016716138
-0.0523135 0.0034433967 0.116940774 0.023166517 0.07287236 -0.23606504 -0.048879232 -0.007016407
-0.08792115 -0.031378966 -0.055489592 -0.28887823 -0.073126785 0.08624592 0.051350817 -0.109711334
-0.07005462 -0.028496047 -0.04702215 -0.17096317 -0.0062145665 -0.052519623 -0.01656134 -0.12410711
0.048972435 -0.1356668 -0.15185148 -0.097014114 0.06071488 -0.08509202 0.07472605 -0.05326813
0.13038498 0.09005637 0.023748046 0.108347386 -0.09959535 -0.117963076 -0.05257726 0.0024695657
0.09012213 -0.041567154 0.036820315 0.12850517 0.036253247 -0.10969713 -0.14962034 -0.13058919
0.06609811 0.10682129 -0.09659555 0.1326395 0.1409613 0.106279716 0.076644935 0.121107996
0.0272778 0.050053746 -0.03194043 -0.08110547 -0.09626797 -0.100650825 -0.10851379 0.042082712
0.01854842 0.07098138 0.08702897 0.14322345 -0.1314247 -0.057563506 -0.046236828 -0.059094246
0.119454995 0.03861498 -0.09482101 0.020125387 -0.078366965 -0.00435394 -0.017761324 0.031364698
0.10447515 -0.0729888 0.055095788 -0.14067267 0.02975955 0.07770855 -0.04413786 -0.038610417
0.09137675 0.11913232 0.045366038 0.18331197 0.07931047 0.007692611 0.031750333 0.07872144
-0.04222222 0.1525005 0.13133773 0.17334768 -0.07067349 0.063357115 -0.058728542 0.10161037
-0.021333734 0.05856133 0.18966694 0.052043416 0.08818812 0.017297188 -0.025962126 0.104884304
0.12611379 0.10305002 -0.087765954 0.17120416 0.10672784 0.13372897 0.068322405 0.07583219
0.0039054719 0.02981437 -0.026054643 -0.007088435 0.088944696 0.065707944 0.06635569 0.073777035
0.15637675 0.08006698 0.078661755 0.11861306 0.12639584 0.29114917 0.15616803 0.24235685
-0.022613168 0.00541929 0.093950234 0.18378016 0.06592006 -0.035923783 0.109066844 0.0022610924
0.057805747 0.13496646 0.1482635 0.08600944 0.18533443 -0.0006017631 0.085534535 0.010148861

lstm.bias_hh_l1 f4 [256]
00000000: 5c56 b23d 8236 95bb 3c52 843d 1f2e a13d
00000010: 4424 263e a5d2 6b3d af1a 293e 7543 0e3e
00000020: 593a 9a3d 22f8 f3bc 73c0 603e aebf 483e
00000030: 5d00 68bd de23 bf3c b09c 9c3d 9299 ec3d
00000040: cf9b 473e ab1d 483d cf4a 293e 0a21 453d
00000050: ab62 4e3c f7c1 a53d 2b64 a23d 5b20 e63c
00000060: 5778 523d b733 2c3e 020e 1c3e 39cb 21bd
00000070: 8bf9 b0bc beea bb3d 5a05 9039 26c5 5e3e
00000080: 3f26 0b3c 86cf 163e 5146 443e 05a5 f03c
00000090: aaa0 3b3e b4a2 293e e869 a03d 80bb 1b3e
000000a0: e778 043e 9df1 bb3d e435 143e 8d05 64bc
000000b0: e93a 87bc 028a d33d f7a0 153c e6f6 f03d
000000c0: 8bcb 5f3e 9e2d 023e 4354 db3d a896 6e3e
000000d0: 15db f73d b7fa 933d 1796 6f3e 2333 34bd
000000e0: 22ce 323e 9c41 cc3d 8fa3 3b3e c698 5c3e
000000f0: 376f 9f3b d753 3c3e 4b71 843d bd84 ba3d
00000100: 226b d4ba e9d4 dcbd b37a 7c3d 8f2f f5bd
00000110: f6b4 c2bd fb2a bcbd 8131 24bd aa34 74bd
00000120: 7c77 b2bd 114d b7bb 7c23 d7bc 7134 01be
00000130: dd00 c13d e34b e03d 970f 9f3b 1926 643d
00000140: bfe5 36bd bea9 5a3d daf7 063d 4ad3 e1bc
00000150: 975b e7bd e179 80bd 19fc fa3d 7f64 69bd
00000160: b237 20bd 0a61 86bc 9c12 653d 0593 3c3d
00000170: a79b a73d b404 a03d 801a af3d f48f 15bc
00000180: ec47 85bc 2d65 f2bd 0f4c fe3c 8a9c d7bd
00000190: 8bd0 c93d 2baa 24be 1631 cfbd 4712 98bc
000001a0: 10a6 b93d 5b8b a43d c7b2 e2bd ac02 bf3d
000001b0: c262 9abc 7608 76be 8c46 443d 0f4f b8bd
000001c0: a1ee 09bd 9148 a53d 6a79 ea3c 089a 8bbe
000001d0: bfab 26bc 627a ca3d 100c 803d bb79 04be
000001e0: f30c 693d c617 79bd cdd4 e0bd 1e41 95be
000001f0: 3aed 12bc 6a40 ae3d 65cc 603d 7389 b7bc
00000200: a4fa 8dbd e04c 5c3d 1531 ba3c 5acc 94bc
00000210: a5a5 e33d 9a67 c63d 75c2 1b3e 8c0a 0cbe
00000220: 8749 0d3e 069c 3c3d abe5 6cbd de9c a5bb
00000230: 22f9 453c 3d52 48bd 9c04 d1bd 53dc 05bd
00000240: 1a10 763d 4d94 17be 5c7a cfbd 769e a03d
00000250: 961a ff3d 17b8 07bd 9cf2 8bbc a03d 263c
00000260: a467 0abb b96e 9f3d e70b 95bc 5717 71bd
00000270: 8e6b ce3c ee26 aebd fcde 923d f371 ecbc
00000280: b579 bdbd 19a3 ba3d 92f9 c63d 7cdb 343d
00000290: da87 303d 8d02 ad3c d115 363b b867 06be
000002a0: 30cf 893d ea91 083d 9790 8d3d 49eb 9f3c
000002b0: 7f5c 49bd a5fc 223e 20cc a9bd d055 7abd
000002c0: 7003 1f3e 1a5d af3d 7119 ccbd a1ec a63c
000002d0: 5ab6 4cbd 1166 a8bd 8fc5 a93d dac7 71bd
000002e0: adca ae3d 352d 1c3e 194d 7dbc 7cd4 2a3d
000002f0: 6aa3 493d 854b 3b3d 30c3 093e f78f a33d
00000300: edd2 d33c 83f7 303e e402 0c3e e7dd e43d
00000310: 0a35 4c3d 7943 d3bb 32fb bd3d 28a4 05bc
00000320: 998b 873d 0281 a63c bac9 293e 9821 db3c
00000330: 8b13 b23d 6d03 d73d d384 6e3d 75fc ca3d
00000340: ab08 a2bb 3782 8abd 9c22 f8bc 422f 923c
00000350: 0955 27bb 68eb 8c3c 9783 863c d7e6 643d
00000360: 9ef3 0bbd 1cb7 213e 1f1d ba3d 59ab 2dbc
00000370: dfb6 043e 8b4e 063d 28f9 62bd 1fe2 873d
00000380: 8cf7 8e3d 2ddb 5f3d 3c75 113e 6eb7 1c3e
00000390: 70bd 2d3e 2840 563e d454 403e ba70 633d
000003a0: ecb0 693c fb65 e5bc 1950 8d3d 5db8 cf3d
000003b0: abee dabc f43d 083e 807e 833c 7ef3 f33d
000003c0: a2d5 793c 212f 3bbd 4ea6 323d 55cb 973e
000003d0: 9f20 1a3e 886c 60bd d021 8f3d d6d8 1d3e
000003e0: 4b1b 2c3e 8d41 393c b192 3a3d ca43 893e
000003f0: 9d80 3d3e cc8c f2bc 3455 59bd 6a35 03bd
0.08707878 -0.004553617 0.064609975 0.07870125 0.16224772 0.057573933 0.16514085 0.1389292
0.0753066 -0.029781405 0.21948414 0.1960437 -0.05664097 0.023332532 0.07647073 0.11552729
0.1949303 0.04885642 0.16532443 0.04812721 0.012596766 0.080936365 0.07929262 0.0280916
0.051384296 0.16816603 0.15239719 -0.03950045 -0.021603366 0.09175633 0.00027469808 0.21754894
0.008493005 0.14727601 0.19167449 0.029375562 0.18323007 0.16565973 0.078327 0.15208244
0.12936746 0.091769435 0.14473683 -0.013917339 -0.016507583 0.10329057 0.009132615 0.11765842
0.21854989 0.12712714 0.10709431 0.23299658 0.121023335 0.072255544 0.23397098 -0.04399408
0.17461446 0.099734515 0.18324111 0.21542653 0.0048655528 0.18391357 0.064669214 0.09107349
-0.0016206244 -0.10782797 0.061640453 -0.11971962 -0.09507172 -0.091878854 -0.040086273 -0.059620537
-0.08714196 -0.005593904 -0.026262037 -0.12617661 0.09423993 0.10951974 0.0048541534 0.055700395
-0.044652697 0.053384535 0.032951213 -0.02756657 -0.11296766 -0.062732466 0.12255115 -0.056980606
-0.039115615 -0.016403694 0.05592595 0.046038646 0.08183985 0.07813397 0.08549976 -0.009128559
-0.016269647 -0.11835704 0.031042127 -0.10527904 0.098542295 -0.16080539 -0.10116784 -0.018563403
0.09064877 0.080343924 -0.11069255 0.093266815 -0.01884592 -0.24026665 0.04791884 -0.08999454
-0.03367484 0.080704816 0.028622348 -0.27265954 -0.010172783 0.09886624 0.06252301 -0.12937061
0.056897115 -0.060813688 -0.109780885 -0.29151243 -0.008967692 0.0850838 0.054882426 -0.022404408
-0.069325715 0.05378425 0.022728482 -0.018163849 0.111155786 0.09687729 0.15210898 -0.13675898
0.1379758 0.046047233 -0.057836216 -0.0050541004 0.012083324 -0.048906554 -0.10205957 -0.03268082
0.06007395 -0.14802666 -0.1013076 0.07842724 0.12456243 -0.033134546 -0.017083459 0.0101465285
-0.0021118904 0.077847905 -0.018194152 -0.05886015 0.02519777 -0.08503519 0.07171437 -0.028862929
-0.092517294 0.0911314 0.097155705 0.04415463 0.04309831 0.02111938 0.0027784 -0.13125503
0.06728971 0.03334228 0.06912344 0.019521372 -0.049160477 0.15916689 -0.08290887 -0.061116993
0.15528655 0.085626796 -0.0996579 0.020376505 -0.04997859 -0.082225926 0.082896344 -0.059028484
0.08534751 0.1525162 -0.015460276 0.041706547 0.04922811 0.045726318 0.13453364 0.079864435
0.025857413 0.17281918 0.13672978 0.11175137 0.04985527 -0.0064472524 0.09276427 -0.008156814
0.06618423 0.020325188 0.16580859 0.026749417 0.08695134 0.104987 0.05823214 0.099114336
-0.004944881 -0.06763118 -0.03028994 0.0178448 -0.0025532863 0.017202094 0.016420169 0.05588421
-0.03416788 0.15792507 0.09087586 -0.0105999345 0.12960385 0.03278975 -0.055413395 0.06634926
0.069808096 0.05465238 0.14204878 0.15304348 0.16966796 0.20922911 0.1878236 0.055527426
0.014263373 -0.02800273 0.06900043 0.101425864 -0.026725134 0.13304883 0.01605153 0.11911677
0.015248688 -0.045699243 0.04361563 0.29647318 0.15051506 -0.054791003 0.06988871 0.15414748
0.16807286 0.011307132 0.045550052 0.2680953 0.18506093 -0.029608153 -0.05305977 -0.03203336
