Results/neural_ode_sine.pth (torch, 21173 bytes, 6 tensors)

net.0.weight f4 [64, 2]
00000000: 6728 16be cfd9 3e3d 3e32 5b3d 6cc5 2f3d
00000010: 2bc5 1f3d 49a0 433d 3011 243d 699e 19bc
00000020: 410e 093e 1fa4 023e cc9e a0bd 974b 3f3d
00000030: 44c7 5bbe b702 523a 005a 923d 10aa 063e
00000040: 35ff 9a3d 9472 cbbd 0493 cbbc 18db a1bd
00000050: b966 2bbd 5bf9 c23d e57f 863d 9c37 c6bd
00000060: a23d debc b433 7ebd f523 82bd ddfe af3c
00000070: e7b7 77bd 95a8 fd3d 6ed0 113d f657 783d
00000080: 7179 3e3d 676a 223e 91a6 45bd 5854 ed3d
00000090: f778 923b b422 2d3e f0d5 f1bd 1d4b 283e
000000a0: 401d 7e3d c3a5 35bd 3240 c2bd 74c5 863d
000000b0: 5ec8 03be 2fad c93d d5db fd3d 7c35 24bd
000000c0: 5bfe e0bd 46d9 12be b1db cabd 8248 45be
000000d0: 5a88 7fbc d6cb ba3c 8324 ba3d 8ac6 583e
000000e0: 3755 9dbd 34f2 d43d 0543 9d3c 2e9d a13b
000000f0: 851f 8c3c d768 3cbd 8e58 a7bb 519c debd
00000100: dc18 cdbd a97f 2fbb eee9 2c3e f440 56bd
00000110: d66f 353e bd81 0d3e ab95 193d 19a3 c13c
00000120: c6a5 9f3c aee0 423e 19f8 64be 83ca 023e
00000130: de21 f4bd 86c8 ec3d e318 32be e9c6 d6bd
00000140: 90b4 6e3e 1252 123d 3885 10bd 8dcd 9ebd
00000150: 2944 41be 8eab 1b3e 0bec 0f3e 40c0 d3bd
00000160: 2341 54bd c8c0 c33d 2fdf a1bd 2d8c 6e3d
00000170: 7e44 d3bd c1a6 143d 8677 c4bc f1fd 4dbe
00000180: 6c66 85bb b834 543e 9984 3dbe a7f2 e63d
00000190: ad80 d9bc 7095 713d 9b77 a8bd 94df dfbd
000001a0: b11d dfbd ddfe 41bd 2374 8f3e b5f5 903c
000001b0: 0649 aebc 5daa c5bd f6a3 a23d 6653 bb3d
000001c0: 7446 eabd c75c 42bd ee46 7cbe b713 88bd
000001d0: 3d44 973d 9536 d4bd e651 4c3e 1f82 403e
000001e0: bcfd 913e 1be1 cebd f28a 4dbd 49d2 c1bd
000001f0: 8406 6c3d 25b9 7abd 6c0b 673d 814d 083e
-0.1466385 0.046594437 0.05351471 0.042912886 0.039006393 0.04776028 0.040055454 -0.009376147
0.13384344 0.1275792 -0.07842788 0.046702947 -0.21462733 0.0008011269 0.071460724 0.13150811
0.07568208 -0.099339634 -0.024850376 -0.07903117 -0.04184601 0.09520217 0.06567363 -0.096785754
-0.027128998 -0.062061027 -0.063545145 0.021483833 -0.060478117 0.1238567 0.035599165 0.06063076
0.046502534 0.15860902 -0.048254553 0.11588353 0.0044699865 0.1690777 -0.118083835 0.16434903
0.062039614 -0.044347536 -0.094849005 0.0658063 -0.12869403 0.09847485 0.12395445 -0.04009007
-0.109860145 -0.14340696 -0.09905184 -0.19265941 -0.015596474 0.022802275 0.09088995 0.21169487
-0.07682269 0.10397759 0.019196996 0.0049320674 0.017104873 -0.04599842 -0.005106992 -0.10869659
-0.10014507 -0.0026778972 0.16886112 -0.052308038 0.17718443 0.13819022 0.03749625 0.023637341
0.019488227 0.19031021 -0.22360267 0.12772565 -0.11920522 0.11561684 -0.17392306 -0.10487158
0.23311067 0.0357228 -0.035283297 -0.077540495 -0.18873657 0.15202162 0.14054887 -0.10339403
-0.05181993 0.095582545 -0.07903897 0.05823915 -0.10315798 0.03629184 -0.023982774 -0.20116402
-0.0040710475 0.20723236 -0.18507613 0.11276751 -0.026550615 0.058980405 -0.08225938 -0.10931316
-0.10894335 -0.047362197 0.28018293 0.017695287 -0.021275055 -0.09651635 0.07941429 0.09146766
-0.11439219 -0.04745176 -0.24636433 -0.06644385 0.07386062 -0.10361973 0.19953117 0.18799637
0.28513896 -0.10101529 -0.050181337 -0.09463937 0.0576234 -0.061211724 0.056407377 0.13310815

net.0.bias f4 [64]
00000000: 60a2 b53c 9111 563c 1733 df3b 257f fbbb
00000010: 01d1 f2bb ee99 fc3c 1f02 013c a40d 4fbb
00000020: 21ed 74bc 8371 7dbc 2dca 733c 6461 61bc
00000030: d6c8 92bc 2d8c a13b 1418 b23b 05ed 0abc
00000040: 4572 6cbb 193f 733c 6b1c 09bb 0544 8e3c
00000050: 0a92 53bc 6c37 583a fc66 a73b 8a16 b0bc
00000060: 6940 973b d4b4 45bd 09e8 463b 4d94 2fbb
00000070: 9466 223b 31c2 ca3b 8aa2 4ab9 8c39 17bc
00000080: a16c 083c c897 b0bb c6cb 823b ee78 323c
00000090: da0d b43a 22d5 f03a 90cd 963c a56c 8dbc
000000a0: f144 96bb 0765 20bc 1ca0 1b3d 7744 9abb
000000b0: f391 063c 5477 ea3b ed9a 933a 5e3f 14bc
000000c0: 7ad0 123b a710 d43b 5ec0 793c 4e9c 863b
000000d0: 102f 523c 16ed 29bc 1433 71bb 1514 c1bb
000000e0: ef65 95bb 984a 903c f372 bbbc 6373 373d
000000f0: 4ca8 a6bc de44 2cbb 5556 e5bb 370d 29bb
0.022172153 0.013065712 0.0068115103 -0.007675069 -0.007410169 0.030835118 0.007874041 -0.0031593824
-0.014949114 -0.015468958 0.014879745 -0.01375613 -0.017918032 0.0049300403 0.0054349992 -0.008479361
-0.0036078852 0.014846587 -0.002092148 0.017366419 -0.012913236 0.00082480046 0.0051087122 -0.021495122
0.0046158326 -0.048268154 0.0030350706 -0.0026791275 0.002478038 0.0061877 -0.00019324772 -0.009230029
0.00832668 -0.0053891875 0.003991577 0.01089309 0.0013737038 0.0018374065 0.018408567 -0.01726372
-0.004585855 -0.009789712 0.03799449 -0.0047078687 0.008213508 0.0071553383 0.0011261381 -0.009048311
0.0022402094 0.0064717117 0.015243618 0.0041079884 0.012828603 -0.010371467 -0.0036804127 -0.0058922865
-0.0045592706 0.017613694 -0.02288196 0.044787776 -0.020343922 -0.0026286165 -0.006998817 -0.002579523

net.2.weight f4 [64, 64]
00000000: 10fc 93bd 6ca8 19bd 362d 3ebd a913 97bc
00000010: 2ac7 f2bd 5c10 b7bd ea66 303d 6884 49bb
00000020: ca6f 84bd ca8b c43d 3884 a23d 0c60 b3be
00000030: ca31 87bd fa9b 673d 4e3b 36be 7360 593c
00000040: 1ea7 55bd 9e0c b1bd f465 69bd 3c42 ea3c
00000050: 6608 16be 0e1f c8bd 9547 e43b c243 33bd
00000060: d9cf b5bd de39 07be 735f 403d 4283 69bd
00000070: 5f14 f3bd 708c cdbc 5d76 ccbd c380 0bbe
00000080: f701 203e 7dd9 0cbe 1462 14be 498a 2dbe
00000090: 772e ddbd e5a6 22bd f6ed 833e 65f4 233e
000000a0: 972d 583c 558d 8a3c a7b5 513d 3786 d73d
000000b0: f4eb 9a3d 687e be3c 663f 363d e855 f33c
000000c0: 1526 4a3e 2d1d c6bb e431 f3bc b4ef 333e
000000d0: 4126 8d3b f98b 0e3d a6e1 52be ee45 febd
000000e0: 5f20 5cbd ffcc a83e 3db5 4fbe 07cc 80bc
000000f0: 57d7 d6bc ca1d b13b fe95 e23d a3de febd
00000100: 9e79 b3ba ded3 7abe 90d8 6ebe 58d2 0e3d
00000110: 47ba ecbd 9293 eb3d 143f f43c c2b8 8a3d
00000120: 85f3 a2ba 1e19 83bd 035f 913c 7951 4c3c
00000130: f99e ef3b c52d e63d 0e6a 43be 6575 fa3d
00000140: ca5b 2cbe 35d2 e2bd c85a 933c c4a4 013e
00000150: 5f5a 9dbc dcec f03d 6d8c 06bd 0761 c0bb
00000160: c7f1 a83c a668 733e e0a0 62be 1aba 153e
00000170: f9e9 eebd 4047 983c efae d5bd b951 e3bc
00000180: 371c b33d 31f7 113e 52d8 38bd ca49 3dbe
00000190: 939d 9ebd 69e6 413d 60ae fdbd edc7 043d
000001a0: 2e3c f73d f419 413d 11ae f2bd e9f4 31be
000001b0: ca35 0f3e edf2 a13c a501 6ebd 3bf6 493e
000001c0: 3be0 5dbd 5a99 8d3c 38cf e2bd cd1d bf3d
000001d0: 0f04 da3c 1c1e 69bc fb6c d63c 1018 d8bd
000001e0: 5b30 233d e656 febb f06e 4f3e d794 c03c
000001f0: e8c0 373e ea77 5f3e 6c32 d83d 9c15 47be
00000200: ae8f 133e 69c0 6f3d 3721 b5bd 6a4c 603d
00000210: 5e3b eebd 66eb 123d f3fb 4e3e c148 56be
00000220: 495f ccbd 5cc2 04be 58eb 12be 9994 29bd
00000230: 86ae 8ebd 41e5 753d 3a24 c43c e808 ba3d
00000240: c200 63bc 10c0 103e 22bf c13d 931a 9d3d
00000250: a966 0a3e 19ee d33d 60b9 7e3d 787d 99bd
00000260: d8c2 47bd 5a17 50bc 4dda 3cbd 742b 803d
00000270: 9a96 e13d 153e 0ebe 2e0b a5bd 2c27 063e
00000280: e5e0 ed3d 6413 bfbd de97 683c c0b6 48be
00000290: e950 c43d 767f d5bd 59ad 3dbe 530e 7e3d
000002a0: 896c 5abd a3f9 5abd b726 03be e024 343e
000002b0: 4d72 17be c382 34be 3922 703c 1017 233e
000002c0: 8c47 3a3e 89d9 38bd 7e72 89bc ad31 24bc
000002d0: 9914 893d a17a 9d3d be5d ddbd 6ccc edbb
000002e0: 17a9 e7bd 0802 fc3d 2b42 2b3d b621 4abe
000002f0: 899d 28bd 2e2c 153d 9515 0e3e 86af c6bd
00000300: 44b6 063c 0baf 943c 7065 4e3b 847c 343e
00000310: 174e 233e 3bd8 e13d ff22 56bd abcf 7e3e
00000320: 9702 3c3d 4e2b 0cbe 9edc 0d3e c9ff 3d3d
00000330: 3bdf bcbd d4ea cdbc e5cc ae3c c9e6 ebbc
00000340: 6f6b 203e 772f 983d 875c 0f3e dca0 f83d
00000350: 3099 633d b626 9d3d b3d2 0fbb aa38 b23c
00000360: 083e 8bbe 820b 233e f145 27bd 832c 00bd
00000370: 19a0 1dbe 21eb 2a3d 59ac 46bb 7e68 223d
00000380: 9f7d 5bbe 1d74 1c3c f8ab 523e e258 883d
00000390: 440f 2dbe 2648 84bd 3b5a ec3d 26cb ff3d
000003a0: e064 db3c c65c 493d 7468 a7bd a415 8fbd
000003b0: 7c08 84bd dfe4 303d e5a4 90bd f325 713c
000003c0: 9bf1 6d3e cb7a a3bd 4640 17bd 9c80 0abe
000003d0: 727d 87bd da96 373c e141 bebd 4835 febc
000003e0: 67f9 49be 363b 83bd a84b 303d 7faa 5a3d
000003f0: 316b f73d 3963 c63d 26b5 70bc cb33 93bc
-0.072258115 -0.037514135 -0.046429835 -0.018441992 -0.11854394 -0.08938667 0.043066896 -0.0030749086
-0.064666346 0.09596975 0.07935375 -0.35034215 -0.066012934 0.056545235 -0.1779606 0.013267624
-0.05216133 -0.08644985 -0.056981996 0.028596036 -0.14651641 -0.09771548 0.006966541 -0.04376579
-0.088775344 -0.13205668 0.046966027 -0.057009943 -0.1186912 -0.02509138 -0.099835135 -0.13623337
0.1562575 -0.1375484 -0.14490539 -0.16947283 -0.10799878 -0.039709944 0.25767487 0.16011198
0.013194463 0.016913095 0.051198628 0.10523646 0.07564536 0.023253635 0.044494055 0.02970405
0.1974109 -0.0060459585 -0.029686876 0.17571908 0.0043075387 0.034801457 -0.2059389 -0.12415682
-0.05374181 0.329689 -0.2028398 -0.015722288 -0.026225729 0.0054051625 0.11063765 -0.12444808
-0.0013692861 -0.24494883 -0.233248 0.03486857 -0.11558967 0.11502756 0.029815234 0.06773521
-0.0012432194 -0.06401275 0.0177455 0.0124705965 0.007312652 0.112391986 -0.19083425 0.122294225
-0.1683189 -0.1107525 0.017987624 0.1266051 -0.019208131 0.11763927 -0.032848764 -0.0058709416
0.0206231 0.23770389 -0.22131681 0.14621773 -0.116657205 0.018588662 -0.104337566 -0.02774893
0.08745616 0.14254452 -0.045128174 -0.1848518 -0.07744899 0.047338877 -0.12386775 0.032417227
0.12072025 0.04714389 -0.11849607 -0.17378582 0.13985363 0.019769156 -0.058107037 0.19722836
-0.05416892 0.017285038 -0.1107468 0.09331856 0.026613263 -0.01422837 0.026175013 -0.105514646
0.039841037 -0.007761824 0.20257163 0.023508472 0.17944682 0.21823087 0.10556492 -0.19441837
0.14410278 0.058533106 -0.08844226 0.054760374 -0.11632417 0.035869025 0.20213298 -0.20926191
-0.09979112 -0.12964767 -0.14347589 -0.04140148 -0.069668815 0.060033087 0.023943055 0.0908373
-0.013855161 0.14135766 0.09460284 0.07671084 0.13515724 0.10348148 0.062188506 -0.074946344
-0.0487698 -0.01270088 -0.046106625 0.06258288 0.11015053 -0.1389087 -0.08058773 0.1310088
0.11615161 -0.0932987 0.014196364 -0.19600964 0.09585745 -0.10424702 -0.18523158 0.06202538
-0.053326163 -0.05346073 -0.12807737 0.17592192 -0.14789696 -0.17628007 0.014656597 0.15926766
0.18191355 -0.045129333 -0.016778227 -0.010021609 0.06693382 0.07689405 -0.108088955 -0.007257035
-0.11311548 0.12305075 0.04181115 -0.19739422 -0.041165862 0.036419086 0.1387542 -0.09701447
0.008222166 0.018149873 0.0031493567 0.17625624 0.15947758 0.11027571 -0.05227947 0.24883907
0.045900907 -0.13688394 0.1385369 0.046386514 -0.09222265 -0.025136389 0.021337936 -0.02879657
0.15665983 0.07430928 0.1400014 0.121400565 0.055566013 0.07673399 -0.0021945655 0.021755535
-0.27195764 0.15922359 -0.040838186 -0.03129245 -0.15393104 0.041728143 -0.003031513 0.039650433
-0.2143464 0.009549168 0.20573413 0.06657578 -0.16900355 -0.06459074 0.115406476 0.12489919
0.0267815 0.04916074 -0.0817422 -0.069865495 -0.06446931 0.04318702 -0.07062701 0.01471852
0.23236696 -0.07982405 -0.03692653 -0.13525623 -0.06615724 0.011205399 -0.09289909 -0.031031266
-0.19724046 -0.06407778 0.0430409 0.053385254 0.12080992 0.09686894 -0.014691627 -0.017969033

net.2.bias f4 [64]
00000000: 44d5 983c cf18 9a3b 951e c8ba 92d3 22bc
00000010: 1a2c ebbb 6e9a 703b cade c73b 9355 94bb
00000020: fd20 66bb 9178 cebb ce2b ed3b eaf2 f83a
00000030: e901 dbb9 ac85 76bb 3b3e baba 9630 87bb
00000040: a98b 2abc 1be3 bbba 9142 24bb 6e2e 7c3c
00000050: 56fb efbb a3a9 eebb 6bd6 fa3b 22f2 e1bb
00000060: 021a 1e3b b1e6 9c3c 640f 6f3a c3b6 75bb
00000070: ce25 d3bb b018 9ebb d5ca 91bb ee36 00bc
00000080: 3ef7 143b a9ad b0bb c00d d23a 4cda 2f3b
00000090: 790e 39ba d949 903c a2d4 303b 8204 75bb
000000a0: f8c8 453c d094 613a f9e8 b3bb d702 a53b
000000b0: d476 ae3b e9af a83b 78c0 953b bcd8 163c
000000c0: c1e7 953b 673f 21bc 2476 35bb 48c4 693c
000000d0: 3d36 9abb c287 78bb 32a2 0d3c da5a f23b
000000e0: 399b 92bb 4cd5 81ba 4d3e 9a3b 543c e73a
000000f0: e578 b13a ac9e c2bb cd8b 053c c06d 83bc
0.01865638 0.0047026644 -0.0015267903 -0.009938138 -0.007176888 0.003671314 0.0060995566 -0.004526803
-0.0035114877 -0.0063009937 0.007237888 0.0018993292 -0.00041772358 -0.0037616296 -0.001420922 -0.004125665
-0.010409274 -0.001433465 -0.002506409 0.015391929 -0.0073236628 -0.007283406 0.007654955 -0.0068953196
0.0024124389 0.019152971 0.000911942 -0.0037492968 -0.0064437157 -0.0048247203 -0.0044492283 -0.007825596
0.0022730376 -0.0053917957 0.0016025826 0.0026832996 -0.00070593465 0.017613338 0.0026982208 -0.003738672
0.01207184 0.00086052436 -0.005490419 0.005035739 0.005324224 0.0051479232 0.004570063 0.009206947
0.0045747464 -0.009841776 -0.0027688826 0.0142679885 -0.0047061727 -0.0037922715 0.008644627 0.0073960843
-0.0044740704 -0.0009905486 0.004707134 0.001764188 0.0013540058 -0.0059393253 0.008151007 -0.016043544

net.4.weight f4 [2, 64]
00000000: a904 f23c 64c8 dcbd 5b61 d03b 2ce9 023d
00000010: 5a9c 123e d596 1bbe 5033 29bd 72e1 c23d
00000020: eab5 7c3e eea6 1f3e 4f24 04be 17a9 4d3d
00000030: afcf 03be cfce fdbb 7e2f 3fbc 0b74 5f3e
00000040: 2a6d 943d 23b9 92bb 4408 6dbd 6eac c8bc
00000050: 7219 213e 4408 5fbd 2d67 59bd 1ded 033e
00000060: 5131 c9bd 6b04 abbc 1e1d 533e 0753 973d
00000070: 2b9b 1e3e 68d8 3c3e ff5c 123e 977c 00bd
00000080: 4236 15bb e4c3 f43c 22b3 8ebc 51ce 2fbe
00000090: 19eb 92bd 9660 6f3c 749f 273c 2344 10bd
000000a0: c229 5bbd 7e8c 4f3d 3f6d 1a3e 5e9d 2cbe
000000b0: d5c2 7ebe 5ac3 d53c 47b6 00be b520 4ebd
000000c0: 911c 2cbd d192 883d c691 fabc aca6 b6bc
000000d0: 5352 073e 713b 373e 11f1 0fbe 20a9 45be
000000e0: c665 5b3e 4336 c2bd d3fa a9be 1ce3 4ebd
000000f0: 4f58 2d3d 4072 c33d 4918 dfbc 82fd c43c
00000100: 9e0d 533e be07 ae3d 64bf cf3d a505 aabd
00000110: bbfb 23be 6ac2 76bd fa7a 59bc 6880 eebd
00000120: 6b7a f4bb 656f 81bc 9967 693d 86ea 4b3e
00000130: a6f2 83bc 84ff 50bd 1276 b63d ce65 d23d
00000140: 33d5 dcbd 21ff cebd c3d7 18be 0032 b13e
00000150: f397 afbd c324 28be 8015 993d a856 c6bd
00000160: 93d3 a8bd c92e 033e 3c28 463e c0ae 233c
00000170: 8aa2 6bbd a26d c93d c617 2c3d 939c e1bd
00000180: 94c4 383e 821f 55bd c0d8 0abd 6a6c 593d
00000190: 957a 01be de7d 363e 3581 d43d 61e3 05be
000001a0: 6bde 113e 5d17 5b3e 90f8 f7bc cced 24bd
000001b0: 2622 2ebd cfc4 403e 34c1 b7bd 988a 1f3d
000001c0: 150d 8ebd f0e3 f2bd 2ae4 863d 7f9c 233e
000001d0: b620 3f3d 1be4 143e a862 713e 9551 c73d
000001e0: 796e cc3d f093 3f3d 8b81 a2bd 6e5a 91bd
000001f0: f48a 793e fd2e f2bd 4b50 8ebe 4e62 3abe
0.029543238 -0.10780409 0.006359262 0.03196065 0.14317456 -0.15194257 -0.0413087 0.095156565
0.2467877 0.15591022 -0.12904476 0.050210085 -0.12872194 -0.007745601 -0.011669038 0.2182161
0.07247384 -0.0044776364 -0.05786921 -0.024496283 0.15732363 -0.054451242 -0.05307691 0.1288342
-0.098238595 -0.02087613 0.20616576 0.07388883 0.1548888 0.18441927 0.14293288 -0.031368818
-0.0022767936 0.029878564 -0.017419402 -0.17168547 -0.071737476 0.01461043 0.010230888 -0.03522123
-0.05350662 0.050671093 0.15080737 -0.16856906 -0.2487901 0.026094127 -0.12569533 -0.05032416
-0.04201943 0.06668628 -0.030587088 -0.022296272 0.13214998 0.17893769 -0.14056803 -0.19302797
0.21425542 -0.09483006 -0.33199176 -0.050509557 0.042320546 0.09543276 -0.02723326 0.024046663
0.20610663 0.084975705 0.10143927 -0.08301858 -0.16013996 -0.060244 -0.013273949 -0.11645585
-0.0074608824 -0.015800187 0.056983564 0.19913682 -0.016106915 -0.05102493 0.08909239 0.10273324
-0.10782852 -0.10107256 -0.14926057 0.3460846 -0.08573904 -0.16420273 0.07474804 -0.09684497
-0.082434796 0.12810816 0.19351286 0.009990394 -0.057528056 0.09835364 0.04201486 -0.11016192
0.18043739 -0.052032 -0.033898115 0.053081907 -0.12644418 0.17821452 0.10376207 -0.1307502
0.14245002 0.21395631 -0.030269891 -0.040265843 -0.042513035 0.18825077 -0.089723974 0.038950533
-0.06936089 -0.11859882 0.065864876 0.15977667 0.046662055 0.1454014 0.2357279 0.097323574
0.099820085 0.046771944 -0.079348646 -0.07097326 0.24369413 -0.118253686 -0.27795634 -0.18201563

net.4.bias f4 [2]
00000000: e5c3 cfbb 7ad4 883c
-0.006340491 0.01670288
