Results/neural_ode_sine_1000.pth (torch, 21233 bytes, 6 tensors)

net.0.weight f4 [64, 2]
0	0xbdc8375f	-0.09776186
1	0x3d464217	0.048402872
2	0xbdb5f3b1	-0.08884371
3	0x3c9161b8	0.017746791
4	0xbd97baf1	-0.07408703
5	0xbdcb30d4	-0.099214226
6	0x3d849784	0.06474212
7	0x3d8ccb85	0.06874756
8	0xbd60e80d	-0.0549088
9	0x3d961009	0.07327277
10	0x3df620c1	0.12017966
11	0x3a8aea57	0.0010598403
12	0xbd108e73	-0.0352921
13	0x3dc118ca	0.09428556
14	0x3e109ab2	0.14121512
15	0xbb0110d3	-0.0019693866
16	0xbc87b76c	-0.016566955
17	0xbe013c0d	-0.12620564
18	0x3d4fa54e	0.050694756
19	0xbdc0378c	-0.09385595
20	0xbd8b88a0	-0.068131685
21	0xbde25628	-0.11051589
22	0x3dfef224	0.124485284
23	0x3dc66c02	0.096885696
24	0xbe04da25	-0.1297384
25	0x3d291736	0.0412819
26	0x3d81bd73	0.06334963
27	0x3d53f87b	0.05175064
28	0xbdd4bbf1	-0.103874095
29	0xbd796f9f	-0.060897466
30	0x3d1357cb	0.035972398
31	0xbdab92f1	-0.08377636
32	0xbdf420ac	-0.11920294
33	0xbc286ff1	-0.010280595
34	0x3d3db470	0.046314657
35	0xbd4e74a3	-0.050404202
36	0xbd3c911f	-0.046036836
37	0xbd092817	-0.0334855
38	0x3dda597d	0.106616
39	0xbda473cc	-0.08029899
40	0x3d9cb367	0.07651406
41	0x3da274cc	0.079324335
42	0xbd895f93	-0.067076825
43	0xbd733c56	-0.059383713
44	0x3d084e9e	0.0332781
45	0x3d77a030	0.0604555
46	0x3d727d0b	0.05920128
47	0xbcb30bb3	-0.021856165
48	0xbd3bca2f	-0.045847114
49	0xbda6a1bb	-0.081363164
50	0x3c9fa31c	0.019486956
51	0xbdc3b226	-0.095554635
52	0x3d03cc5e	0.03217732
53	0xbdc5bb21	-0.09654833
54	0x3d106406	0.03525164
55	0x3dda5a34	0.10661736
56	0xbd8be60e	-0.06830989
57	0xbd09e560	-0.033666015
58	0x3e8814d8	0.26578403
59	0x3e91ebfb	0.2850035
60	0x3c52035e	0.012818186
61	0x3dc694b5	0.09696332
62	0x3e102b4e	0.1407902
63	0x3c8b6431	0.017015548
64	0x3d4ce5ea	0.05002395
65	0x3d90ab5e	0.07063936
66	0x3d4be026	0.04977431
67	0x3dbbc473	0.09168329
68	0x3db2d390	0.087317586
69	0xbc788ae6	-0.015169835
70	0x3d78f950	0.060784638
71	0x3e150a2c	0.14554662
72	0xbe0d2763	-0.13784556
73	0xbd08c836	-0.03339406
74	0x3de68aaa	0.11256917
75	0xbcf75551	-0.03019205
76	0xbdeb3938	-0.11485523
77	0x3bb457f9	0.005503651
78	0x3e19e106	0.15027246
79	0xbd5a131e	-0.053240888
80	0x3da6768d	0.081280805
81	0x3dbb90b3	0.091584586
82	0xbd41b01a	-0.047287084
83	0xbdd86dd3	-0.10567822
84	0xbd70c571	-0.058782045
85	0xbd8f374f	-0.06992971
86	0xbdcbafe1	-0.099456556
87	0xbd6d4a3e	-0.05793213
88	0x3da5c65e	0.08094476
89	0x3d8f89aa	0.07008679
90	0xbca682a5	-0.020325968
91	0xbdb7d7cd	-0.089767076
92	0xbd97d34a	-0.07413347
93	0x3d510c90	0.05103737
94	0xbcff70b0	-0.031181663
95	0xbda7ab07	-0.08186918
96	0xbdfd8e6d	-0.12380681
97	0xbdb507f3	-0.08839407
98	0xbd88d3f8	-0.06681055
99	0xbd2d7187	-0.042344596
100	0x3ac8013a	0.0015259155
101	0xbe0f785c	-0.14010757
102	0x3dc276cc	0.09495315
103	0x3e47b03f	0.19500826
104	0x3d1044fc	0.03522204
105	0xbde5b667	-0.11216431
106	0xbd80ddc4	-0.062922984
107	0x3d32a09f	0.04361021
108	0x3d005f77	0.031341042
109	0xbdbd80a0	-0.09253049
110	0x3e3ead7d	0.18620868
111	0xbc0fae43	-0.008769575
112	0x3b8fd9fa	0.0043899985
113	0xbd86ee42	-0.06588413
114	0xbd98cdff	-0.07461166
115	0x3de284d9	0.11060495
116	0xbe162d1d	-0.14665647
117	0xbd833ad7	-0.06407707
118	0xbd96a173	-0.07355013
119	0x3d8eda0b	0.06975182
120	0xbd950c99	-0.072777934
121	0xbd0adb9c	-0.033900842
122	0xbd989f8e	-0.07452308
123	0xbcd7f4bc	-0.026361816
124	0x3e05a4ee	0.13051197
125	0x3cef1a1b	0.029187253
126	0xbda77b54	-0.0817782
127	0xbd3b69d9	-0.04575524

net.0.bias f4 [64]
0	0x3dff1bfb	0.12456509
1	0xbe0c09c7	-0.13675605
2	0x3e0df55e	0.13863131
3	0x3be01e5c	0.0068395566
4	0xbd922d93	-0.07137599
5	0xbd3d7681	-0.046255592
6	0xbbe5a4d5	-0.007008175
7	0xbe2fc3a8	-0.1716448
8	0x3d700552	0.058598824
9	0xbcb974d2	-0.022638712
10	0xbea0521c	-0.31312644
11	0x3dec8fc3	0.11550858
12	0x3e92bc72	0.28659397
13	0x3d5bae1e	0.053632848
14	0xbd963367	-0.07334023
15	0xbc50d834	-0.012746859
16	0x3dd1c167	0.10241967
17	0x3dba9389	0.09110171
18	0xbc1d0a79	-0.009585016
19	0xbdf8507f	-0.121247284
20	0xbcb6ac72	-0.022299025
21	0xbcecd84b	-0.02891173
22	0x3d2a24d3	0.041539025
23	0x3dacbe7a	0.08434768
24	0x3e1a19cd	0.15048905
25	0xbd10aa7d	-0.03531884
26	0x3db10527	0.08643561
27	0xbd914da0	-0.07094884
28	0xbd823d3b	-0.06359335
29	0xbd5c7e33	-0.05383129
30	0xbd672706	-0.0564337
31	0xbe8508d4	-0.25983298
32	0xbdde6a7e	-0.108601555
33	0xbd29cf92	-0.04145772
34	0x3da732ad	0.081639625
35	0xbe071572	-0.13191774
36	0xbd94e5cf	-0.07270395
37	0x3bcffccd	0.006347275
38	0x3ca9e9dd	0.020741398
39	0xbe024767	-0.1272255
40	0x3daed0fc	0.08535954
41	0xbc052bf9	-0.00812816
42	0x398f913b	0.0002738329
43	0x3dbbd7a9	0.09171993
44	0xbc0c3d4d	-0.008559537
45	0x3cfb7357	0.030694647
46	0xbe2d02b4	-0.16895562
47	0xbc6fd1e4	-0.014637444
48	0xbd43c5df	-0.047796126
49	0xbbdf4cd2	-0.0068145776
50	0x3eed9f97	0.4641082
51	0xbaf306a7	-0.0018541411
52	0x3d40b247	0.04704502
53	0xbd840ee6	-0.06448154
54	0xbecc1b5b	-0.3986462
55	0xbe95479d	-0.291562
56	0x3b5ca638	0.003366841
57	0xbea16b8f	-0.31527373
58	0xbd24551c	-0.04012023
59	0x3e8403cc	0.25784147
60	0xbd38b351	-0.045092884
61	0x3c53f098	0.01293578
62	0xbc574894	-0.013139863
63	0xbc950f4b	-0.018195769

net.2.weight f4 [64, 64]
0	0xbcc2adb6	-0.023764472
1	0xbb225c61	-0.00247743
2	0x3d1fd09a	0.039017297
3	0xbe8f581a	-0.27996904
4	0xbdacaa6b	-0.08430942
5	0x3e127810	0.14303613
6	0xbdbd935a	-0.09256621
7	0xbb79785d	-0.0038066127
8	0x3e14a647	0.14516555
9	0xbe35ec5d	-0.17765947
10	0x3de9b5e0	0.11411643
11	0x3d6f7dae	0.058469467
12	0xbd344696	-0.04401263
13	0xbdfb3ff5	-0.12268058
14	0xbc17e031	-0.00926976
15	0x3e7159b3	0.23569374
16	0xbd65f4db	-0.056141715
17	0x3e7624af	0.24037431
18	0xbd0e0651	-0.034673993
19	0x3d9fbb12	0.07799353
20	0x3d35452e	0.044255428
21	0xbd7fee46	-0.062483095
22	0x3c6f02d2	0.014588075
23	0x3de9128b	0.1138049
24	0x3db4c0d1	0.08825839
25	0xbd16e7cd	-0.036842156
26	0x3e55f51f	0.20894288
27	0x3e136634	0.14394456
28	0x3d5c6932	0.05381126
29	0x3b0b3b02	0.0021244888
30	0x3e079f9a	0.13244477
31	0x3e81c1aa	0.25343066
32	0xbdb3d077	-0.08779996
33	0xbc9eb801	-0.01937485
34	0x3de6c53a	0.11268087
35	0xbda2309f	-0.0791943
36	0x3c946882	0.01811624
37	0x3d127e95	0.03576525
38	0xbd684fb3	-0.056716632
39	0xbd3a14eb	-0.045430105
40	0xbd100efc	-0.03517054
41	0xbd87120f	-0.06595241
42	0xbcaf3ab8	-0.021390304
43	0xbc80ef31	-0.015739055
44	0xbc3683e4	-0.011139844
45	0x3b6f0236	0.0036469824
46	0xbcf6d1e9	-0.03012939
47	0xbda4d25e	-0.08047937
48	0x3e686b0e	0.22697088
49	0x3e41e233	0.18933944
50	0x3db5d932	0.08879317
51	0xbd16814d	-0.036744405
52	0x3d0c38a7	0.034233715
53	0xbdde0c85	-0.10842232
54	0x3dd9da7a	0.10637374
55	0xbc1be013	-0.009513873
56	0xbd8708c4	-0.06593469
57	0x3d2879a8	0.041131645
58	0xbe0e61e0	-0.13904524
59	0xbcba08ef	-0.022709338
60	0xbe426247	-0.18982802
61	0x3cb0f7d6	0.021602552
62	0x3da0c7ca	0.07850607
63	0x3e48df07	0.19616328
64	0xbe6c0513	-0.2304881
65	0xbdac55da	-0.084148124
66	0xbd7e3e02	-0.062070854
67	0xbd3d484f	-0.046211537
68	0x3cb8b27d	0.022546047
69	0xbe150040	-0.14550877
70	0xbe1411c8	-0.14459908
71	0x3d46e44d	0.04855757
72	0x3d81a7a3	0.06330802
73	0xbda08cab	-0.0783933
74	0xbe03c1ae	-0.12866852
75	0xbe2679ef	-0.16257451
76	0xbc542acb	-0.012949656
77	0x3d43afa8	0.04777494
78	0x3de16663	0.11005857
79	0xbc76a021	-0.015052826
80	0xbd38f17d	-0.045152176
81	0x3d60f007	0.054916408
82	0x3d6b9052	0.05751068
83	0x3d21caa1	0.039499883
84	0x3e82c950	0.25544214
85	0x3de04632	0.10950889
86	0x3dfcaf8e	0.12338172
87	0x3dce63e9	0.1007765
88	0x3c211f2d	0.009834093
89	0x3e492791	0.19644
90	0x3e5484c3	0.2075377
91	0x3d6dedce	0.058088116
92	0xbd1c9421	-0.038227204
93	0xbd83a1a9	-0.064273186
94	0x3df3ee29	0.1191066
95	0x3d9fd26b	0.07803806
96	0xbd1eca72	-0.038767286
97	0xbe49754e	-0.19673654
98	0x3e71118b	0.23541848
99	0xbd8ada6a	-0.067799404
100	0x3de40ff7	0.111358576
101	0x3ddba8ac	0.10725531
102	0xbe163360	-0.14668036
103	0x39c02bd1	0.0003665374
104	0x3cb54e25	0.022131989
105	0x3e316595	0.17323907
106	0x3aaa3d1b	0.0012988182
107	0x3dd91096	0.10598867
108	0x3e3acdde	0.18242595
109	0x3e1ac2cf	0.15113376
110	0xbb12c6bd	-0.002239629
111	0x3e28b51f	0.16475342
112	0x3d9abf1c	0.075559825
113	0xbd5273a4	-0.051379815
114	0x3e129f16	0.14318499
115	0x3e4b74c6	0.19868764
116	0xbc5bce59	-0.013415896
117	0xbdb27729	-0.08714134
118	0x3db2af61	0.08724857
119	0x3c483fb1	0.012222216
120	0x3cfffe79	0.031249272
121	0xbe13db05	-0.14439018
122	0xbc0564c9	-0.008141705
123	0x3a942bec	0.0011304594
124	0xbce298c3	-0.027660733
125	0x3dc01513	0.093790196
126	0xbd9a92aa	-0.07547505
127	0x3dbce767	0.09223824
128	0xbc8b6efc	-0.017020695
129	0xbe19a7dc	-0.1500544
130	0xbd8c321e	-0.068454966
131	0xbe75a166	-0.2398735
132	0xbb41c366	-0.002956593
133	0xbc32b4fe	-0.01090741
134	0xbbaff417	-0.005369674
135	0x3c699ad8	0.014258109
136	0xbd542783	-0.051795494
137	0x3d8fd83c	0.07023665
138	0x3de0ba1e	0.10972999
139	0x3dac0024	0.08398464
140	0x3d7a45e4	0.06110181
141	0xbe9234c4	-0.28555882
142	0x3bbc6fc1	0.005750627
143	0xbd88b884	-0.066758186
144	0x3d970d64	0.07375601
145	0xbd97466d	-0.073864795
146	0x3cb1c718	0.02170138
147	0x3d795889	0.06087545
148	0x3d5b5c35	0.053554732
149	0x3e2bdcf3	0.16783504
150	0xbe8edbb8	-0.27902007
151	0xbd0c7d36	-0.034299098
152	0xbdf2cf6b	-0.11855968
153	0x3df279ce	0.11839639
154	0x3e2efd33	0.17088775
155	0xbdb8e391	-0.0902778
156	0x3e0d78f9	0.13815679
157	0x3d121bca	0.035671033
158	0xbd44dbd6	-0.048061214
159	0x3d97020c	0.07373437
160	0xbd13f65f	-0.03612363
161	0xbe8460ef	-0.25855204
162	0xbe59e31b	-0.2127804
163	0x3dd8df5f	0.1058948
164	0x3e0a0f20	0.13482332
165	0x3db5f1b3	0.08883991
166	0x3d105def	0.035245832
167	0x3c94a096	0.01814298
168	0xbe2a26b9	-0.16616334
169	0x3d5c06b3	0.053717326
170	0x3e8083c6	0.25100535
171	0x3d8bdce8	0.06829244
172	0x3e29546d	0.16536112
173	0xbd32a4eb	-0.04361431
174	0xbd993533	-0.0748085
175	0x3e57c517	0.21071278
176	0x3dff53f7	0.12467187
177	0xbe6d5d2b	-0.23180072
178	0x3c8ccf55	0.017188707
179	0x3dbcd709	0.09220702
180	0xbddd4a93	-0.108052395
181	0xbd6b1f8a	-0.057403125
182	0x3e8cfa19	0.2753456
183	0x3ce1d975	0.027569512
184	0x3d8d31d9	0.06894273
185	0x3df5d5d5	0.12003676
186	0x3e18c4bf	0.14918803
187	0xbd998573	-0.074961565
188	0x3cada400	0.021196365
189	0x3e18eb24	0.14933449
190	0xbe3d9e8a	-0.18517509
191	0x3ce8d835	0.028423408
192	0x3e1f8fc3	0.15582184
193	0xbe124490	-0.14283967
194	0xbc8cb812	-0.017177615
195	0xbb807372	-0.003920012
196	0x3e28a1b4	0.16467935
197	0xbe0cb089	-0.13739218
198	0x3e136c00	0.14396667
199	0x3d64f890	0.05590111
200	0x3d700229	0.05859581
201	0x3c761bb7	0.015021256
202	0x3da021aa	0.07818921
203	0x3dae7578	0.08518499
204	0x3a861d32	0.001023209
205	0x3c7f1aa8	0.01557032
206	0xbdccf6af	-0.10007989
207	0x3d30ae79	0.04313514
208	0x3dcb069b	0.09913369
209	0xbd7d5059	-0.061844204
210	0x3d6dac09	0.058025394
211	0xbe845264	-0.2584411
212	0x3d89fbd5	0.06737486
213	0x3e250226	0.16114101
214	0x3cfd2fca	0.030906577
215	0xbd30ddb9	-0.0431802
216	0xbe0fde51	-0.1404965
217	0xbe302b3b	-0.17203991
218	0xbc84b20f	-0.016198186
219	0xbd0b7f2c	-0.034056827
220	0x3deae2cc	0.11469039
221	0xbe8d5122	-0.27600962
222	0xbd08bb66	-0.033381842
223	0xbdb80bb0	-0.08986604
224	0x3de33f05	0.110960044
225	0x3c15e8b2	0.009149717
226	0xbd04d284	-0.032427326
227	0x3ddcebd7	0.107871704
228	0xbbea2c3d	-0.007146387
229	0x3d1dbf25	0.038512368
230	0xbe0a0a78	-0.13480556
231	0xbd3e75c8	-0.046499044
232	0x3e11023d	0.1416101
233	0xbd2c97c9	-0.04213694
234	0x3dc9e963	0.09858968
235	0x3dc0b35a	0.094092086
236	0x3d7ea15e	0.06216561
237	0xbdf0da14	-0.11760345
238	0xbde299b8	-0.11064476
239	0xbd3094cd	-0.043110657
240	0x3db2acc0	0.08724356
241	0xbd090e26	-0.03346076
242	0xbd194e53	-0.03742821
243	0x3d1e0511	0.03857905
244	0xbdfe066c	-0.124035686
245	0x3d612188	0.05496362
246	0xbe41d629	-0.18929352
247	0x3c740f65	0.0148962485
248	0xbdccfc01	-0.100090034
249	0xbd848b19	-0.06471843
250	0xbda84cd8	-0.08217782
251	0x3e4bd379	0.19904889
252	0x3dc876eb	0.09788307
253	0x3de2c389	0.110724516
254	0x3d86fbcd	0.06590996
255	0x3d8ae1b3	0.0678133

net.2.bias f4 [64]
0	0x3d20c85e	0.039253585
1	0x3d5f5c55	0.054531414
2	0xbe1b0c52	-0.15141419
3	0x3c8f57e4	0.017497964
4	0xbd28d64b	-0.04121999
5	0xba769a5d	-0.0009407157
6	0x3d7f5133	0.062333297
7	0x3e08e7e2	0.13369706
8	0x3d55fe03	0.052244198
9	0x3de8c7ef	0.11366259
10	0x3d6f5c8b	0.058437865
11	0x3dba3dfd	0.090938546
12	0xbd2a259a	-0.041539766
13	0xbcc8ff62	-0.024535839
14	0x3cc47f00	0.02398634
15	0x3cbcc25b	0.023041895
16	0x3e5198e0	0.20468473
17	0x3c22893c	0.009920415
18	0x3ce00f2c	0.027350985
19	0xbd3114aa	-0.043232597
20	0x3c6a03f7	0.014283172
21	0xbcaab0e6	-0.020836305
22	0xbd3d9961	-0.04628885
23	0x3d1c3c86	0.038143657
24	0xbd87d400	-0.06632233
25	0x3d88abcb	0.06673392
26	0xb47f63a4	-2.3784975e-07
27	0xbcf3d0d5	-0.029762665
28	0xbc30b7cf	-0.010786011
29	0xbd5ce6f1	-0.05393118
30	0xbd8e5289	-0.06949336
31	0x3c020e3d	0.007937965
32	0xbd958fd5	-0.073028244
33	0x3d96a85c	0.07356331
34	0x3d3876f2	0.04503531
35	0x3d347c29	0.04406372
36	0x3d7af0ac	0.06126468
37	0xbdd403fb	-0.10352322
38	0x3d6df039	0.058090422
39	0xb92a14f3	-0.00016220268
40	0x3cd2d100	0.025734425
41	0xbba4869c	-0.0050209295
42	0xbc1f86a3	-0.00973669
43	0x3d122e84	0.035688892
44	0xbd3858bc	-0.0450065
45	0xbc365a82	-0.011129977
46	0xbdda6a6b	-0.10664829
47	0x3d931b2d	0.07182918
48	0x3e08705e	0.13324115
49	0xbd90d246	-0.070713565
50	0xbde9fa80	-0.11424732
51	0xbd8b6987	-0.06807237
52	0xbbb464bc	-0.0055051725
53	0xbd23ceb2	-0.039992042
54	0xbbe19802	-0.006884576
55	0xbc882671	-0.016619893
56	0x3c82d10c	0.015968822
57	0x3e04efe7	0.1298214
58	0xbba72508	-0.00510085
59	0xbd294d50	-0.041333497
60	0xbd6b0ff6	-0.05738827
61	0x3d1c2aeb	0.038126867
62	0xbd7ccd7a	-0.061719395
63	0x3d7fce41	0.06245256

net.4.weight f4 [2, 64]
0	0xbe156bc0	-0.14591885
1	0xbe44fe82	-0.19237712
2	0xbdeca453	-0.1155478
3	0x3e3be6a8	0.18349707
4	0xbd925987	-0.07145982
5	0x3d50d917	0.050988283
6	0x3e3e66ea	0.18593946
7	0xbdf90180	-0.12158489
8	0xbe14d9fb	-0.14536278
9	0xbe71e9db	-0.23624365
10	0x3e8b2cf9	0.2718275
11	0xbe24811e	-0.1606488
12	0x3d3b56d4	0.045737103
13	0x3cce98ad	0.025219286
14	0x3d90ea6c	0.070759624
15	0x3e404f8c	0.18780345
16	0xbd5d4b3e	-0.054026835
17	0x3da8f45f	0.08249735
18	0x3e790cd9	0.24321307
19	0xbe288dff	-0.16460417
20	0x3d386e22	0.045026906
21	0xbdd9bff3	-0.106323145
22	0x3e5303aa	0.20606866
23	0x3e0ad268	0.13556826
24	0x3e048508	0.12941372
25	0x3d7d4761	0.06183565
26	0xbe50289f	-0.20327996
27	0xbb11e4da	-0.002226165
28	0xbe52a2f3	-0.20569973
29	0x3cba2c46	0.02272619
30	0xbe05c47d	-0.13063236
31	0x3db8051c	0.089853495
32	0x3e2ad906	0.1668435
33	0xbba26270	-0.0049555823
34	0x3e3a655f	0.18202733
35	0xbca8e5a6	-0.020617317
36	0x3c21081f	0.009828596
37	0x3e286685	0.16445358
38	0x3ccda3a4	0.025102444
39	0xbebe55f0	-0.3717494
40	0x3e614c4c	0.22001761
41	0xbe23296e	-0.15933773
42	0x3e803dfc	0.2504729
43	0xbea25576	-0.31705827
44	0x3e3bdd20	0.18346071
45	0x3dcd8115	0.10034386
46	0xbe2914c0	-0.16511822
47	0xbe68d7be	-0.22738549
48	0xbd899acc	-0.06718978
49	0xbe061dc7	-0.13097297
50	0x3e4574aa	0.19282785
51	0xbd2ea763	-0.0426401
52	0x3e14c43c	0.14527982
53	0x3e67f09f	0.22650383
54	0xbd896220	-0.06708169
55	0xbd929480	-0.071572304
56	0x3cb64dfd	0.022253985
57	0x3e4e953a	0.20174113
58	0xbebbe955	-0.36701456
59	0x3ccfed59	0.02538173
60	0xbde7830a	-0.113042906
61	0xbe28d79d	-0.164885
62	0xbda0d67c	-0.0785341
63	0x3e7590d6	0.23981032
64	0xbdb34583	-0.08753493
65	0xbda3d1e3	-0.07999017
66	0x3d5fa704	0.054602638
67	0x3e1faafa	0.15592566
68	0x3dca02f7	0.09863847
69	0xbe01f69a	-0.12691727
70	0x3e4139ca	0.18869701
71	0xbe33df06	-0.17565545
72	0xbe13b1cc	-0.14423293
73	0xbd46fdf9	-0.04858205
74	0xbd882a00	-0.06648636
75	0xbd9093b7	-0.07059424
76	0x3e52466e	0.2053468
77	0x3dccb554	0.09995523
78	0x3dd6d89d	0.104905345
79	0x3e20af25	0.15691812
80	0x3e72ac74	0.23698598
81	0xbdc8c53a	-0.09803243
82	0xbcbec66f	-0.02328798
83	0x3e27657a	0.16347304
84	0xbe94cf1d	-0.29064265
85	0x3e85343e	0.2601642
86	0x3ca74b39	0.020421611
87	0xbe92f3c4	-0.28701603
88	0x3e45bcf6	0.19310364
89	0xbe5c1a7d	-0.2149448
90	0x3c9f85b3	0.019472932
91	0x3e13ea47	0.14444838
92	0x3e0e16ad	0.13875838
93	0x3e09b649	0.13448443
94	0x3dbc48d4	0.09193578
95	0x3e4dd9c7	0.20102607
96	0x3e580b53	0.2109807
97	0x3d8a9527	0.0676673
98	0xbe01318f	-0.12616561
99	0xbde94685	-0.11390404
100	0x3db9d99e	0.0907471
101	0x3ced3dbc	0.028960101
102	0xbe30caa3	-0.172648
103	0x3daff4f2	0.085916415
104	0xbea6df0a	-0.3259204
105	0x3b2d6344	0.0026456872
106	0x3c590229	0.013245144
107	0xbbed314a	-0.0072385417
108	0x3d15c154	0.036561325
109	0x3dce7f50	0.10082877
110	0xbe924a95	-0.28572527
111	0x3d615ede	0.055022113
112	0xbde022f2	-0.10944165
113	0xbe12ed4d	-0.14348336
114	0x3de4efc5	0.11178545
115	0xbe1e8655	-0.15480931
116	0x3cc3662d	0.023852432
117	0x3d83ebbf	0.064414494
118	0x3e2c5be5	0.1683193
119	0xbe69bfbb	-0.22827046
120	0xbe473bf8	-0.1945647
121	0xbcfc7ae3	-0.030820316
122	0x3dad7309	0.08469207
123	0x3e1be5bc	0.15224355
124	0x3e041877	0.12899958
125	0x3e66f418	0.22554052
126	0x3e4574c2	0.19282821
127	0xbdca13e6	-0.098670766

net.4.bias f4 [2]
0	0xbc0251fa	-0.007954115
1	0xbdb58873	-0.08863916
