Results/neural_ode_sine_500.pth (torch, 21221 bytes, 6 tensors)

net.0.weight f4 [64, 2]
0	0xbd6d1118	-0.05787763
1	0xbd0cae90	-0.034346163
2	0x3cf2c206	0.029633533
3	0xbdf1ad1e	-0.118005976
4	0x3c6a3a0a	0.014296064
5	0x3ca36ba4	0.019948788
6	0xbe29426e	-0.16529247
7	0xbd9c0b99	-0.076193996
8	0xbdca6980	-0.09883404
9	0xbeac2772	-0.33623844
10	0xbd918c63	-0.07106855
11	0x3d56c31e	0.052432172
12	0x3d8bcb6f	0.06825911
13	0x3cc3902d	0.02387246
14	0xbc7dcbd6	-0.015490493
15	0xbdd19715	-0.10233895
16	0x3dc275f6	0.094951555
17	0xbdefc39b	-0.11707231
18	0x3c8482db	0.016175678
19	0xbd9c8fc2	-0.07644607
20	0xbc793730	-0.015210912
21	0xbe2a56a4	-0.16634613
22	0xbe1d96c0	-0.15389538
23	0x3cf13f29	0.029449062
24	0xbe2e93a6	-0.17048511
25	0x3d280b53	0.041026425
26	0xbe1b7222	-0.15180257
27	0x3e2dc8a9	0.16971077
28	0xbdbaecdd	-0.09127209
29	0xbe53d8ab	-0.20688121
30	0x3e467466	0.1938034
31	0xbdda1549	-0.10648591
32	0xbc9f8807	-0.019474043
33	0xbdf0d964	-0.11760214
34	0x3d939a7c	0.072072
35	0x3dbe002d	0.09277377
36	0xbc2b3e8d	-0.010451925
37	0xbd8d6876	-0.0690469
38	0x3df7409f	0.12072872
39	0x3e2dcab1	0.16971852
40	0x3dffc387	0.12488466
41	0xbd0b8e4d	-0.034071255
42	0xbd36031c	-0.04443656
43	0x3dab5ccc	0.08367309
44	0x3e211181	0.15729333
45	0x3e26bc1e	0.16282699
46	0xbd7d7c78	-0.06188628
47	0x3df6d4fb	0.120523416
48	0x3e245883	0.1604939
49	0xbbeb3112	-0.0071774805
50	0xbda9af18	-0.082853496
51	0xbe06e7f9	-0.13174428
52	0xbdf812c4	-0.12112954
53	0xbcbec837	-0.02328883
54	0xbdaa70a9	-0.083222695
55	0x3e1830be	0.14862344
56	0xbd440baf	-0.047862705
57	0x3e3ac53e	0.18239304
58	0x3e103b2b	0.14085071
59	0xbd192ff9	-0.037399266
60	0xbc3bf048	-0.011470862
61	0x3e1fc452	0.15602234
62	0xbccd6056	-0.02507035
63	0x3d12a967	0.035806086
64	0x3de3619c	0.11102602
65	0x3dcf29ea	0.10115416
66	0x3dbea523	0.09308841
67	0x3ca2c3c4	0.019868739
68	0x3d36807a	0.04455612
69	0xbc76242e	-0.015023274
70	0x3c7f2f21	0.015575201
71	0xbe09d76a	-0.1346108
72	0x3dbb5973	0.091479205
73	0x3c86c9ff	0.016453741
74	0x3d935be3	0.071952604
75	0xbdbcbbed	-0.092155315
76	0x3d90482e	0.07045017
77	0x3e2b9658	0.1675657
78	0xbd29bc67	-0.04143944
79	0x3dd14f36	0.102201864
80	0x3cda92c4	0.026681311
81	0xbe3a9833	-0.18222122
82	0x3de70e03	0.112819694
83	0x3d398f3e	0.045302622
84	0xbe0341b6	-0.12818035
85	0x3dac035c	0.08399078
86	0xbdb95fc9	-0.09051473
87	0x3d8c4315	0.068487324
88	0xbd2d55c5	-0.042318124
89	0x3e219d71	0.15782715
90	0x3dea9161	0.1145351
91	0x3df17692	0.117901936
92	0x3e1911d0	0.14948201
93	0xbd4442d8	-0.04791531
94	0xbd3b1398	-0.045672983
95	0x3db0fb22	0.0864165
96	0x3d7b72de	0.061388843
97	0xbd2aa6cf	-0.041662987
98	0x3b986ede	0.0046518883
99	0x3ecc5937	0.39911816
100	0xbcc82f10	-0.024436504
101	0x3df47497	0.119363
102	0xbdd902f8	-0.10596269
103	0xbd3f70ac	-0.04673831
104	0x3c4c6014	0.012474079
105	0x3e420327	0.18946515
106	0x3e499333	0.19685058
107	0x3e898ae2	0.26863772
108	0x3e0b2eb3	0.13592033
109	0x3d7b5c2e	0.061367206
110	0x3d740586	0.05957558
111	0xbd0e29a2	-0.034707673
112	0xbdc19a5c	-0.0945327
113	0xbcf70391	-0.030153068
114	0x3e2c203f	0.16809176
115	0xbc5105a6	-0.012757694
116	0x3d26e953	0.04074986
117	0x3db2bf72	0.087279215
118	0xbd8060e3	-0.0626848
119	0xbd876897	-0.06611746
120	0x3e5a99cd	0.21347733
121	0xbc74cf32	-0.014941977
122	0xbc99b6d5	-0.018763939
123	0xbe03e5c8	-0.12880623
124	0x3dfa7a8f	0.122304074
125	0x3d0abac6	0.033869527
126	0x3d0da721	0.034583215
127	0xbdc786a7	-0.0974248

net.0.bias f4 [64]
0	0xbb4379ed	-0.0029827312
1	0x3bd962e5	0.0066341036
2	0xbc1b11d8	-0.0094647035
3	0xbc9d191a	-0.019177008
4	0x3cb14ebd	0.02164399
5	0x3bb62c22	0.0055594603
6	0x3b3a741c	0.0028450554
7	0xbc2a30d1	-0.010387615
8	0x3ae37c4e	0.0017355771
9	0x3ba7668d	0.0051086606
10	0x3c0301fa	0.007996077
11	0x3bcfed4e	0.0063454276
12	0x3b18c426	0.0023310273
13	0xbbd5fcc2	-0.006530375
14	0xbc6db5e6	-0.0145087
15	0xbd0d0032	-0.034424014
16	0xbc6517da	-0.013982737
17	0xb99857af	-0.0002905703
18	0xbb877827	-0.0041341963
19	0xbc06df14	-0.008231897
20	0xbbb1e539	-0.005428937
21	0x3b4e2ce9	0.0031459874
22	0x3c4ca919	0.012491488
23	0x3be880dc	0.0070954394
24	0x3a95ab59	0.0011418863
25	0x3ba53a9e	0.005042388
26	0xbc443306	-0.011975056
27	0x3c1ebeb6	0.009689024
28	0xbc0da38a	-0.008644948
29	0x3b8a7baa	0.0042261677
30	0xbc703dfa	-0.014663214
31	0x3be4497f	0.006966769
32	0xbc473f3e	-0.012161074
33	0x3a2a45e9	0.0006495403
34	0xba26079e	-0.00063335325
35	0x3c176462	0.009240242
36	0xbc31110c	-0.010807287
37	0xbb209a16	-0.0024505905
38	0x3be0eb21	0.006863967
39	0xbc62be2f	-0.013839289
40	0xbaa4a4f1	-0.0012561363
41	0xbb5defcc	-0.0033864854
42	0x3d00d9d8	0.031457752
43	0x3be91703	0.007113339
44	0x37a81d6e	2.0040865e-05
45	0xbb9554d0	-0.0045572296
46	0xbb5ebbc4	-0.0033986429
47	0x3a873d1f	0.0010317898
48	0xbcb56ee9	-0.022147613
49	0x3c715922	0.014730724
50	0x3abcb9f7	0.0014398684
51	0xbc11c822	-0.008897813
52	0xbc70f62f	-0.014707132
53	0xba248cad	-0.0006277066
54	0x3bc75367	0.0060829404
55	0xbbfc066e	-0.007691196
56	0xbba346a1	-0.004982785
57	0xbbc8b7e4	-0.006125437
58	0x3c2f9abf	0.010718047
59	0x3c840438	0.016115293
60	0xba54c685	-0.000811674
61	0x3c53f379	0.012936466
62	0xbb3ca530	-0.0028784983
63	0x3b2f0202	0.0026704078

net.2.weight f4 [64, 64]
0	0xbe6c30b3	-0.23065452
1	0xbe56c2d3	-0.20972757
2	0xbddd7944	-0.10814145
3	0xbddd8f82	-0.108183876
4	0xbdf5852a	-0.1198829
5	0xbe454e6d	-0.19268198
6	0x3d166dc7	0.036725786
7	0xbdc2f855	-0.09520022
8	0x3dc7db21	0.097585924
9	0xbc906141	-0.0176245
10	0x3e032daa	0.12810388
11	0xbc8d45a7	-0.017245127
12	0xbe3b28a1	-0.18277217
13	0x3df3926f	0.11893164
14	0xbccc6c9f	-0.024954138
15	0x3bc14db3	0.005899155
16	0xbd26ef30	-0.04075545
17	0xbdb357f3	-0.08757009
18	0xbe270fe8	-0.16314662
19	0x3d77d7ed	0.060508657
20	0x3e5405bd	0.20705314
21	0x3dd069c3	0.101764224
22	0xbd05d50d	-0.032673884
23	0xbd2d0530	-0.042241275
24	0xbd60dc0c	-0.054897353
25	0xbc59ff8a	-0.013305554
26	0xbdf2b8dd	-0.11851666
27	0x3cf478f4	0.029842831
28	0x3cec1fb5	0.028823713
29	0x3c9bd8ce	0.019024279
30	0x3e39cb53	0.18143968
31	0xbc210452	-0.00982769
32	0x3d87d3d6	0.066322014
33	0x3de274ec	0.11057457
34	0xbd7b5ce2	-0.061367877
35	0x3d5a5276	0.053301297
36	0x3dab1239	0.08353085
37	0x3cc777db	0.024349144
38	0xbd377511	-0.044789378
39	0xbc0bf416	-0.008542081
40	0x3ce48258	0.027894184
41	0xbceb173a	-0.028697599
42	0xbd357ccb	-0.044308465
43	0xbd203eca	-0.03912238
44	0x3ccd0928	0.02502878
45	0xbd89e1d4	-0.067325264
46	0x3d7661d4	0.06015189
47	0x3dbda650	0.09260237
48	0x3e128304	0.14307791
49	0xbda83477	-0.08213132
50	0x3e128e5a	0.14312115
51	0x39aa0561	0.00032428934
52	0x3dcae2db	0.099065505
53	0x3d472bf1	0.04862589
54	0x3d57d553	0.052693676
55	0xbb687f4b	-0.0035476263
56	0x3ddd5836	0.108078405
57	0x3dd57013	0.10421767
58	0x3da45e1f	0.08025765
59	0xbe189dcb	-0.14903943
60	0xbd238261	-0.03991926
61	0x3d9e9b4e	0.07744466
62	0x382ce3af	4.1220042e-05
63	0xbd3b0b90	-0.045665324
64	0x3d539b70	0.05166191
65	0xbd3668b6	-0.044533454
66	0x3e860410	0.26174974
67	0x3d9ba4fd	0.075998284
68	0xbd9bf034	-0.076141745
69	0xbe22c317	-0.15894733
70	0xbdbdb237	-0.092625074
71	0x3d558d8e	0.05213695
72	0x3d34c326	0.04413142
73	0xbd350342	-0.04419256
74	0xbd77952d	-0.060445
75	0xbc84fac2	-0.016232852
76	0xbd9a2417	-0.07526415
77	0xbc030ea3	-0.007999095
78	0x3e1c85da	0.15285435
79	0xbd7fac5b	-0.06242023
80	0x3d38b3ab	0.04509322
81	0xbde73798	-0.112899005
82	0xbda96a5b	-0.08272239
83	0x3e21a070	0.15783858
84	0xbd80de90	-0.062924504
85	0xbe82ebb3	-0.2557045
86	0xbccc3e3c	-0.02493202
87	0x3d5aeacd	0.05344658
88	0x3db67898	0.0890972
89	0x3d0ccb3b	0.034373503
90	0xbd0b0f95	-0.033950407
91	0xbe4ff803	-0.20309453
92	0xbe082bce	-0.1329796
93	0x3d37a18c	0.044831797
94	0xbd978ce1	-0.073999174
95	0xbdb564d6	-0.088571236
96	0xbdf2b958	-0.11851758
97	0x3e323503	0.17403035
98	0x3dd1897a	0.102313
99	0x3d5c2d03	0.053753864
100	0xbd4e4999	-0.050363157
101	0xbda755ae	-0.08170639
102	0xbe4bebd2	-0.19914177
103	0xbd128827	-0.035774376
104	0x3dc0eeba	0.094205335
105	0x3de5d6d7	0.11222618
106	0x3de2214d	0.11041508
107	0xbdced6a5	-0.10099534
108	0xbde85f28	-0.113462746
109	0x3d292238	0.0412924
110	0x3b174da3	0.0023087047
111	0xbd9e53af	-0.07730805
112	0xbd2e5e6a	-0.04257051
113	0x3dbcf8cf	0.09227144
114	0x3e16428a	0.1467382
115	0xbe4e5f92	-0.20153645
116	0xbe116cc1	-0.14201643
117	0xbe42cab8	-0.19022644
118	0xbdaef8ed	-0.085435726
119	0x3dc0eddd	0.09420369
120	0xbdc41b3a	-0.095755056
121	0x3cc9da06	0.024640094
122	0x3cb20b05	0.02173377
123	0xbcc1dfe7	-0.023666335
124	0xbda0368c	-0.07822904
125	0x3e0c7a46	0.13718519
126	0xbd60237e	-0.054721348
127	0x3d5e9b55	0.054347355
128	0xbe126ff8	-0.14300525
129	0xbe30cee5	-0.17266424
130	0x3e61bd49	0.22044863
131	0xbe27ffdc	-0.16406196
132	0x3c980c71	0.01856062
133	0xbd03ca29	-0.032175217
134	0xbdc0fa85	-0.09422783
135	0xbdf35906	-0.11882214
136	0xbd57f32e	-0.05272215
137	0xbe18779e	-0.1488938
138	0xbc23569b	-0.009969379
139	0x3ced9755	0.029002825
140	0x3dc1b784	0.09458831
141	0x3cb9cc7d	0.022680515
142	0xbd54e6a9	-0.051977787
143	0x3d97d44f	0.074135415
144	0xbdceaecc	-0.100919336
145	0xbe0ad049	-0.13556017
146	0x3d6804f8	0.056645364
147	0x3c110b6d	0.008852822
148	0xbd32571b	-0.0435401
149	0x3dd3f61a	0.103496745
150	0x3c6c95f9	0.014440053
151	0xbca79605	-0.020457277
152	0x3e0bec1a	0.13664284
153	0xbde20714	-0.11036506
154	0x3c157bbc	0.009123739
155	0x3b55a7ec	0.003260131
156	0x3d71e184	0.05905296
157	0x3dc71a4c	0.097218126
158	0x3e7d7b19	0.2475399
159	0xbddcd9bf	-0.10783719
160	0x3d839ab5	0.064259924
161	0xbdaa7a9b	-0.083241664
162	0x3c6a7163	0.01430926
163	0xbdc0ce5c	-0.0941436
164	0xbdb671a1	-0.08908392
165	0xbd6e6053	-0.05819733
166	0x3d8e6b88	0.06954104
167	0x3e520b33	0.20512085
168	0xbd840146	-0.064455554
169	0x3dcdf0d0	0.10055697
170	0x3c3ceb45	0.011530702
171	0xbe2d4bee	-0.16923496
172	0xbcd2ef6a	-0.025748927
173	0xbe20a2ca	-0.15687099
174	0xbd9021f2	-0.070377246
175	0x3e4f4ebf	0.20244883
176	0x3e2546ea	0.16140333
177	0x3d31ec10	0.043438017
178	0x3dd7f2c9	0.105443545
179	0x3d32aac7	0.043619897
180	0x3dcccfbe	0.10000561
181	0xbe4de4fa	-0.20106879
182	0xbe08708e	-0.13324186
183	0xbd8cfed6	-0.068845436
184	0x3d17bc1a	0.037044622
185	0x3d90b915	0.070665516
186	0xbc21be9f	-0.009872108
187	0xbdf57b73	-0.11986437
188	0xbe1317b4	-0.14364511
189	0xbd252fa7	-0.040328648
190	0xbe0135e5	-0.12618215
191	0xbc56e805	-0.013116841
192	0x3e438797	0.19094692
193	0xbe47823f	-0.19483279
194	0xbc48f0f4	-0.012264479
195	0xbe33f49b	-0.17573778
196	0x3d7f471f	0.062323686
197	0xbb08370a	-0.002078476
198	0x3d2367e0	0.039893985
199	0x3e47bf66	0.19506606
200	0xbd9cd48c	-0.076577276
201	0xbb6adb34	-0.0035836222
202	0x3a8f04a2	0.0010911415
203	0x3dc7306b	0.09726032
204	0x3d9ed757	0.077559166
205	0xbd5abbb4	-0.053401664
206	0x3c7b5617	0.01534035
207	0xbdfb60e0	-0.12274337
208	0x3e55d1aa	0.20880762
209	0x3d681790	0.056663096
210	0xbdb8953f	-0.090128414
211	0x3ce6ff31	0.028197857
212	0xbdfba5ae	-0.1228746
213	0x3e4721e8	0.19446528
214	0x3da9c015	0.0828859
215	0xbc978bc5	-0.018499264
216	0x3d338ef4	0.043837503
217	0xbd4a47e0	-0.04938495
218	0xbdc4891f	-0.09596466
219	0x3cce3a65	0.025174329
220	0xbd471c7c	-0.04861115
221	0x3e703353	0.23457079
222	0x3dd1afee	0.10238634
223	0x3c86c7ff	0.016452787
224	0xbe075fc6	-0.13220128
225	0xbe4fc619	-0.20290412
226	0x3dfbec9d	0.1230099
227	0x3d9978c9	0.07493741
228	0x3d2eea80	0.042704105
229	0xbdc0d5b4	-0.09415761
230	0x3e457ae4	0.1928516
231	0x39e12362	0.00042941706
232	0x3e1cadf0	0.15300727
233	0x3dfc9ff2	0.12335195
234	0xbe43142a	-0.1905066
235	0xbe043633	-0.129113
236	0xbdf4269c	-0.11921427
237	0x3db1f6f7	0.08689683
238	0x3ce31d54	0.027723946
239	0xbcce6b7e	-0.02519774
240	0xbd34b5cb	-0.044118684
241	0x3dfba042	0.12286426
242	0xbc8dbb4b	-0.017301222
243	0xbe3c27d2	-0.18374565
244	0xbd8b8763	-0.06812932
245	0x3e917ae3	0.28414068
246	0x3c9971a2	0.018730942
247	0xbd694a53	-0.056955647
248	0xbe82ae69	-0.2552369
249	0x3db47c72	0.088127986
250	0x3df3d5eb	0.11906036
251	0xbe030935	-0.12796481
252	0xbdb52c49	-0.08846337
253	0xbdaddcbe	-0.08489369
254	0x3e1ebf29	0.1550261
255	0x3d7817a5	0.060569424

net.2.bias f4 [64]
0	0xbaa4e8eb	-0.0012581622
1	0x3c3b1284	0.011417989
2	0xbc0d2513	-0.008614796
3	0x3bf0d8d4	0.0073500667
4	0x3c214219	0.009842419
5	0xbbe7cb6b	-0.00707381
6	0xbb9d0fc6	-0.00479314
7	0xbb97d4c4	-0.004633518
8	0x372e4404	1.0387044e-05
9	0xbb33ef8d	-0.0027456016
10	0x3bb3cb56	0.005486886
11	0xbb9a77af	-0.0047139744
12	0xbb0a8798	-0.002113795
13	0x3c560836	0.013063481
14	0x3aec9b77	0.0018051703
15	0xbccdc0d5	-0.025116364
16	0xbc3d0040	-0.011535704
17	0xbbae7902	-0.005324484
18	0xbcbcc596	-0.023043435
19	0xbb7367c6	-0.0037140711
20	0x3b92012c	0.004455706
21	0x3b88780a	0.0041647004
22	0x3b2696c8	0.0025419462
23	0x3bcf8698	0.0063331835
24	0xbbaf5f68	-0.0053519495
25	0xbb7bf4cc	-0.003844547
26	0x3c1e1508	0.009648569
27	0xbbc8b90b	-0.0061255745
28	0xbbe6149f	-0.007021501
29	0xbb955e2e	-0.0045583462
30	0x3bf31c1c	0.0074191224
31	0xbab1bd3a	-0.0013560422
32	0xbbf1ef6f	-0.007383279
33	0xbbf0214e	-0.007328189
34	0xbb5009d5	-0.0031744142
35	0x3bd5d413	0.0065255254
36	0x3b99030e	0.0046695536
37	0x3b72a6df	0.0037025732
38	0x3c1927d6	0.0093478765
39	0xba11626c	-0.0005545977
40	0xba100ab9	-0.0005494762
41	0xbb4fa3cc	-0.0031683324
42	0x3b67ec36	0.0035388595
43	0xba8e3173	-0.0010848477
44	0x3b6d620a	0.0036221766
45	0x3ba457e6	0.005015361
46	0xba71593d	-0.0009206718
47	0xbba5305b	-0.005041165
48	0x3a00e6ef	0.0004917224
49	0xba8722e6	-0.0010310083
50	0x3a7e3a7e	0.0009698047
51	0x3b54a25c	0.0032445407
52	0xbab1176d	-0.001351101
53	0xbbcb4467	-0.0062032226
54	0xba8457d8	-0.001009698
55	0x3c205705	0.009786372
56	0x3b241288	0.002503546
57	0x3bb50826	0.005524653
58	0xbd1d650a	-0.038426436
59	0x3c8eac1d	0.017416054
60	0xbb5bcb77	-0.0033538023
61	0x386116d8	5.3665455e-05
62	0x3b5f8d32	0.0034111259
63	0x3a54d675	0.0008119115

net.4.weight f4 [2, 64]
0	0x3dc6a645	0.09699682
1	0xbe4a31dc	-0.19745582
2	0x3ea531b8	0.32264495
3	0x3d8d1ef6	0.06890671
4	0x3ddc9c08	0.10771948
5	0x3e8ea455	0.2785975
6	0x3e5a3cc4	0.21312243
7	0xbc51b262	-0.012798877
8	0xbdfa9a3b	-0.122364484
9	0x3de126e3	0.10993745
10	0xbdb1eaf0	-0.08687389
11	0x3daa547b	0.083168946
12	0xbcaa33a6	-0.020776581
13	0x3ba76b7d	0.005109249
14	0x3c58af78	0.013225429
15	0xbe28e959	-0.16495265
16	0xbdc863e8	-0.097846806
17	0x3dc6b1e4	0.09701899
18	0xbe1d856a	-0.15382925
19	0x3d28590a	0.04110054
20	0x3c44c9d1	0.012011007
21	0xbe0373e6	-0.1283718
22	0x3d934921	0.071916826
23	0xbe69d143	-0.22833733
24	0x3e6e4bb7	0.2327107
25	0x3dc26655	0.094921745
26	0xbe072bbd	-0.13200279
27	0x3e280712	0.16408947
28	0xbcb97dea	-0.022643048
29	0x3dd83209	0.105564184
30	0xbe45feef	-0.1933553
31	0xbe237df0	-0.1596601
32	0xbe51e301	-0.20496751
33	0x3e3e3491	0.1857474
34	0xbd18b4a1	-0.037281636
35	0xbe6f1f83	-0.23351865
36	0xbe30b100	-0.1725502
37	0x3d34d367	0.04414692
38	0xbded93e7	-0.11600476
39	0x3db4be63	0.08825376
40	0x3e19ebff	0.15031432
41	0xba5e778b	-0.0008486441
42	0x3cc84aef	0.024449794
43	0xbdae35e9	-0.08506376
44	0x3d7353c9	0.059406076
45	0xbdb87186	-0.09006028
46	0xbcbf3157	-0.023338957
47	0x3e5eb990	0.21750474
48	0xbd0d0ecb	-0.034437936
49	0x3d50c5d1	0.050969902
50	0xbe1c7397	-0.15278469
51	0xbe210cd8	-0.15727556
52	0xbde216bf	-0.11039495
53	0x3db73ad3	0.08946767
54	0xbce230d9	-0.027611183
55	0xbe110fe2	-0.14166215
56	0xbe1b5b9a	-0.15171662
57	0x3e47c2c1	0.19507886
58	0xbe4b0180	-0.19824791
59	0x3e00a14f	0.12561534
60	0x3bd3698b	0.0064517907
61	0xbd49efed	-0.049301077
62	0xbe3bbdb9	-0.18334092
63	0xbe354851	-0.17703368
64	0xbe1743b0	-0.14771914
65	0x3c642223	0.013924154
66	0x3d8a9b12	0.067678586
67	0xbd8877e3	-0.066634916
68	0xbd94b756	-0.07261531
69	0x3da54e91	0.08071626
70	0x3e262685	0.16225632
71	0xbdf15718	-0.1178419
72	0xbe4841c1	-0.19556333
73	0x3e109aa4	0.1412149
74	0xbd5848e6	-0.052803896
75	0x3da15ffe	0.07879637
76	0xbdc490a9	-0.09597904
77	0x3d5594e4	0.052143946
78	0xbe03c1a2	-0.12866834
79	0x3df5944f	0.11991178
80	0xbccf93e8	-0.025339082
81	0x3d99133e	0.07474373
82	0x3deb324a	0.11484201
83	0x3cb45f00	0.022017956
84	0xbd8de982	-0.06929304
85	0xbe13901e	-0.14410445
86	0x3e1cd090	0.15313935
87	0x3bd1aa74	0.0063984934
88	0xbcae18b0	-0.021252006
89	0x3db5acef	0.08870875
90	0x3cfbf7b4	0.030757762
91	0x3d17a415	0.037021715
92	0xbe83cc3c	-0.25741756
93	0xbce626ca	-0.028094668
94	0xbd533454	-0.051563576
95	0x3e174e8a	0.14776054
96	0x3d3d6bad	0.046245266
97	0x3d00f4ab	0.031483334
98	0x3c969813	0.018383062
99	0xbdb23009	-0.08700568
100	0xbd6f7d20	-0.058468938
101	0x3dea1efa	0.114316896
102	0x3bfb26d8	0.0076645426
103	0xbe1d620e	-0.15369436
104	0x3dd83291	0.1055652
105	0x3e05ea23	0.13077597
106	0xbe548015	-0.20751984
107	0x3e0d718e	0.13812849
108	0xbe3006ab	-0.17190044
109	0xbbfce0ec	-0.0077172425
110	0xbe97cc07	-0.29647848
111	0x3c87da8b	0.016583702
112	0xbe07e2ca	-0.13270107
113	0xbe0be3c7	-0.13661109
114	0xbc0d5d71	-0.008628235
115	0xbd19413f	-0.03741574
116	0x3ddfa016	0.10919206
117	0x3cb33504	0.021875866
118	0x3e2a23f8	0.16615283
119	0xbaf5d1e2	-0.0018754567
120	0x3e587884	0.21139723
121	0xbe6c56d4	-0.23079997
122	0x3de9bb9e	0.11412738
123	0xbe32b0a3	-0.17450194
124	0x3d62a196	0.05532988
125	0x3d6bbd3b	0.05755351
126	0x3e802a07	0.25032064
127	0xbe82226e	-0.25416893

net.4.bias f4 [2]
0	0xbbd61802	-0.0065336237
1	0xb9fb5e2a	-0.00047944608
